Code/model/model_atk_9.97.pt (torch, 962074 bytes, 50 tensors)

conv1.0.weight f4 [100, 1, 3]
0.098853305 -0.42131728 0.4147197 0.3036241 -0.46655646 -0.20343909 -0.3962872 0.29173362
0.24907686 0.5055189 -0.2730401 -0.39227876 0.26082465 0.36026013 0.029992057 -0.38708735
-0.555649 0.5352906 0.45597515 0.21102129 0.09732198 0.2724367 0.10050768 -0.23226887
-0.03274147 0.18934813 -0.38330156 -0.115776055 0.55449235 -0.4904127 0.3400498 -0.44485727
0.08680338 0.4069091 0.03929821 -0.064662635 -0.5241413 -0.5546899 0.22939558 -0.10913856
0.5150252 0.03080351 -0.55722046 0.5607638 0.12184407 0.3824958 0.3370628 -0.19202565
0.11001419 -0.017336192 0.003038844 0.2840896 0.4923793 -0.24910305 0.4673315 -0.21877454
-0.2874322 -0.55906063 0.17479847 0.5308661 -0.17122446 0.07116476 -0.2649967 0.20069447
-0.38399968 -0.2093532 0.068092816 0.4082264 -0.34712145 -0.2062807 -0.0994961 -0.38258314
0.4685983 0.00940915 -0.11933076 -0.592459 0.47353864 0.103381604 0.22026671 0.29205784
-0.019844498 0.3089735 0.2980213 -0.48295477 -0.033040687 0.56925666 -0.067803524 0.42420605
0.4959731 0.20897661 0.30361566 -0.18113588 0.46044126 -0.25340503 0.11712638 -0.3204075
-0.20346773 -0.5642963 0.49754736 -0.55648947 -0.4644658 -0.3725492 -0.10695418 0.5713554
-0.50103515 -0.50787395 -0.38392437 0.46514523 0.5442504 0.22348176 0.35442472 -0.33634067
0.4298266 0.08670562 -0.5590629 -0.5118247 -0.24467815 0.3629033 -0.4245606 0.09266961
0.19146205 -0.0544569 0.037983935 -0.092625596 -0.16961299 0.19494905 -0.2678042 0.015940342
-0.4602497 -0.56178397 0.43128827 -0.19818553 -0.5273489 -0.4866052 0.2946711 -0.40748295
-0.5503827 0.20596342 0.3216799 0.24167712 -0.34819394 -0.054817416 0.41571075 -0.46153685
-0.28227666 -0.5341578 0.07080695 0.48940685 -0.5122851 -0.42759165 -0.38791537 0.106788814
0.24517906 0.4139316 -0.17144242 0.38963905 0.08899935 -0.51609504 -0.23549676 0.26919237
0.39731342 0.49771145 0.031852283 0.4780028 0.25023037 0.18343857 -0.5318586 0.34835616
-0.5557394 0.15481918 0.42974797 -0.22598822 0.54377997 -0.3406146 0.24172306 -0.16494794
-0.2879983 0.023793003 -0.4724834 0.032209072 -0.12680292 0.29369155 -0.13418837 -0.47691485
-0.33991244 0.25581646 -0.09894551 -0.3605028 0.027217211 -0.026941616 -0.2007816 0.36303475
0.24783598 0.079477884 -0.57243013 0.26974887 -0.38720632 0.13817023 0.040380385 -0.0152375465
-0.44339746 -0.4131607 -0.30945957 0.0937426 -0.41944247 -0.521073 -0.08371681 -0.4415251
0.3046081 -0.17227201 0.17617929 0.44083682 0.302717 0.3430802 -0.5627068 0.24604331
-0.53320074 0.13938914 0.37669277 0.340981 -0.031948604 -0.34342 0.5003682 -0.28728035
0.21811916 -0.11806278 0.14461972 0.36148795 -0.28144836 0.40102926 -0.05442388 -0.19512223
-0.19306815 0.53029937 0.2201013 0.42422384 -0.09810258 0.17792521 0.5673548 0.4045868
-0.14007373 -0.4392399 0.1956875 -0.30917865 0.09136832 0.013934847 0.024374545 0.2290888
0.24140745 -0.2103086 0.46059343 -0.2601146 -0.3102772 0.26117536 0.25093785 -0.5887431
00000000: 9a73 ca3d e6b6 d7be 2456 d43e 9e74 9b3e
00000010: 7de0 eebe 5652 50be 28e6 cabe 1c5e 953e
00000020: 010e 7f3e b069 013f e9cb 8bbe c3d8 c8be
00000030: cf8a 853e 0474 b83e e7b1 f53c 5030 c6be
00000040: 033f 0ebf ce08 093f 9375 e93e f715 583e
00000050: bf50 c73d d37c 8b3e f8d6 cd3d e4d7 6dbe
00000060: eb1b 06bd 7ae4 413e 1a40 c4be ff1b edbd
00000070: 36f3 0d3f 6017 fbbe 021b ae3e 55c4 e3be
00000080: f8c5 b13d 6456 d03e 29f7 203d d86d 84bd
00000090: 202e 06bf 2800 0ebf ade6 6a3e 0a84 dfbd
000000a0: b1d8 033f a557 fc3c 00a6 0ebf 378e 0f3f
000000b0: 6289 f93d 7dd6 c33e 7f93 ac3e 5fa2 44be
000000c0: 1f4f e13d a104 8ebc 5827 473b 3174 913e
000000d0: 2419 fc3e df14 7fbe 1346 ef3e 6f06 60be
000000e0: 502a 93be 991e 0fbf 5ffe 323e d7e6 073f
000000f0: 7755 2fbe d4be 913d a6ad 87be da82 4d3e
00000100: 9b9b c4be af60 56be 3f74 8b3d 0d03 d13e
00000110: e7b9 b1be 3f3b 53be 9cc4 cbbd f0e1 c3be
00000120: 1eec ef3e d628 1a3c af63 f4bd 65ab 17bf
00000130: a873 f23e bcb9 d33d 998d 613e 9b88 953e
00000140: ee90 a2bc c631 9e3e 3f96 983e d945 f7be
00000150: ac55 07bd ceba 113f 93dc 8abd 8931 d93e
00000160: 30f0 fd3e f7fd 553e 8373 9b3e af7b 39be
00000170: f5be eb3e 4ebe 81be f5df ef3d 740c a4be
00000180: d859 50be b975 10bf 87be fe3e 1876 0ebf
00000190: 76ce edbe c5be bebe cb0a dbbd 5944 123f
000001a0: d743 00bf 0704 02bf bc91 c4be 8427 ee3e
000001b0: ff53 0b3f 67d8 643e 2877 b53e d834 acbe
000001c0: 3b12 dc3e b792 b13d bf1e 0fbf f206 03bf
000001d0: e98c 7abe 76ce b93e 0260 d9be 91c9 bd3d
000001e0: a10e 443e 330e 5fbd 0b95 1b3d 7db2 bdbd
000001f0: 07af 2dbe b9a0 473e a21d 89be 5295 823c
00000200: d9a5 ebbe 13d1 0fbf d1d1 dc3e 26f1 4abe
00000210: 5600 07bf 5124 f9be 21df 963e 9ba1 d0be
00000220: e1e5 0cbf 13e8 523e 3ab3 a43e 357a 773e
00000230: 7a46 b2be 3a88 60bd 0ad8 d43e 8f4e ecbe
00000240: 9186 90be 91be 08bf 3c03 913d 8993 fa3e
00000250: 1e25 03bf 4bed dabe d89c c6be 18b4 da3d
00000260: 3810 7b3e d8ee d33e 9a8e 2fbe c57e c73e
00000270: 4b45 b63d ce1e 04bf 1026 71be 95d3 893e
00000280: aa6c cb3e 09d4 fe3e 8a77 023d c8bc f43e
00000290: 321e 803e 52d7 3b3e e327 08bf bd5b b23e
000002a0: f044 0ebf eb88 1e3e ed07 dc3e 7569 67be
000002b0: 2a35 0b3f 0965 aebe 4086 773e 1de8 28be
000002c0: 8374 93be 8be9 c23c 58e9 f1be a9ed 033d
000002d0: a0d8 01be bd5e 963e ad68 09be 2f2e f4be
000002e0: 0109 aebe 60fa 823e f2a3 cabd d393 b8be
000002f0: a1f6 de3c aab4 dcbc b199 4dbe b1df b93e
00000300: b7c8 7d3e 4dc5 a23d c88a 12bf 861c 8a3e
00000310: e83f c6be 7f7c 0d3e e765 253d e7a6 79bc
00000320: fe04 e3be cd89 d3be 7c71 9ebe 1ffc bf3d
00000330: 2ac1 d6be 0a65 05bf b873 abbd 940f e2be
00000340: 98f5 9b3e 1368 30be 5868 343e 5db5 e13e
00000350: b9fd 9a3e 35a8 af3e 8e0d 10bf c7f2 7b3e
00000360: d87f 08bf 07bc 0e3e e0dd c03e 1095 ae3e
00000370: 8adc 02bd bfd4 afbe 2118 003f 6916 93be
00000380: a15a 5f3e e6ca f1bd 3117 143e f314 b93e
00000390: 001a 90be b553 cd3e 93eb 5ebd 1fce 47be
000003a0: a8b3 45be b3c1 073f 3c62 613e de33 d93e
000003b0: 01ea c8bd 0732 363e 2a3e 113f 0026 cf3e
000003c0: 7d6f 0fbe 0de4 e0be 4e62 483e aa4c 9ebe
000003d0: 501f bb3d fc4e 643c 20ad c73c 4196 6a3e
000003e0: 8433 773e 235b 57be e7d2 eb3e be2d 85be
000003f0: a7dc 9ebe c7b8 853e ed7a 803e deb7 16bf

conv1.0.bias f4 [100]
0.36439797 -0.42677653 0.535101 -0.17928867 -0.47080275 -0.008179407 -0.17837068 0.39338046
-0.50554657 0.34039435 0.5085016 0.38508958 -0.26528877 -0.45945793 -0.13111739 -0.4964636
0.110327125 0.26820713 -0.04366341 -0.29889834 0.0024088854 -0.00611776 0.46037462 -0.4058022
0.13013498 0.09566173 0.21656333 -0.3035268 0.4321293 -0.32980937 0.22541085 -0.36071196
0.34145707 -0.4022284 -0.3002458 0.32508302 0.54322445 -0.0024806552 -0.3088212 -0.4307485
-0.2251597 0.39283714 -0.35956445 -0.26325005 -0.4194042 0.17567475 -0.46923697 -0.4366622
-0.14362831 -0.05652522 -0.27922934 0.5601514 -0.5607033 0.49058118 -0.23640096 -0.5054705
-0.14752027 0.31410068 0.22924258 0.33075434 0.09423696 -0.18164217 0.27332917 0.2465455
0.1741241 -0.49163365 0.12096373 -0.23243885 -0.39549637 -0.54469526 0.5551396 -0.21958464
0.536732 -0.44632286 -0.20493433 -0.29929903 0.41965276 -0.35825744 -0.3519785 -0.35595366
-0.5701011 0.06884944 0.24896428 0.19006728 0.36095646 -0.12125911 0.13918985 -0.06709708
-0.070167296 -0.5697067 -0.28218555 0.5606584 0.48030883 0.11502415 0.031514652 0.50925463
-0.19905995 -0.19252023 -0.055734456 -0.20014146
00000000: 5f92 ba3e 7482 dabe 61fc 083f 7397 37be
00000010: 0f0d f1be eb02 06bc cea6 36be 2a69 c93e
00000020: 806b 01bf 2b48 ae3e 292d 023f 762a c53e
00000030: eed3 87be 123e ebbe a343 06be 7a30 febe
00000040: 30f3 e13d 7252 893e 67d8 32bd 3409 99be
00000050: 64de 1d3b 7e77 c8bb 39b6 eb3e 4ec5 cfbe
00000060: 1b42 053e 4cea c33d c7c2 5d3e dd67 9bbe
00000070: 0d40 dd3e c6dc a8be 1ad2 663e 3daf b8be
00000080: 76d3 ae3e e1f0 cdbe d1b9 99be 4871 a63e
00000090: c210 0b3f 7d92 22bb d01d 9ebe 118b dcbe
000000a0: 4490 66be f321 c93e d518 b8be b6c8 86be
000000b0: 26bc d6be 15e4 333e d43f f0be 3092 dfbe
000000c0: 4d13 13be fd86 67bd 26f7 8ebe 1566 0f3f
000000d0: 408a 0fbf 752d fb3e 1813 72be 8466 01bf
000000e0: 8e0f 17be ced1 a03e 91be 6a3e a258 a93e
000000f0: 4fff c03d 6800 3abe cdf1 8b3e 6c76 7c3e
00000100: 974d 323e 68b7 fbbe d5bb f73d 7304 6ebe
00000110: 807e cabe 2671 0bbf a11d 0e3f ccda 60be
00000120: 4567 093f 6e84 e4be 4eda 51be b93d 99be
00000130: badc d63e 856d b7be 8736 b4be 8f3f b6be
00000140: 25f2 11bf ef00 8d3d 7ef0 7e3e ffa0 423e
00000150: 49cf b83e b256 f8bd c987 0e3e 326a 89bd
00000160: dfb3 8fbd 4cd8 11bf a07a 90be 4f87 0f3f
00000170: 0aeb f53e c891 eb3d 8215 013d 835e 023f
00000180: 5fd6 4bbe 0624 45be d049 64bd e2f1 4cbe

conv1.1.weight f4 [100]
1.0067701 0.9925985 1.011331 1.002934 0.99005497 1.0009129 0.98957735 1.0069116
0.99914664 1.0080222 1.000475 0.99578035 0.9880385 0.9963904 1.0117146 1.0003991
1.0007118 0.99676955 1.0096582 1.0206728 0.99904364 0.9999199 1.0025668 0.9830483
0.99596715 1.01148 0.99130845 1.0195256 0.99687606 0.9777396 0.99052584 0.99390256
1.001418 0.983787 1.0060072 1.0007138 0.9799028 0.9926487 0.98507255 1.0211391
0.9968267 0.9998481 0.9916187 0.9980713 0.98967165 0.99066055 1.0155232 1.0062113
0.9957177 0.99760777 1.0105873 0.9896674 0.9930052 0.9859401 0.98841834 1.0286039
1.0119568 1.0203077 1.0018891 0.9914866 1.0041085 0.99332273 0.9934257 0.99801487
1.0100441 1.0162206 0.9988312 0.985491 0.9929968 0.9988832 0.9881819 1.0347323
1.0092903 1.0025326 0.9956056 0.99648786 1.0026548 1.00062 0.99235153 0.98780274
0.9975435 0.9979627 0.99436784 1.0082352 0.9988692 1.0151309 1.0030721 0.9780364
0.99860764 0.99514186 0.98481965 1.0010381 0.99090075 0.9912364 1.0042711 0.9843779
0.99835783 1.0095685 0.98946154 1.0197225
00000000: d8dd 803f ef1a 7e3f 4b73 813f 2460 803f
00000010: 3e74 7d3f ea1d 803f f154 7d3f 7be2 803f
00000020: 13c8 7f3f df06 813f 910f 803f 76eb 7e3f
00000030: 17f0 7c3f 7113 7f3f dd7f 813f 140d 803f
00000040: 5317 803f 4a2c 7f3f 7b3c 813f 68a5 823f
00000050: 53c1 7f3f c0fa 7f3f 1c54 803f 0ea9 7b3f
00000060: b4f7 7e3f 2d78 813f 64c6 7d3f d17f 823f
00000070: 4533 7f3f 244d 7a3f 1a93 7d3f 6670 7e3f
00000080: 772e 803f 77d9 7b3f d8c4 803f 6417 803f
00000090: e9da 7a3f 3a1e 7e3f b72d 7c3f b0b4 823f
000000a0: 0930 7f3f 0cf6 7f3f b9da 7d3f 9a81 7f3f
000000b0: 1f5b 7d3f ee9b 7d3f aafc 813f 88cb 803f
000000c0: 5be7 7e3f 3963 7f3f ed5a 813f d85a 7d3f
000000d0: 9735 7e3f 9266 7c3f fc08 7d3f 4ba9 833f
000000e0: cd87 813f 7199 823f e73d 803f 11d2 7d3f
000000f0: a186 803f 664a 7e3f 2651 7e3f e77d 7f3f
00000100: 2049 813f 8413 823f 67b3 7f3f 2349 7c3f
00000110: 0a35 7e3f cfb6 7f3f 7df9 7c3f 1c72 843f
00000120: 6d30 813f fd52 803f 02e0 7e3f d419 7f3f
00000130: fe56 803f 5114 803f c00a 7e3f a4e0 7c3f
00000140: 035f 7f3f 7c7a 7f3f e48e 7e3f da0d 813f
00000150: e4b5 7f3f cfef 813f ab64 803f 9860 7a3f
00000160: c0a4 7f3f 9ec1 7e3f 241d 7c3f 0422 803f
00000170: acab 7d3f abc1 7d3f f58b 803f 3100 7c3f
00000180: 6194 7f3f 8a39 813f 5a4d 7d3f 4486 823f

conv1.1.bias f4 [100]
0.047049277 0.042107105 0.06346641 -0.044761866 0.020845423 0.031142447 0.016561039 0.037098803
0.0130019 0.09706767 0.043036923 -0.0012552709 -0.0041991468 0.03506394 0.050577514 0.026627755
0.026897788 0.025772648 0.07763076 0.061226167 -0.06196749 0.023385359 0.036991533 -0.0059368587
-0.0008921637 0.050236452 -0.001638551 0.06588735 0.043615256 -0.010301421 0.029488241 0.01183897
0.0585435 0.03130326 0.062756255 0.05316462 0.013025296 -0.03998329 0.01931875 0.09770873
-0.018462121 0.021004999 -0.018170014 -0.020387327 0.012676546 0.039772976 0.06054429 0.04122428
0.007409468 -0.061773185 0.06370197 0.01948253 0.007405095 0.020156516 0.013435162 0.04485173
0.035894316 0.0656243 -0.018043505 0.0014126597 0.0076662023 0.026535068 0.014102658 -0.024685808
0.053167257 0.05618233 0.0053581116 -0.03147183 0.0075596166 -0.014308314 0.033022266 0.07441854
0.06291997 0.03525068 -0.0012537251 -0.0012640984 0.044136025 0.015201297 0.014302009 0.03917846
0.014490391 0.01577389 0.014937744 0.04524038 0.020088496 0.054965187 -0.039177597 0.006005566
0.0015471716 -0.028878694 0.06014931 0.03330439 0.042182136 0.023096602 0.01586037 0.013907561
0.00095549907 0.045046296 -0.0413322 0.049270898
00000000: beb6 403d 8078 2c3d adfa 813d 3858 37bd
00000010: 05c4 aa3c 721e ff3c 04ab 873c eaf4 173d
00000020: ec05 553c 6acb c63d 7c47 303d e787 a4ba
00000030: ff98 89bb 359f 0f3d 5e2a 4f3d 7322 da3c
00000040: c058 dc3c 2921 d33c e0fc 9e3d 4ac8 7a3d
00000050: 9fd1 7dbd a792 bf3c 6f84 173d fb89 c2bb
00000060: 18e0 69ba bdc4 4d3d a6c4 d6ba f2ef 863d
00000070: e9a5 323d 4bc7 28bc 5391 f13c 3df8 413c
00000080: 4fcb 6f3d d937 003d 5a86 803d 25c3 593d
00000090: 0d68 553c 85c5 23bd 5b42 9e3c 841b c83d
000000a0: e03d 97bc ad12 ac3c 48d9 94bc 5303 a7bc
000000b0: 4ab1 4f3c fde8 223d 4afd 773d cada 283d
000000c0: 1fcb f23b e105 7dbd 2e76 823d d499 9f3c
000000d0: 70a6 f23b 471f a53c 271f 5c3c 73b6 373d
000000e0: eb05 133d 0866 863d f9cf 93bc fe28 b93a
000000f0: c434 fb3b 1260 d93c d60e 673c e439 cabc
00000100: e9c5 593d 711f 663d 1993 af3b 9be8 00bd
00000110: a9b6 f73b 6b6d 6abc 5b42 073d bf68 983d
00000120: 2fdc 803d 0463 103d 0954 a4ba 1bb0 a5ba
00000130: fac7 343d dc0e 793c f952 6a3c 9879 203d
00000140: 1b69 6d3c 3f38 813c 70bd 743c fa4d 393d
00000150: a190 a43c 2d23 613d b078 20bd 57ca c43b
00000160: 77ca ca3a 0393 ecbc 1f5f 763d 2f6a 083d
00000170: 2dc7 2c3d 1635 bd3c 9bed 813c 8adc 633c
00000180: 757a 7a3a 7782 383d f44b 29bd 48d0 493d

conv1.1.running_mean f4 [100]
0.36439693 -0.42677256 0.53509927 -0.17928685 -0.47080958 -0.008175027 -0.17837885 0.39337885
-0.5055441 0.3403947 0.5085019 0.38508543 -0.26527974 -0.45946252 -0.13111879 -0.496469
0.110326126 0.2682013 -0.043662988 -0.2989001 0.002412771 -0.0061135497 0.46037316 -0.40579462
0.13013102 0.09566183 0.2165581 -0.30352804 0.43212423 -0.32982138 0.22540462 -0.36070713
0.3414597 -0.40221348 -0.3002452 0.3250875 0.54321235 -0.0024825828 -0.30880708 -0.43074897
-0.22516157 0.3928378 -0.35955694 -0.2632466 -0.41939646 0.17568274 -0.46923915 -0.43666083
-0.14362033 -0.056520402 -0.2792288 0.5601445 -0.5606961 0.49056867 -0.23640902 -0.50547045
-0.14752063 0.3141009 0.22924478 0.33075872 0.09423642 -0.18163615 0.27333352 0.24654408
0.17412668 -0.49163374 0.120968215 -0.23243211 -0.39548537 -0.5446919 0.5551297 -0.21958433
0.5367325 -0.44632232 -0.20493889 -0.29930303 0.41965204 -0.35825887 -0.35198414 -0.35596585
-0.57009673 0.06885164 0.24895892 0.19006741 0.36095425 -0.1212596 0.13919182 -0.067109905
-0.07016297 -0.5697025 -0.28219736 0.56065726 0.48029664 0.11502985 0.031513505 0.50924295
-0.19905782 -0.1925213 -0.055724066 -0.20014156
00000000: 3c92 ba3e ef81 dabe 44fc 083f f996 37be
00000010: f40d f1be 8cf0 05bc f2a8 36be f468 c93e
00000020: 576b 01bf 3748 ae3e 2e2d 023f eb29 c53e
00000030: bfd2 87be ac3e ebbe 0144 06be 2f31 febe
00000040: aaf2 e13d ae51 893e f6d7 32bd 6f09 99be
00000050: 951f 1e3b 2c54 c8bb 08b6 eb3e 50c4 cfbe
00000060: 1141 053e 59ea c33d 68c1 5d3e 0768 9bbe
00000070: 633f dd3e 59de a8be 78d0 663e 9bae b8be
00000080: ced3 ae3e edee cdbe bdb9 99be de71 a63e
00000090: f70f 0b3f d4b2 22bb f61b 9ebe 218b dcbe
000000a0: c190 66be 0922 c93e d917 b8be 42c8 86be
000000b0: 22bb d6be 2de6 333e 1d40 f0be 0292 dfbe
000000c0: 3511 13be f081 67bd 14f7 8ebe a165 0f3f
000000d0: c889 0fbf d12b fb3e 3515 72be 8366 01bf
000000e0: a60f 17be d5d1 a03e 25bf 6a3e 3559 a93e
000000f0: 06ff c03d d4fe 39be 5ff2 8b3e 0d76 7c3e
00000100: 444e 323e 6bb7 fbbe 2fbe f73d af02 6ebe
00000110: 0f7d cabe ee70 0bbf fb1c 0e3f b7da 60be
00000120: 4d67 093f 5c84 e4be 80db 51be 3f3e 99be
00000130: a2dc d63e b56d b7be 4437 b4be 2841 b6be
00000140: dcf1 11bf 1702 8d3d 16ef 7e3e 08a1 423e
00000150: ffce b83e f456 f8bd 4d88 0e3e eb70 89bd
00000160: 9ab1 8fbd 06d8 11bf 2c7c 90be 3c87 0f3f
00000170: 71e9 f53e c594 eb3d 4e14 013d bf5d 023f
00000180: d0d5 4bbe 4e24 45be eb3e 64bd e9f1 4cbe

conv1.1.running_var f4 [100]
5.012923e-07 2.738681e-06 1.307465e-06 2.1900112e-06 6.0733228e-06 4.5897555e-06 8.177898e-06 8.3059706e-07
9.421788e-07 6.761338e-07 3.862513e-07 2.4089122e-06 1.1533436e-05 3.0858462e-06 1.6359805e-06 4.6753876e-06
1.4430482e-07 4.8047277e-06 1.3029187e-06 2.8828665e-06 1.7546453e-06 2.7097217e-06 8.384898e-07 6.38636e-06
2.438221e-06 1.3001976e-06 3.5543246e-06 1.6834626e-06 3.5293938e-06 1.7717268e-05 4.464557e-06 2.7209408e-06
2.5359518e-06 2.6519294e-05 7.2084765e-07 4.754091e-06 1.6958655e-05 1.1038866e-06 2.395632e-05 3.7209787e-07
4.4943977e-07 2.818906e-07 6.7510323e-06 1.7938489e-06 8.874777e-06 9.002683e-06 1.6893331e-06 6.544884e-07
8.307486e-06 5.002778e-06 8.84792e-07 5.199763e-06 6.6526363e-06 1.859073e-05 8.3253435e-06 3.963204e-07
2.12085e-06 3.7722975e-07 1.2535877e-06 2.73763e-06 1.2634919e-07 5.614381e-06 2.795378e-06 5.9002593e-07
2.219984e-06 2.1447337e-07 2.811376e-06 6.057387e-06 1.4892386e-05 1.4348151e-06 1.1788688e-05 3.941848e-07
1.7961036e-06 1.0196054e-06 2.6026235e-06 2.5546296e-06 3.8285e-07 1.4102648e-06 4.5791417e-06 1.8524312e-05
2.569192e-06 7.618899e-07 3.4970021e-06 2.5643737e-07 1.3403069e-06 1.3761575e-06 1.3179242e-06 1.9502244e-05
2.3172818e-06 2.951436e-06 1.6930659e-05 7.656384e-07 1.8400024e-05 4.156916e-06 1.3721396e-06 1.6581851e-05
1.4253318e-06 8.9584444e-07 1.2964024e-05 3.5377047e-07
00000000: 8b90 0635 2eca 3736 287c af35 1bf8 1236
00000010: 72c9 cb36 b301 9a36 ce33 0937 32f6 5e35
00000020: 09ea 7c35 907f 3535 f95d cf34 cca8 2136
00000030: bb7f 4137 6f16 4f36 dd93 db35 46e1 9c36
00000040: 35f2 1a34 4c38 a136 f2df ae35 4577 4136
00000050: 2781 eb35 aad8 3536 9514 6135 6a4a d636
00000060: 51a0 2336 7382 ae35 d586 6e36 56f3 e135
00000070: 86da 6c36 8b9f 9437 41ce 9536 6899 3636
00000080: 522f 2a36 c075 de37 4680 4135 5585 9f36
00000090: 6f42 8e37 4129 9435 cef5 c837 bec4 c734
000000a0: 884a f134 c056 9734 ed86 e236 2ec4 f035
000000b0: e1e4 1437 3b0a 1737 0bbd e235 1ab0 2f35
000000c0: 6160 0b37 89dd a736 7182 6d35 a079 ae36
000000d0: b639 df36 4af3 9b37 14ad 0b37 dcc5 d434
000000e0: ed53 0e36 1086 ca34 f240 a835 20b8 3736
000000f0: 9aaa 0734 2a63 bc36 3a98 3b36 4662 1e35
00000100: 09fb 1436 fe49 6634 12ab 3c36 8f40 cb36
00000110: 50da 7937 df93 c035 08c8 4537 59a0 d334
00000120: a611 f135 60d9 8835 bba8 2e36 3470 2b36
00000130: 818a cd34 5448 bd35 87a6 9936 a864 9b37
00000140: 626a 2c36 ad84 4c35 0aae 6a36 7cac 8934
00000150: 98e4 b335 69b4 b835 88e3 b035 c098 a337
00000160: 9982 1b36 4911 4636 5006 8e37 4586 4d35
00000170: c059 9a37 a37b 8b36 5c2a b835 4119 8b37
00000180: 074e bf35 f679 7035 0f80 5937 d8ed bd34

conv2.0.weight f4 [64, 100, 3]
0.00010246418 -0.0029482504 0.048208896 0.006693156 0.045921184 0.009738844 0.025540289 -0.01004734
-0.04737822 0.050748874 -0.04269286 -0.010054007 0.03148078 -0.028326632 -0.056199204 0.00471887
0.0213892 -0.03821366 -0.0396303 0.04304731 -0.046682913 -0.03121236 -0.023938263 -0.032974362
-0.051789008 0.04254173 -0.017357038 0.008345299 0.04868183 0.008257296 0.04238702 0.012915723
-0.05332367 0.01751904 -0.05720724 -0.011568017 -0.017514048 -0.018256364 0.03336158 0.045421805
-0.0033294773 0.010594037 0.002375845 -0.0408259 0.044470094 0.02236012 0.015838733 0.049572144
-0.020059127 0.014205675 -0.050917566 0.008768001 -0.018076297 -0.042352367 0.0017316275 -0.037997965
-0.035528205 -0.06997259 -0.03942852 0.04543153 -0.015209981 -0.030135913 0.03133458 0.008448296
0.0046219053 -0.016500827 -0.01492033 -0.02334359 -0.0360761 0.027826257 -0.029064992 0.04478833
-0.06440534 -0.014325105 -0.0052165613 0.019505762 0.022803625 0.002682052 0.02717297 0.016930882
-0.0019488292 -0.04475979 -0.05525615 -0.040492453 -0.059038896 -0.020516872 0.0009145928 0.005522325
-0.048012573 0.009788391 -0.058002226 -0.04244523 -0.0087283 0.026495099 -0.009181595 -0.06302432
-0.008498695 -0.048422866 -0.01613776 0.034085337 0.03732553 0.051200885 0.049775146 0.032765362
0.057121873 0.010906744 0.02900128 0.039200783 -0.05159166 -0.021818345 0.024848193 -0.048528317
0.025503714 -0.050006073 -0.024894262 -0.02542268 -0.007012991 -0.0050700577 4.3344175e-05 0.0017163594
0.033752594 -0.03734349 0.035767928 -0.023945352 -0.04774591 0.0010288071 0.016222468 -0.06153197
0.022096714 -0.018842854 -0.015429736 0.052255098 0.044873588 -0.032639936 -0.031329356 0.033166964
0.043097377 -0.037341155 -0.0062136548 0.039211154 -0.027946403 -0.008426425 0.056388453 0.005733727
-0.03787402 -0.05412394 0.052657496 -0.032130644 0.0060875774 0.04736918 -0.051257532 0.038395897
0.012314328 -0.020320557 -0.014819619 0.00058868283 -0.005003764 -0.05159984 -0.030879462 0.040951006
-0.01586298 -0.0038379263 -0.039598886 0.014557463 0.044087004 0.05056027 0.040364224 0.05966757
0.024603255 -0.010471095 -0.040071014 -0.016781596 -0.0029122513 -0.05208803 0.04438216 -0.00032071536
-0.031886946 0.032565076 -0.04393007 -0.044677403 -0.026454117 -0.010325884 -0.02339464 -0.052084718
0.020674447 -0.035702784 0.030878212 0.016448146 -0.04702462 0.0022951278 -0.028655794 -0.045791928
0.05245774 -0.025366971 -0.045925803 0.0286647 -0.017654495 -0.010428377 0.0012594699 -0.018155163
0.015663585 0.046775617 -0.051109117 -0.02294937 -0.058114365 0.050533187 0.026251918 0.010125884
0.02035235 0.026299324 -0.021489836 -0.006756472 0.02705115 -0.0057488997 0.0066305078 0.025863715
-0.007554111 -0.04828365 -0.02894839 -0.014732348 0.037135653 0.04368147 -0.05388893 -0.039310653
-0.0097053135 -0.018224228 -0.04883812 -0.0005880282 -0.018648982 -0.007218411 0.011765554 -0.0365717
0.044395134 -0.034278154 -0.06118544 -0.02264455 0.035617903 -0.018763287 -0.011088079 0.010857006
-0.009789617 -0.03970806 0.0430126 0.0017091268 0.04889803 -0.057910595 -0.05517832 -0.050017767
0.038105924 0.0060833264 -0.052246913 -0.012893471 0.010446169 -0.014026933 0.04271015 -0.0035121788
00000000: 0ae2 d638 6f37 41bb b176 453d 4352 db3b
00000010: da17 3c3d ac8f 1f3c de39 d13c 999d 24bc
00000020: aa0f 42bd 0dde 4f3d b5de 2ebd 90b9 24bc
00000030: fef1 003d 410d e8bc 2331 66bd c0a0 9a3b
00000040: 6738 af3c ed85 1cbd 6253 22bd 6052 303d
00000050: 9536 3fbd 10b1 ffbc 2d1a c4bc 2010 07bd
00000060: b620 54bd 3d40 2e3d 5930 8ebc b9ba 083c
00000070: 9966 473d 9c49 073c 039e 2d3d 789c 533c
00000080: ec69 5abd 1784 8f3c 2452 6abd c887 3dbc
00000090: 9f79 8fbc 5f8e 95bc 27a6 083d 370c 3a3d
000000a0: 5c33 5abb 9d92 2d3c 11b4 1b3b 0f39 27bd
000000b0: 4626 363d 922c b73c 3bc0 813c 290c 4b3d
000000c0: 0a53 a4bc ebbe 683c f08e 50bd a9a7 0f3c
000000d0: be14 94bc ad79 2dbd c7f7 e23a c1a3 1bbd
000000e0: 0686 11bd ca4d 8fbd cd7f 21bd 6916 3a3d
000000f0: 4933 79bc 97df f6bc b058 003d b96a 0a3c
00000100: 5a73 973b be2c 87bc 6674 74bc 0e3b bfbc
00000110: 88c4 13bd e4f3 e33c b519 eebc f873 373d
00000120: f2e6 83bd d8b3 6abc b0ef aabb 8cca 9f3c
00000130: abce ba3c 5ec5 2f3b d999 de3c a2b2 8a3c
00000140: db6f ffba 0b56 37bd 4654 62bd 6adb 25bd
00000150: c5d2 71bd 0013 a8bc 49c1 6f3a 9ff4 b43b
00000160: d5a8 44bd 7d5f 203c be93 6dbd 0ddb 2dbd
00000170: 2501 0fbc 400c d93c 676e 16bc e512 81bd
00000180: 1c3e 0bbc 0e57 46bd 5633 84bc 119d 0b3d
00000190: a8e2 183d 05b8 513d 06e1 4b3d f934 063d
000001a0: a0f8 693d 33b2 323c 1894 ed3c 0091 203d
000001b0: c751 53bd 63bc b2bc 708e cb3c a1c5 46bd
000001c0: 2aed d03c 2bd3 4cbd 0def cbbc 3943 d0bc
000001d0: 3bcd e5bb ba22 a6bb 74cc 3538 77f7 e03a
000001e0: 2940 0a3d 7df5 18bd 6481 123d 0b29 c4bc
000001f0: 3791 43bd 0ad9 863a fbe4 843c f208 7cbd
00000200: 2b04 b53c 545c 9abc 01cd 7cbc 7109 563d
00000210: 5ecd 373d 74b1 05bd 3653 00bd 15da 073d
00000220: e086 303d 0af3 18bd ea9b cbbb e09b 203d
00000230: dbef e4bc fd0e 0abc 94f7 663d fde1 bb3b
00000240: ca21 1bbd 11b1 5dbd 63af 573d 6c9b 03bd
00000250: 4d7a c73b 2f06 423d 6bf3 51bd 0445 1d3d
00000260: 09c2 493c 4c77 a6bc fdcd 72bc d651 1a3a
00000270: 9df6 a3bb 5b5a 53bd edf6 fcbc 3ebc 273d
00000280: 15f3 81bc b885 7bbb 7132 22bd 6d82 6e3c
00000290: 9394 343d 4918 4f3d f554 253d fb65 743d
000002a0: c48c c93c f58e 2bbc 8121 24bd 8f79 89bc
000002b0: 78db 3ebb 425a 55bd 11ca 353d b025 a8b9
000002c0: e39b 02bd f562 053d 04f0 33bd a7ff 36bd
000002d0: 4eb6 d8bc e62d 29bc 1ea6 bfbc c956 55bd
000002e0: 755d a93c 153d 12bd 4ef4 fc3c 43be 863c
000002f0: e39c 40bd db69 163b 8ebf eabc 5190 3bbd
00000300: eddd 563d 65ce cfbc b21c 3cbd 3cd2 ea3c
00000310: 29a0 90bc c9db 2abc cc14 a53a 23ba 94bc
00000320: eb50 803c ca97 3f3d cb57 51bd 5100 bcbc
00000330: 5409 6ebd e3fb 4e3d 430e d73c 09e7 253c
00000340: f9b9 a63c ae71 d73c 740b b0bc 6565 ddbb
00000350: 609a dd3c 4461 bcbb bb44 d93b 24e0 d33c
00000360: 7a88 f7bb 14c5 45bd 2d25 edbc f25f 71bc
00000370: 8e1b 183d 57eb 323d a3ba 5cbd 3504 21bd
00000380: 0903 1fbc fa4a 95bc 7b0a 48bd e825 1aba
00000390: c0c5 98bc 6c88 ecbb 4fc4 403c 35cc 15bd
000003a0: acd7 353d 4067 0cbd 959d 7abd 1081 b9bc
000003b0: 14e4 113d 77b5 99bc c6aa 35bc 95e1 313c
000003c0: a164 20bc eba4 22bd fb2d 303d c704 e03a
000003d0: 4d49 483d a933 6dbd a902 62bd 6edf 4cbd
000003e0: f514 1c3d a456 c73b dc00 56bd 233f 53bc
000003f0: 6926 2b3c 39d1 65bc d7f0 2e3d 952c 66bb

conv2.0.bias f4 [64]
-0.03027525 0.014896087 -0.04878625 -0.037809964 0.013742666 0.028108347 0.014326697 -0.02814685
-0.036845025 0.011534669 0.040845443 0.025382694 0.051505927 0.02102852 0.052171487 -0.0108399475
0.025546523 -0.037806537 -0.023423871 0.05761206 0.009532554 0.026593428 -0.053061623 0.026546234
-0.010235381 -0.015924545 0.030740827 -0.02580811 -0.013532942 -0.041919295 -0.03329797 0.026413416
-0.0106465705 0.035185475 -0.00044617348 -0.011123514 -0.012234635 0.041388113 0.031099126 0.020285212
-0.018123567 -0.031985536 0.05551301 -0.04675481 0.0064393496 -0.055896055 0.05272397 0.0092926705
0.018197892 0.009698237 -0.05455404 0.042335033 0.028581677 0.028124597 -0.03684682 0.03366578
0.04230812 0.013731659 -0.013740954 0.047055315 -0.02074465 -0.05392013 0.05160467 0.010861014
00000000: cd03 f8bc b80e 743c 17d4 47bd 9fde 1abd
00000010: eb28 613c 7a43 e63c 86ba 6a3c 3994 e6bc
00000020: cfea 16bd e9fb 3c3c 8d4d 273d 5eef cf3c
00000030: e1f7 523d 0144 ac3c c5b1 553d 099a 31bc
00000040: f146 d13c 07db 1abd 6be3 bfbc a0fa 6b3d
00000050: 6e2e 1c3c 76da d93c 2557 59bd 7d77 d93c
00000060: 4db2 27bc 3174 82bc 30d4 fb3c 886b d3bc
00000070: 46b9 5dbc 91b3 2bbd 7463 08bd f360 d83c
00000080: f46e 2ebc a51e 103d 64ec e9b9 663f 36bc
00000090: c773 48bc 9586 293d 98c3 fe3c 2c2d a63c
000000a0: e077 94bc 4403 03bd 9c61 633d f981 3fbd
000000b0: 2e01 d33b 43f3 64bd 17f5 573d 4940 183c
000000c0: bf13 953c 5be5 1e3c 0f74 5fbd 8067 2d3d
000000d0: 1f24 ea3c 8e65 e63c b1ec 16bd 21e5 093d
000000e0: 474b 2d3d c1fa 603c bd21 61bc 13bd 403d
000000f0: aff0 a9bc 5bdb 5cbd 6b5f 533d 65f2 313c

conv2.1.weight f4 [64]
0.9981845 1.0101513 0.9978647 1.0081241 0.9995275 0.9868314 1.0078666 1.0008774
0.99970186 0.98697907 0.98080176 1.004188 1.0009592 0.9713786 1.0048444 1.0041364
0.9821927 1.0060493 1.0193326 1.0068587 1.0221934 1.00074 1.0010335 1.0134958
1.0290332 1.0013577 1.023104 0.9810472 0.97058 0.973659 0.9824255 0.9988242
1.036211 0.9714206 1.001606 1.0057881 0.99774975 0.9995344 1.013502 0.9947912
1.0043763 0.9782416 1.0040685 1.0005182 0.9970255 0.9951716 0.9952652 1.007822
0.99092615 1.0039413 1.0002624 1.0023327 0.99971247 0.9960185 1.0139972 0.9938271
1.025711 1.002527 1.0033753 1.0017715 0.994192 0.9874147 0.9880601 1.0038236
00000000: 0589 7f3f a34c 813f 1074 7f3f 360a 813f
00000010: 09e1 7f3f fca0 7c3f c601 813f c01c 803f
00000020: 76ec 7f3f a9aa 7c3f d315 7b3f 3b89 803f
00000030: 6e1f 803f 45ac 783f be9e 803f 8b87 803f
00000040: fb70 7b3f 39c6 803f 7e79 823f bfe0 803f
00000050: 3cd7 823f 4018 803f de21 803f 3bba 813f
00000060: 5cb7 833f 7d2c 803f 12f5 823f e925 7b3f
00000070: ee77 783f b741 793f 3d80 7b3f f1b2 7f3f
00000080: 90a2 843f 05af 783f a034 803f aabd 803f
00000090: 876c 7f3f 7de1 7f3f 6fba 813f a3aa 7e3f
000000a0: 678f 803f 0b6e 7a3f 5185 803f fb10 803f
000000b0: 103d 7f3f 91c3 7e3f b3c9 7e3f 5000 813f
000000c0: 56ad 7d3f 2681 803f 9908 803f 704c 803f
000000d0: 28ed 7f3f 12fb 7e3f a9ca 813f 746b 7e3f
000000e0: 804a 833f ce52 803f 9a6e 803f 0c3a 803f
000000f0: 5e83 7e3f 36c7 7c3f 82f1 7c3f 4b7d 803f

conv2.1.bias f4 [64]
-0.0005438003 0.013622931 -0.0074670822 0.015338185 0.02152294 0.015262983 0.019308679 -0.0019681545
0.009555577 -0.016975312 0.014009261 0.014556349 -0.008018845 -0.0065995567 0.021653436 0.01522117
0.0013259028 0.0089519 0.041921455 -0.0023154188 -0.0012795486 -0.011994266 -0.006975509 0.010031021
0.04419677 0.008117827 0.02893951 -0.00046403037 0.0039904234 0.005954861 0.0046559796 0.056101035
0.0821987 0.004124488 0.01829939 1.4425039e-05 0.027391171 0.0036991748 0.026995877 -0.00371949
0.013263756 0.021564715 0.0027112588 -0.0033825783 0.005919711 0.008315841 -0.0019856729 0.0138150165
0.0023495324 0.006073499 0.028290257 0.004340423 0.014378488 -0.011548386 0.020314025 -0.009399428
0.031406056 -0.0019000764 0.016875224 0.016171277 0.0063599185 -0.0041397014 0.026208214 0.028266726
00000000: d28d 0eba b732 5f3c 6dae f4bb 034d 7b3c
00000010: e050 b03c 9711 7a3c 3c2d 9e3c 27fc 00bb
00000020: ff8e 1c3c cf0f 8bbc 1987 653c c17d 6e3c
00000030: 7961 03bc 1841 d8bb 8c62 b13c 3762 793c
00000040: eac9 ad3a fdaa 123c d5b5 2b3d 48be 17bb
00000050: 87b6 a7ba 9983 44bc d092 e4bb 2759 243c
00000060: ac07 353d a200 053c 8d12 ed3c 1a49 f3b9
00000070: 19c2 823b ff20 c33b 3091 983b 33ca 653d
00000080: cb57 a83d b726 873b 9ae8 953c 1203 7237
00000090: 7363 e03c db6d 723b 7526 dd3c b0c2 73bb
000000a0: 3a50 593c 7ca8 b03c 60af 313b 3fae 5dbb
000000b0: 23fa c13b 2a3f 083c 1022 02bb 6158 623c
000000c0: 9dfa 193b 3404 c73b f8c0 e73c 1b3a 8e3b
000000d0: c093 6b3c 7135 3dbc 9969 a63c 0f00 1abc
000000e0: a3a3 003d fc0b f9ba e93d 8a3c a079 843c
000000f0: dd66 d03b 55a6 87bb 9cb2 d63c 9f8f e73c

conv2.1.running_mean f4 [64]
-0.18966599 -0.10963914 -0.25319168 -0.20983656 -0.25227007 0.14357223 -0.09503607 -0.1243118
-0.031307228 0.20602305 0.08736406 -0.16039157 -0.15401989 0.31760392 -0.13931896 -0.11479205
0.032769125 -0.23183776 -0.020456893 -0.08138595 -0.1602828 -0.18045339 -0.14986472 -0.042233676
-0.16678847 -0.1854036 -0.09631724 0.24399701 0.22052032 0.17225195 0.20779933 0.061837133
-0.092099495 0.28100088 -0.14772594 -0.15264863 -0.036217175 -0.07680205 -0.042160396 0.036578935
-0.1590083 0.05477325 -0.1935453 -0.12162173 -0.117239974 -0.14858209 -0.043270532 -0.19788729
0.011288832 -0.26735234 -0.10994973 -0.12878363 0.042167887 -0.17770164 -0.02403678 -0.13931178
-0.050853774 -0.097870335 -0.10741038 -0.017452046 -0.22661732 -0.037820518 0.060491424 -0.10721468
00000000: cd37 42be 7c8a e0bd 57a2 81be 65df 56be
00000010: 8b29 81be 9904 133e 45a2 c2bd 2f97 febd
00000020: 023c 00bd b5f7 523e eeeb b23d b03d 24be
00000030: 64b7 1dbe fb9c a23e a1a9 0ebe 1818 ebbd
00000040: eb38 063d e166 6dbe 3795 a7bc adad a6bd
00000050: 2d21 24be c6c8 38be 2376 19be 38fd 2cbd
00000060: 99ca 2abe 71da 3dbe f941 c5bd 5ada 793e
00000070: 14d0 613e d162 303e 59c9 543e ef48 7d3d
00000080: a99e bcbd 59df 8f3e 7845 17be ec4f 1cbe
00000090: 7658 14bd 654a 9dbd 61b0 2cbd cbd3 153d
000000a0: 12d3 22be ea59 603d bd30 46be d014 f9bd
000000b0: 831b f0bd e725 18be 713c 31bd f7a2 4abe
000000c0: cbf4 383c 68e2 88be 532d e1bd dbdf 03be
000000d0: 3cb8 2c3d 6bf7 35be c8e8 c4bc bfa7 0ebe
000000e0: 0c4c 50bd 3e70 c8bd f9f9 dbbd 98f7 8ebc
000000f0: 5f0e 68be b0e9 1abd dbc5 773d 5f93 dbbd

conv2.1.running_var f4 [64]
0.2204264 0.098168775 0.16235991 0.11059929 0.32625577 0.11091823 0.07731657 0.07895309
0.11654491 0.20397978 0.087525025 0.120806634 0.12900898 0.3171983 0.20274961 0.113364495
0.07651422 0.10006926 0.06616118 0.14916071 0.117106825 0.18848799 0.051715743 0.061086383
0.15048741 0.16642794 0.08692265 0.4032161 0.2137589 0.22505125 0.28575227 0.06237835
0.17418176 0.2825441 0.17475104 0.06213131 0.057571333 0.08859657 0.14591813 0.17212196
0.20464504 0.15530305 0.2241737 0.097015 0.06351362 0.2511971 0.16616593 0.18786712
0.105238505 0.33496842 0.08588193 0.19490854 0.09989243 0.21073945 0.18426467 0.14912783
0.10770335 0.13943654 0.14846978 0.0702874 0.20449874 0.06421848 0.15711316 0.15703414
00000000: 75b7 613e b60c c93d ad41 263e e181 e23d
00000010: ff0a a73e 1929 e33d 2658 9e3d 28b2 a13d
00000020: 19af ee3d 13e0 503e 5240 b33d 7869 f73d
00000030: ee1a 043e d167 a23e 989d 4f3e a52b e83d
00000040: 7db3 9c3d 1df1 cc3d 837f 873d 96bd 183e
00000050: b4d5 ef3d ff02 413e e3d3 533d b735 7a3d
00000060: 5f19 1a3e 166c 2a3e 8104 b23d 5772 ce3e
00000070: 9de3 5a3e d673 663e 1f4e 923e 7180 7f3d
00000080: b45c 323e 9fa9 903e f0f1 323e 677d 7e3d
00000090: ebcf 6b3d 1e72 b53d 906b 153e bd40 303e
000000a0: 788e 513e c307 1f3e ca8d 653e cdaf c63d
000000b0: 6e13 823d e89c 803e 6727 2a3e 3d60 403e
000000c0: 4987 d73d fb80 ab3e dee2 af3d 1b96 473e
000000d0: 6794 cc3d 15cc 573e e1af 3c3e f7b4 183e
000000e0: 9393 dc3d 74c8 0e3e 7608 183e d7f2 8f3d
000000f0: 1e68 513e fa84 833d 46e2 203e 8fcd 203e

conv3.0.weight f4 [128, 64, 3]
0.024735028 0.0467273 0.07074404 -0.008769084 0.03487747 -0.0019440134 -0.019476932 0.043988798
-0.06389583 -0.0074635157 -0.06885428 0.06858314 0.019436719 0.02475529 -0.057146188 0.010287496
0.0026318254 -0.025524601 -0.03126084 -0.046036765 0.004933713 -0.0030926547 0.01308318 0.052850522
-0.030638602 0.027685814 -0.031480752 0.06626233 -0.056382563 -0.057989392 -0.038916584 0.025650553
0.0033001392 -0.023248808 0.018882852 0.011965797 -0.0013812069 0.06228075 -0.0018122187 -0.018990705
0.05296854 -0.049083285 -0.071320705 0.052067652 0.05875682 0.062780485 -0.04446443 -0.035022892
-0.062302783 0.053106137 -0.038301792 -0.058278657 0.008421736 -0.05857488 -0.06399744 0.012862862
-0.05295471 0.029306343 0.02167202 0.04633862 0.0119792055 -0.010161166 -0.011774541 -0.023515632
0.06748328 -0.010334626 0.003344481 -0.041229125 0.070466794 -0.02609245 -0.044771217 0.045452964
-0.01944036 0.03808983 0.046701714 0.05136022 -0.058916386 -0.0010899664 0.034647953 -0.025900843
0.045195732 0.033866994 0.00823426 -0.014547057 -0.06317138 0.056494113 0.06539088 0.005452818
-0.043581225 0.021257337 0.007596461 -0.047499817 0.041128986 0.019869411 -0.059638068 -0.036722776
0.008450443 -0.047627285 0.055384368 0.032659464 0.014588838 -0.04643563 0.056796882 -0.053733043
-0.035446867 -0.059876252 0.02475445 -0.020568348 -0.026005855 -0.052400295 0.025131155 0.060701575
-0.03730902 0.064820774 -0.014345863 0.0034717112 -0.053859916 0.0024532203 -0.016028253 0.036239363
0.010792515 0.061019752 0.069427654 -0.029957296 -0.060540173 0.07151459 0.042767648 0.051484864
0.070138104 -0.06433732 -0.03198491 0.04077743 0.055605967 -0.028786791 -0.023248838 0.05444817
-0.061486106 -0.02270329 -0.026602553 0.05842106 0.034836628 0.039568063 -0.0060372734 0.0016986333
-0.051495384 -0.023643108 -0.040749367 -0.07001391 -0.024011426 0.013852654 0.025394276 0.019640269
-0.06967061 0.05587084 -0.022458753 -0.029150786 -0.04521738 -0.05692905 0.0041417764 -0.04452523
-0.004959931 0.068632334 -0.06119957 0.021220393 -0.0026653954 -0.019797849 -0.05259595 -0.06964328
0.01725333 -0.01298809 -0.050731394 0.02133307 0.05152868 0.0035525812 0.033868633 -0.012908833
-0.025780031 0.0052652676 -0.040941592 -0.0034986865 0.059744064 -0.0022591853 0.052516177 0.016035343
-0.06050497 -0.068043016 -0.06820363 -0.06933575 0.035455152 -0.073950626 -0.018560039 -0.02222966
0.064169705 0.036925405 0.03304015 0.027664013 0.018796556 -0.06916343 -0.024339924 0.004578624
0.008336652 0.012642351 -0.05460275 0.053360675 -0.055275485 0.028593961 0.0010927364 0.00023533103
-0.055502683 -0.03757589 0.057276145 0.057849918 0.06268268 -0.02843653 0.06289408 -0.010954576
0.04204597 0.032448415 0.06640591 0.06679889 0.07353681 -0.00609893 0.020187655 -0.035142835
0.011433692 0.0219237 -0.044700228 -0.06122155 -0.010431353 -0.0004974188 0.035376877 -0.03281948
-0.01752532 0.042620905 0.01561538 0.0024214152 -0.03766021 -0.04015017 -0.029971777 -0.07256897
0.0022243606 0.05351331 0.015968066 0.05664533 -0.057465423 -0.036942787 0.029141128 0.001469819
-0.001346661 -0.0027898047 0.06082611 -0.03618411 -0.007776381 -0.017292 0.04942788 -0.03983383
00000000: 1da1 ca3c 2065 3f3d 40e2 903d 34ac 0fbc
00000010: aedb 0e3d 44ce feba 168e 9fbc 992d 343d
00000020: d1db 82bd 8290 f4bb 7903 8dbd 5175 8c3d
00000030: c139 9f3c 9bcb ca3c 1f12 6abd e38c 283c
00000040: b47a 2c3b f818 d1bc 5e0b 00bd 0c91 3cbd
00000050: fcaa a13b 23ae 4abb d65a 563c ca79 583d
00000060: cefd fabc 5ccd e23c f6f1 00bd 8bb4 873d
00000070: 67f1 66bd 4986 6dbd ff66 1fbd 1c21 d23c
00000080: 2647 583b 4974 bebc 36b0 9a3c 310c 443c
00000090: 9d09 b5ba 1a1a 7f3d f887 edba 6592 9bbc
000000a0: 8af5 583d 8e0b 49bd 9710 92bd e444 553d
000000b0: feaa 703d 0e93 803d 5620 36bd 2a74 0fbd
000000c0: 3431 7fbd d285 593d 57e2 1cbd 9ab5 6ebd
000000d0: 52fb 093c 37ec 6fbd 1711 83bd c1be 523c
000000e0: 0ae7 58bd db13 f03c 8589 b13c 91cd 3d3d
000000f0: 6e44 443c 057b 26bc 01ea 40bc dba3 c0bc
00000100: ad34 8a3d 9052 29bc 152f 5b3b dfdf 28bd
00000110: e550 903d d5bf d5bc 0662 37bd e32c 3a3d
00000120: 6441 9fbc 1504 1c3d 4c4a 3f3d 185f 523d
00000130: 4f52 71bd 34dd 8eba 03eb 0d3d 012e d4bc
00000140: 291f 393d 1eb8 0a3d fde8 063c c856 6ebc
00000150: ff5f 81bd 5f66 673d a7eb 853d 8dad b23b
00000160: 3a82 32bd de23 ae3c bceb f83b 2b8f 42bd
00000170: de76 283d 2dc5 a23c 0c47 74bd 9f6a 16bd
00000180: ba73 0a3c d414 43bd b8da 623d eec5 053d
00000190: 0606 6f3c 4a33 3ebd d9a3 683d 2e17 5cbd
000001a0: bc30 11bd cd40 75bd d8c9 ca3c f47e a8bc
000001b0: 3b0a d5bc b1a1 56bd dadf cd3c 37a2 783d
000001c0: 58d1 18bd c1c0 843d e90a 6bbc a685 633b
000001d0: 379c 5cbd 35c6 203b af4d 83bc ba6f 143d
000001e0: 17d3 303c d9ef 793d 1630 8e3d 0169 f5bc
000001f0: f9f8 77bd 3e76 923d 212d 2f3d cbe1 523d
00000200: 91a4 8f3d 49c3 83bd 9c02 03bd 3c06 273d
00000210: 15c3 633d 47d2 ebbc 5974 bebc 0b05 5f3d
00000220: dbd8 7bbd 40fc b9bc 99ed d9bc ec4a 6f3d
00000230: dab0 0e3d 1f12 223d 52d4 c5bb ada4 de3a
00000240: d3ec 52bd 31af c1bc cfe8 26bd 7463 8fbd
00000250: 9cb3 c4bc 3ef6 623c a807 d03c a1e4 a03c
00000260: 77af 8ebd d2d8 643d 6bfb b7bc a1cd eebc
00000270: dc35 39bd 6f2e 69bd bdb7 873b 1660 36bd
00000280: eb86 a2bb 1c8f 8c3d 66ac 7abd 64d6 ad3c
00000290: eaad 2ebb 192f a2bc da6e 57bd 23a1 8ebd
000002a0: db56 8d3c ffcb 54bc b9cb 4fbd b1c2 ae3c
000002b0: bd0f 533d 6cd2 683b d6b9 0a3d 927f 53bc
000002c0: a530 d3bc 4488 ac3b 5fb2 27bd 384a 65bb
000002d0: 31b6 743d d70e 14bb 341b 573d 8d5c 833c
000002e0: 0fd4 77bd 235a 8bbd 58ae 8bbd e7ff 8dbd
000002f0: 6c39 113d 6d73 97bd 390b 98bc fa1a b6bc
00000300: 686b 833d 183f 173d 1c55 073d a49f e23c
00000310: 3cfb 993c 8ea5 8dbd 8564 c7bc 4808 963b
00000320: 7496 083c dd21 4f3c 22a7 5fbd b990 5a3d
00000330: 8c68 62bd e23d ea3c 263a 8f3a 31c3 7639
00000340: c856 63bd 2de9 19bd 649a 6a3d 09f4 6c3d
00000350: c75f 803d baf3 e8bc 9dce 803d d27a 33bc
00000360: 6538 2c3d a1e8 043d d2ff 873d dbcd 883d
00000370: 789a 963d 88d9 c7bb 9560 a53c eff1 0fbd
00000380: 6154 3b3c 5599 b33c 9617 37bd 73c3 7abd
00000390: 44e8 2abc 3665 02ba 58e7 103d b86d 06bd
000003a0: 4391 8fbc 4293 2e3d a7d7 7f3c 9bb0 1e3b
000003b0: 9841 1abd 8174 24bd 5f87 f5bc 0a9f 94bd
000003c0: 94c6 113b c630 5b3d 76cf 823c ef04 683d
000003d0: dd60 6bbd 5251 17bd 60b9 ee3c f1a6 c03a
000003e0: 7282 b0ba 28d5 36bb cd24 793d ca35 14bd
000003f0: 03d1 febb f4a7 8dbc e474 4a3d cc28 23bd

conv3.0.bias f4 [128]
-0.008379042 0.022585979 -0.02738791 -0.06123196 -0.048628874 0.067079075 0.027796406 -0.03609512
-0.07048615 0.020085428 -0.069020934 -0.055896435 0.025281789 0.016165728 -0.041254703 0.018006053
-0.061426695 0.027642133 0.042120706 -0.021089118 0.046689946 0.053209066 -0.04724843 -0.01664883
0.07165354 0.048572272 -0.07135043 -0.040580202 -8.183477e-05 -0.042915434 -0.016254926 -0.003218048
-0.05098354 -0.021239614 -0.049393438 0.010259441 0.060595702 0.032621194 -0.06109167 0.028009877
-0.047741 -0.0046117185 0.0717432 -0.0121307485 0.035017043 0.040870037 0.049142182 0.057903457
0.009496493 -0.049758628 -0.06506148 0.018860187 -0.014581452 0.023160648 -0.006619752 0.02446507
0.07167879 0.0147716245 0.026840823 -0.00012684746 -0.053185277 0.06620129 -0.037785877 -0.014425708
0.018417493 -0.00034696702 -0.047058955 -0.051364224 0.012660347 -0.027685303 0.020776058 0.05991625
-0.06227028 0.031308908 -0.044789407 0.072150335 0.003972385 0.04354647 -0.06952978 0.0279524
0.03338762 -0.037546005 -0.015780168 -0.048621148 -0.04044927 -0.014826194 0.009610047 -0.04495986
0.030452399 -0.00965043 0.005649979 -0.019878736 0.025890963 0.006730142 -0.05182254 0.042248104
0.031347044 0.07174897 0.038826615 -0.07139484 -0.022156661 -0.02559387 0.028643398 0.01922947
0.006003132 0.028037423 -0.049895074 0.0024091587 0.05614191 -0.023671856 0.00045446062 -0.037416425
0.05685057 0.014841543 0.044411883 -0.018881118 -0.0172522 0.0380932 0.020625638 0.036479563
0.022894403 0.06281505 -0.010043054 -0.07014157 -0.0007301608 0.021665644 -0.06791003 0.06808435
00000000: 4048 09bc 3b06 b93c 9c5c e0bc 5dce 7abd
00000010: 122f 47bd c160 893d 4ab5 e33c 7ad8 13bd
00000020: 0b5b 90bd 328a a43c d95a 8dbd a9f3 64bd
00000030: c11b cf3c fd6d 843c b1fa 28bd 6e81 933c
00000040: 8f9a 7bbd c171 e23c c386 2c3d 16c3 acbc
00000050: f53d 3f3d c0f1 593d 9287 41bd 2163 88bc
00000060: 17bf 923d b8f3 463d 2d20 92bd 6d37 26bd
00000070: b59e abb8 18c8 2fbd 0d29 85bc e3e5 52bb
00000080: 1ed4 50bd b3fe adbc c650 4abd 3717 283c
00000090: 3333 783d cd9d 053d 423b 7abd f874 e53c
000000a0: 118c 43bd e61d 97bb 19ee 923d 0cc0 46bc
000000b0: 086e 0f3d 5767 273d 5049 493d 2d2c 6d3d
000000c0: 2e97 1b3c b4cf 4bbd f43e 85bd ae80 9a3c
000000d0: 0be7 6ebc 66bb bd3c 81ea d8bb f86a c83c
000000e0: 54cc 923d af04 723c 49e1 db3c 5b02 05b9
000000f0: ced8 59bd 8b94 873d 5dc5 1abd ce59 6cbc
00000100: 48e0 963c 20e9 b5b9 e4c0 40bd 4b63 52bd
00000110: 586d 4f3c 4acc e2bc 8d32 aa3c be6a 753d
00000120: 1f0f 7fbd c53d 003d 1975 37bd 8ec3 933d
00000130: c82a 823b c95d 323d a165 8ebd 6efc e43c
00000140: 75c1 083d d7c9 19bd 6945 81bc f826 47bd
00000150: 22ae 25bd 91e9 72bc 7573 1d3c d527 38bd
00000160: 4f77 f93c d61c 1ebc 7623 b93b bbd8 a2bc
00000170: 4919 d43c 8688 dc3b df43 54bd 590c 2d3d
00000180: c265 003d 20f1 923d a808 1f3d 7537 92bd
00000190: e381 b5bc 3caa d1bc 8fa5 ea3c 1f87 9d3c
000001a0: ecb5 c43b bdae e53c c75e 4cbd fae2 1d3b
000001b0: 0ff5 653d 7beb c1bc ac44 ee39 f741 19bd
000001c0: 25dc 683d f129 733c 3ce9 353d 93ac 9abc
000001d0: 7c54 8dbc 9e07 1c3d 19f7 a83c 986b 153d
000001e0: 0b8d bb3c 2da5 803d 9f8b 24bc 62a6 8fbd
000001f0: 4368 3fba 267c b13c 6a14 8bbd cf6f 8b3d

conv3.1.weight f4 [128]
0.9992217 0.98719853 1.0008878 0.9997738 1.0009761 0.9986 1.0029485 1.0055131
1.0070398 1.0062925 0.9935501 1.0001172 0.9958478 0.99327874 0.9938811 0.9883535
1.0030652 0.9855877 0.9936383 1.0014997 1.0007483 0.99971193 1.0040945 0.9875142
0.9910266 0.9999218 0.979826 1.0020772 1.0030379 0.99002075 1.0033541 1.0331764
1.0004457 1.0004175 0.9983189 0.99965096 1.0028026 1.0027308 0.997044 1.017337
0.98722833 1.001076 0.99998385 1.0155108 1.0013117 1.0032306 0.99954796 1.011182
1.0022913 1.0001377 1.0014907 0.9977493 1.0074946 1.0142488 0.9893289 0.99744046
0.9870837 0.9960628 0.9896922 0.9988071 0.9921621 1.0039078 0.9823536 1.0025426
1.0189997 0.9974313 0.9991152 1.0009892 1.0029118 0.9913654 0.98603046 1.0015359
0.9991672 1.004858 1.0040185 1.0041306 1.009195 0.9970723 1.0092627 1.0014579
1.0147402 0.98833025 0.9920079 1.003116 0.99837285 0.99288243 1.0067608 0.99039406
0.9998461 1.0021536 1.000475 1.0055906 0.9904793 1.0063126 1.0011374 0.9990689
1.0107149 0.99912024 1.0017246 1.0054171 1.0094575 0.99160093 0.9956748 0.9984285
0.9987965 0.98248017 1.0035256 0.9881237 1.0138873 0.9980451 1.003892 1.0016545
1.0065483 0.995783 1.0013493 0.9881611 0.9987166 1.0040156 0.9876012 0.9954757
1.0055965 1.0027376 1.0002164 1.0142585 1.0066876 1.009647 1.0049232 0.9993477
00000000: fecc 7f3f 0bb9 7c3f 171d 803f 2df1 7f3f
00000010: fc1f 803f 40a4 7f3f 9e60 803f a7b4 803f
00000020: aee6 803f 31ce 803f 4d59 7e3f d703 803f
00000030: e2ef 7e3f 8447 7e3f fe6e 7e3f bc04 7d3f
00000040: 7164 803f 7a4f 7c3f 145f 7e3f 2431 803f
00000050: 8518 803f 1fed 7f3f 2b86 803f bbcd 7c3f
00000060: ebb3 7d3f e0fa 7f3f e0d5 7a3f 1144 803f
00000070: 8c63 803f 0072 7d3f e86d 803f 203f 843f
00000080: 9b0e 803f ae0d 803f d491 7f3f 20e9 7f3f
00000090: d65b 803f 7c59 803f 473e 7f3f 1938 823f
000000a0: ffba 7c3f 4223 803f f1fe 7f3f 42fc 813f
000000b0: fb2a 803f dc69 803f 60e2 7f3f 696e 813f
000000c0: 154b 803f 8304 803f d930 803f 806c 7f3f
000000d0: 95f5 803f e8d2 813f a944 7d3f 4258 7f3f
000000e0: 84b1 7c3f f9fd 7e3f 785c 7d3f d2b1 7f3f
000000f0: 56fe 7d3f 0d80 803f 877b 7b3f 5153 803f
00000100: 956e 823f a857 7f3f 04c6 7f3f 6a20 803f
00000110: 6a5f 803f 1fca 7d3f 7e6c 7c3f 5432 803f
00000120: 6cc9 7f3f 309f 803f ae83 803f 5a87 803f
00000130: 4d2d 813f 2140 7f3f 852f 813f c62f 803f
00000140: 02e3 813f 3603 7d3f 3bf4 7d3f 1b66 803f
00000150: 5d95 7f3f 8b2d 7e3f 8add 803f 778a 7d3f
00000160: eaf5 7f3f 9246 803f 910f 803f 31b7 803f
00000170: 0d90 7d3f dace 803f 4525 803f fbc2 7f3f
00000180: 1b5f 813f 58c6 7f3f 8338 803f 82b1 803f
00000190: e735 813f 8fd9 7d3f 8be4 7e3f 0399 7f3f
000001a0: 21b1 7f3f d283 7b3f 8773 803f adf5 7c3f
000001b0: 0fc7 813f e27f 7f3f 887f 803f 3736 803f
000001c0: 93d6 803f a2eb 7e3f 372c 803f 20f8 7c3f
000001d0: e4ab 7f3f 9583 803f 6fd3 7c3f 7fd7 7e3f
000001e0: 63b7 803f b559 803f 1707 803f 39d3 813f
000001f0: 24db 803f 1d3c 813f 53a1 803f 40d5 7f3f

conv3.1.bias f4 [128]
0.00071492203 -0.0035005684 0.0035745862 0.0039855205 0.0011446909 -0.00059776986 0.00071370986 0.0037537715
0.0023667272 -0.00017968699 0.0031625621 -0.0073118545 0.002076051 -0.0013607432 -0.009744476 -0.0014675759
0.007290185 -0.0027630092 8.216144e-05 -0.00082602876 0.002976903 0.00093507854 0.008564422 0.00804626
-0.0009259872 0.0026062718 0.0044367127 0.008202117 -0.0029703942 0.0014250941 0.007287629 0.025637923
-0.0049446314 0.006216168 -0.002700905 -0.00023595657 0.0046677156 0.007272779 -0.0020137974 0.022151642
0.0012504664 0.006660005 0.0011315146 0.017974323 -0.00057829946 0.0036674372 0.0018496896 -0.0014448984
0.008792959 0.0020604497 -0.0012368438 -0.002768686 0.009360967 0.018512085 0.0030510642 -0.00042047823
0.0028504452 0.0009734915 -0.00096967496 -0.0034737256 0.0014170771 0.0051893536 0.004550409 0.005210722
0.020419126 0.0029372294 -0.0014296885 0.0003492988 0.0011425724 -0.0005494295 0.0016340835 -9.278239e-05
0.0013721768 -0.002815975 0.004717524 0.011550724 0.0016004989 0.007396625 0.0024426898 0.006499487
0.0070577185 0.002764145 -0.004739595 0.0020253789 6.1034225e-05 0.0017254208 0.012005821 -0.0044440376
0.0011433992 0.0015552649 0.010254339 0.008626677 -0.0017207243 0.00799332 0.0039296164 0.0004123318
0.011372584 -0.0024861423 0.00770231 0.004416043 0.006655202 -0.0056277066 -0.004964801 -0.0026451661
-0.0016631396 0.004063358 0.0012062602 -0.0069164103 0.003778613 0.0030180083 0.005105603 0.0026268044
0.0030269718 -0.0061544953 -0.00017525234 0.00095145206 5.2014104e-05 0.005869004 -0.0044489396 -0.0035454482
0.00688315 -0.006610648 0.002399456 0.0052948534 0.005064374 0.0068777404 0.006180148 0.0016305275
00000000: 9b69 3b3a cb69 65bb 9b43 6a3b f898 823b
00000010: 7409 963a a8b3 1cba 4218 3b3a d601 763b
00000020: 181b 1b3b 5c6a 3cb9 fd42 4f3b 4898 efbb
00000030: 5b0e 083b f75a b2ba 4ba7 1fbc ad5b c0ba
00000040: 81e2 ee3b 9a13 35bb 164e ac38 da89 58ba
00000050: 2518 433b 0f20 753a ca51 0c3c 76d4 033c
00000060: f3bd 72ba fccd 2a3b d861 913b 2c62 063c
00000070: f2aa 42bb 39ca ba3a 10cd ee3b 9f06 d23c
00000080: 9306 a2bb ffb0 cb3b ab01 31bb 1c6b 77b9
00000090: a3f3 983b 7e50 ee3b eaf9 03bb 5c77 b53c
000000a0: b1e6 a33a 2c3c da3b 544f 943a e33e 933c
000000b0: 0599 17ba 6359 703b 4971 f23a bf62 bdba
000000c0: 5810 103c 9c08 073b 971d a2ba d872 35bb
000000d0: be5e 193c a8a6 973c 5df4 473b a273 dcb9
000000e0: 89ce 3a3b e931 7f3a c931 7eba 72a7 63bb
000000f0: 38bd b93a 740b aa3b 991b 953b b4be aa3b
00000100: 0346 a73c 887e 403b 6364 bbba 1722 b739
00000110: 5ec2 953a 9707 10ba be2e d63a 2b94 c2b8
00000120: 9dda b33a 398c 38bb 7695 9a3b 3f3f 3d3c
00000130: d5c7 d13a 635f f23b 8915 203b a6f9 d43b
00000140: 6f44 e73b a826 353b 9b4e 9bbb 38bc 043b
00000150: 00ff 7f38 8427 e23a 10b4 443c 4a9f 91bb
00000160: 1cde 953a 08da cb3a d101 283c e856 0d3c
00000170: ed89 e1ba 6af6 023c 03c4 803b 3d2e d839
00000180: 1354 3a3c 8cee 22bb a963 fc3b 74b4 903b
00000190: e113 da3b a068 b8bb c5af a2bb 865a 2dbb
000001a0: b4fd d9ba eb25 853b 601b 9e3a 0ea3 e2bb
000001b0: 9ba2 773b c7c9 453b e74c a73b 7726 2c3b
000001c0: 2960 463b a6ab c9bb f1c3 37b9 de6a 793a
000001d0: b829 5a38 c650 c03b 69c8 91bb c05a 68bb
000001e0: 0c8c e13b 229e d8bb 3140 1d3b 7380 ad3b
000001f0: 0cf3 a53b ab5e e13b d782 ca3b 6db7 d53a
