Code/model/model_atk_19.89.pt (torch, 962136 bytes, 50 tensors)

conv1.0.weight f4 [100, 1, 3]
0.10123137 -0.40519577 0.42397153 0.30937845 -0.46144915 -0.2071664 -0.3763224 0.29507953
0.24973848 0.4915521 -0.29228494 -0.39741626 0.2742855 0.36582685 0.03141323 -0.37599272
-0.5619612 0.5278072 0.45844746 0.22440697 0.1119007 0.26672158 0.09896581 -0.22710074
-0.0318353 0.19411208 -0.38190496 -0.12290259 0.5286819 -0.51531297 0.31302908 -0.46685585
0.05233511 0.41616365 0.035347804 -0.06940436 -0.52957225 -0.5603255 0.21094371 -0.08859407
0.52320194 0.03633937 -0.53478706 0.56699073 0.13604097 0.38052666 0.34506604 -0.17566702
0.07873299 -0.060088925 -0.024679946 0.29101917 0.48649493 -0.25893503 0.4500684 -0.22913717
-0.29337487 -0.55547583 0.18331526 0.52960664 -0.16921845 0.061119355 -0.26203692 0.20856754
-0.37088668 -0.21125895 0.059971277 0.41978315 -0.3377894 -0.20632768 -0.106390566 -0.39124277
0.46958563 0.012022635 -0.09688243 -0.597952 0.46553 0.09693089 0.22419026 0.29404813
-0.029464182 0.2833334 0.28462765 -0.49329048 -0.017422277 0.5710392 -0.07422517 0.4306907
0.5033424 0.21366875 0.31032324 -0.17495753 0.4656599 -0.2568275 0.09467189 -0.32871312
-0.21106263 -0.5679059 0.48272374 -0.55517673 -0.46317288 -0.37453613 -0.122098655 0.57876384
-0.49175188 -0.50788784 -0.39384758 0.4527235 0.5523589 0.22428063 0.35224918 -0.32770607
0.44295302 0.10445684 -0.5633041 -0.5106614 -0.24187416 0.34750473 -0.41784298 0.083732806
0.19442856 -0.060021754 0.032231387 -0.0965702 -0.16396041 0.19544652 -0.2800396 0.011338279
-0.45596805 -0.5713521 0.40610617 -0.20475572 -0.53757393 -0.49085578 0.29488072 -0.4133833
-0.552662 0.2044236 0.31422973 0.2534741 -0.32326356 -0.057236653 0.42116156 -0.45622718
-0.28205118 -0.53513986 0.071085565 0.47955686 -0.51056135 -0.4351331 -0.38744926 0.1050361
0.21613048 0.41239804 -0.1673635 0.39734852 0.0765815 -0.523343 -0.23923254 0.27739197
0.39718845 0.4947742 0.03522303 0.47659913 0.25381905 0.18269739 -0.5164492 0.3448902
-0.5657251 0.14583303 0.4103734 -0.26095542 0.45628664 -0.3881266 0.23508254 -0.16397499
-0.2918663 0.015568522 -0.47684297 0.026777845 -0.119558774 0.286719 -0.13517389 -0.4792744
-0.34115425 0.25123367 -0.10002043 -0.36400187 0.039431706 -0.01159955 -0.18572338 0.37393236
0.24416459 0.08256967 -0.5658501 0.24831301 -0.4007335 0.16370341 0.042883724 -0.013227637
-0.4397519 -0.42179775 -0.31029102 0.10216857 -0.42012426 -0.52041644 -0.0850714 -0.44130215
0.30551314 -0.18022364 0.18456614 0.44019195 0.30785197 0.33597046 -0.5431497 0.22482476
-0.5270058 0.15311027 0.38834196 0.35196686 -0.025798094 -0.3405787 0.500452 -0.28562498
0.20963943 -0.12217673 0.14549437 0.36452654 -0.2839268 0.39717382 -0.0472133 -0.20342414
-0.19814184 0.5320577 0.22293063 0.432397 -0.088147186 0.18626873 0.56645066 0.40501812
-0.14704116 -0.44332886 0.19373442 -0.31281328 0.0841922 0.009348535 0.038291007 0.23593861
0.24855204 -0.14917488 0.48922914 -0.22792362 -0.33769503 0.24790423 0.24126326 -0.5819589
00000000: 6452 cf3d d275 cfbe cc12 d93e da66 9e3e
00000010: 1043 ecbe 6e23 54be 54ad c0be aa14 973e
00000020: 72bb 7f3e b8ac fb3e 5fa6 95be 257a cbbe
00000030: 266f 8c3e a84d bb3e 29ab 003d 1e82 c0be
00000040: b0dc 0fbf 5f1e 073f a0b9 ea3e f1ca 653e
00000050: 322c e53d bb8f 883e 96ae ca3d 198d 68be
00000060: bb65 02bd 51c5 463e 0c89 c3be 5ab4 fbbd
00000070: b257 073f 8deb 03bf 5945 a03e bb07 efbe
00000080: 575d 563d 6713 d53e dcc8 103d e023 8ebd
00000090: 0c92 07bf 7e71 0fbf a101 583e cf70 b5bd
000000a0: 90f0 053f 97d8 143d cee7 08bf 4e26 113f
000000b0: 534e 0b3e 64d4 c23e 7fac b03e 0ee2 33be
000000c0: c33e a13d ce1f 76bd 992d cabc 7700 953e
000000d0: dd15 f93e 2293 84be 5e6f e63e efa2 6abe
000000e0: 3b35 96be aa33 0ebf ffb6 3b3e 4d94 073f
000000f0: 9a47 2dbe 4a58 7a3d b429 86be bb92 553e
00000100: dce4 bdbe 4454 58be 71a4 753d d1ed d63e
00000110: bbf2 acbe 9047 53be 4ce3 d9bd f950 c8be
00000120: 876d f03e 96fa 443c 4c6a c6bd 6213 19bf
00000130: f359 ee3e b483 c63d 2292 653e 7a8d 963e
00000140: de5e f1bc 1311 913e b7ba 913e 9290 fcbe
00000150: 2ab9 8ebc a02f 123f 5e03 98bd 7e83 dc3e
00000160: 0cdb 003f fbcb 5a3e b0e2 9e3e 1128 33be
00000170: f96a ee3e e57e 83be 56e3 c13d 164d a8be
00000180: cd20 58be 4862 11bf 9127 f73e 1020 0ebf
00000190: ff24 edbe 33c3 bfbe dc0e fabd de29 143f
000001a0: e7c6 fbbe f004 02bf 64a6 c9be 60cb e73e
000001b0: 6567 0d3f d2a9 653e 015a b43e 17c9 a7be
000001c0: bdca e23e 78ed d53d b334 10bf b5ba 02bf
000001d0: dcad 77be 24ec b13e 84ef d5be 1b7c ab3d
000001e0: 4818 473e 5fd9 75bd 0f05 043d 99c6 c5bd
000001f0: 3de5 27be 2223 483e 5a61 8fbe 30c4 393c
00000200: a574 e9be 2244 12bf 26ed cf3e 7cab 51be
00000210: 729e 09bf 7351 fbbe 9bfa 963e faa6 d3be
00000220: 427b 0dbf 6c54 513e b8e2 a03e 5bc7 813e
00000230: cd82 a5be fb70 6abd 7da2 d73e 9c96 e9be
00000240: 0369 90be edfe 08bf 4f95 913d 7a88 f53e
00000250: 26b4 02bf c4c9 debe c05f c6be 2b1d d73d
00000260: 4f51 5d3e d625 d33e 5661 2bbe 4471 cb3e
00000270: c3d6 9c3d cff9 05bf 60f9 74be 5206 8e3e
00000280: 495c cb3e 0b53 fd3e 0646 103d cd04 f43e
00000290: 92f4 813e 0615 3b3e 0436 04bf 7395 b03e
000002a0: 5cd3 10bf 4155 153e 761c d23e f39b 85be
000002b0: 679e e93e 88b8 c6be 7ab9 703e 0fe9 27be
000002c0: 806f 95be 1d13 7f3c c324 f4be 365d db3c
000002d0: 3bdb f4bd d5cc 923e 066b 0abe 7463 f5be
000002e0: c5ab aebe b3a1 803e 83d7 ccbd 745e babe
000002f0: 2483 213d 0a0c 3ebc 452e 3ebe 1074 bf3e
00000300: 4806 7a3e 4a1a a93d 8ddb 10bf c445 7e3e
00000310: f12c cdbe dea1 273e d8a6 2f3d bbb8 58bc
00000320: 2927 e1be e0f5 d7be 77de 9ebe c13d d13d
00000330: 871a d7be 033a 05bf ea39 aebd 5bf2 e1be
00000340: 386c 9c3e 8c8c 38be e8fe 3c3e d760 e13e
00000350: c69e 9d3e 5204 ac3e dc0b 0bbf 7638 663e
00000360: dae9 06bf f0c8 1c3e c2d4 c63e 0035 b43e
00000370: 8656 d3bc 5560 aebe 9f1d 003f 703d 92be
00000380: b8ab 563e cb37 fabd 7afc 143e 39a3 ba3e
00000390: db5e 91be 5e5a cb3e bc62 41bd 6b4e 50be
000003a0: b2e5 4abe ef34 083f ed47 643e 2463 dd3e
000003b0: 8386 b4bd 3bbd 3e3e e902 113f 895e cf3e
000003c0: f591 16be 00fc e2be 5162 463e 1029 a0be
000003d0: f66c ac3d 992a 193c 08d7 1c3d e499 713e
000003e0: 6d84 7e3e 4dc1 18be 3e7c fa3e cf64 69be
000003f0: 5de6 acbe 9bda 7d3e b70d 773e 42fb 14bf

conv1.0.bias f4 [100]
0.36440772 -0.42679888 0.53512716 -0.1792817 -0.47081766 -0.008171971 -0.17837404 0.39335814
-0.50555867 0.34040064 0.508502 0.38506255 -0.26530483 -0.45947644 -0.13113314 -0.49647516
0.11032734 0.26820973 -0.043666337 -0.2988902 0.0023913544 -0.0061168396 0.4603965 -0.40582344
0.1301351 0.09566526 0.21656124 -0.3035155 0.43212488 -0.32982403 0.22540534 -0.36072314
0.34144694 -0.40223432 -0.30026138 0.32508343 0.5432356 -0.0024906911 -0.30882978 -0.43072003
-0.22515109 0.39284995 -0.35958987 -0.2632714 -0.41941315 0.17567284 -0.46921456 -0.43666258
-0.14361809 -0.056525312 -0.27923664 0.56015086 -0.56070226 0.4905828 -0.23639752 -0.50542265
-0.1475329 0.31406 0.22926284 0.3307628 0.094236396 -0.18163614 0.27333403 0.24653809
0.17412204 -0.4915873 0.12096039 -0.23243941 -0.3955054 -0.5447302 0.5551675 -0.21958105
0.53671306 -0.44632304 -0.20494352 -0.2992881 0.4196493 -0.35828826 -0.3519795 -0.35595787
-0.5701099 0.068844914 0.24896555 0.19006169 0.36096904 -0.121245466 0.1391862 -0.06709862
-0.07016174 -0.5696857 -0.2821899 0.5606685 0.48030114 0.11502529 0.031512212 0.50926596
-0.19907627 -0.19251902 -0.055739477 -0.20012715
00000000: a693 ba3e 6285 dabe 18fe 083f 9f95 37be
00000010: 030f f1be bbe3 05bc afa7 36be 3d66 c93e
00000020: 4b6c 01bf fe48 ae3e 302d 023f eb26 c53e
00000030: 09d6 87be 7f40 ebbe c447 06be fe31 febe
00000040: 4df3 e13d c952 893e 79db 32bd 2308 99be
00000050: 45b8 1c3b c56f c8bb 17b9 eb3e 17c8 cfbe
00000060: 2342 053e 26ec c33d 3bc2 5d3e 6266 9bbe
00000070: 793f dd3e b2de a8be a8d0 663e b4b0 b8be
00000080: 22d2 ae3e a8f1 cdbe dcbb 99be 5671 a63e
00000090: 7d11 0b3f dd3a 23bb f01e 9ebe 5687 dcbe
000000a0: 028e 66be a123 c93e 2a1c b8be 82cb 86be
000000b0: 52bd d6be 95e3 333e e43c f0be 3d92 dfbe
000000c0: 9f10 13be 1687 67bd 1bf8 8ebe 0c66 0f3f
000000d0: 2f8a 0fbf ab2d fb3e 3112 72be 6163 01bf
000000e0: dd12 17be 79cc a03e e1c3 6a3e be59 a93e
000000f0: 03ff c03d d3fe 39be 70f2 8b3e 7b74 7c3e
00000100: 0c4d 323e 55b1 fbbe 15ba f73d 9904 6ebe
00000110: af7f cabe 7073 0bbf 751f 0e3f dbd9 60be
00000120: 0766 093f 7484 e4be b7dc 51be 4a3c 99be
00000130: 46dc d63e 8f71 b7be a836 b4be 1c40 b6be
00000140: b9f2 11bf 90fe 8c3d d3f0 7e3e 889f 423e
00000150: efd0 b83e 8b4f f8bd d486 0e3e 006b 89bd
00000160: f5b0 8fbd ecd6 11bf 327b 90be f987 0f3f
00000170: 08ea f53e 6192 eb3d f312 013d 415f 023f
00000180: a6da 4bbe b523 45be 144f 64bd 22ee 4cbe

conv1.1.weight f4 [100]
1.0045291 0.9936589 1.002705 1.0049825 0.9951857 0.9978521 0.9930735 1.0034862
0.99941236 1.0080421 0.99928916 0.9992782 0.9879791 0.9978948 1.0054553 0.99879366
0.9998289 0.9984423 1.005743 1.0194185 0.99694073 0.9949564 1.0033925 0.98916084
0.99582255 1.0122303 0.99485534 1.0127016 0.99590796 0.98739487 0.9948817 0.9955326
0.99935704 0.98762083 1.0075041 0.9989059 0.9903146 0.99904007 0.98453337 1.0121777
0.9975533 0.9995628 0.991076 0.99547017 0.9954283 0.9933523 1.0067353 1.006459
0.9919844 1.0001304 1.002127 0.9935421 0.99327713 0.99118024 0.9937339 1.0196595
1.008383 1.002297 1.0016656 0.9930479 1.0014473 0.99494785 0.9962816 0.999473
1.0049571 1.0198798 0.99428266 0.9930354 0.99398136 0.99900985 0.9915555 1.0174125
1.0168506 1.0058656 0.9956196 0.99755436 1.0012349 1.0039976 0.9947024 0.9906868
1.0006844 0.99880964 0.9978548 1.0032977 1.0019274 1.013225 1.0010453 0.9859192
0.9974685 0.9961561 0.99057794 1.0017543 0.9913444 0.9932802 1.0043201 0.98892474
1.0000703 1.008225 0.9932925 1.0192149
00000000: 6994 803f 6e60 7e3f a358 803f 44a3 803f
00000010: 7dc4 7e3f 3c73 7f3f 113a 7e3f 3c72 803f
00000020: 7dd9 7f3f 8607 813f 6ad1 7f3f b2d0 7f3f
00000030: 33ec 7c3f 0976 7f3f c2b2 803f f1b0 7f3f
00000040: c9f4 7f3f ea99 7f3f 30bc 803f 4e7c 823f
00000050: 8237 7f3f 76b5 7e3f 2a6f 803f a539 7d3f
00000060: 3aee 7e3f c390 813f d7ae 7e3f 35a0 813f
00000070: d3f3 7e3f e9c5 7c3f 91b0 7e3f 39db 7e3f
00000080: ddd5 7f3f b8d4 7c3f e5f5 803f 4cb8 7f3f
00000090: 4285 7d3f 17c1 7f3f 610a 7c3f 0a8f 813f
000000a0: a75f 7f3f 59e3 7f3f 28b7 7d3f 22d7 7e3f
000000b0: 64d4 7e3f 564c 7e3f b4dc 803f a6d3 803f
000000c0: b1f2 7d3f 4604 803f b345 803f c658 7e3f
000000d0: 6947 7e3f fdbd 7d3f 5865 7e3f 3484 823f
000000e0: b212 813f 454b 803f 9436 803f 6338 7e3f
000000f0: 6d2f 803f e7b4 7e3f 500c 7f3f 76dd 7f3f
00000100: 6fa2 803f 6c8b 823f 4f89 7e3f 9137 7e3f
00000110: 9075 7e3f 1cbf 7f3f 95d6 7d3f 933a 823f
00000120: 2928 823f 34c0 803f ede0 7e3f b95f 7f3f
00000130: 7728 803f fe82 803f d1a4 7e3f a69d 7d3f
00000140: 6d16 803f fdb1 7f3f 6a73 7f3f 0f6c 803f
00000150: 283f 803f 5bb1 813f 4122 803f 3365 7c3f
00000160: 185a 7f3f 1604 7f3f 8496 7d3f 7c39 803f
00000170: bfc8 7d3f 9c47 7e3f 908d 803f 2c2a 7d3f
00000180: 4e02 803f 840d 813f 6b48 7e3f a275 823f

conv1.1.bias f4 [100]
0.035638873 -0.0071094334 0.039369218 -0.005537832 0.021859221 0.0028391818 0.053890668 0.033476286
0.0023504954 0.05196203 0.0144381 0.008088149 -0.028173015 0.029715635 0.036662385 0.026323698
-0.025453 0.028730726 0.07413849 0.07526161 -0.05851361 0.00194557 0.02721389 0.0058781817
0.0056852493 0.043997027 0.0056047454 0.034246832 0.012311266 0.011569175 0.0057007177 0.02384882
0.039518364 -0.010553658 0.07694273 0.032973237 0.035423603 -0.03875478 0.015920997 0.084947266
-0.000682038 0.014103767 -0.009016592 -0.038988218 0.014711579 0.024532603 0.035169937 0.051799558
-0.0110774785 -0.06669828 0.042527538 0.009727245 -0.010931655 0.001435138 0.034451824 0.04895881
0.057168983 0.023038896 0.0020790468 0.0016424571 0.0034684704 0.022440517 -0.010304136 -0.0017914072
0.016548056 0.0603789 0.0033929474 -0.036411483 0.0062759467 -0.011233824 0.025377737 0.06800145
0.07381718 0.05498086 -0.04898106 0.009666342 0.040544007 0.034371804 0.019829279 0.03264764
-0.006376961 -0.004079312 0.006743485 0.033489563 0.027959915 0.05465891 -0.03124554 0.009490035
0.025161644 0.010506375 0.034051295 0.018841086 -0.0095543675 0.017785588 0.014109973 0.0011431955
0.0018856329 0.053783372 0.0028196464 0.0547113
00000000: 11fa 113d 40f6 e8bb 9e41 213d b476 b5bb
00000010: 1c12 b33c 9111 3a3b 76bc 5c3d 6e1e 093d
00000020: c50a 1a3b 23d6 543d c88d 6c3c 2884 043c
00000030: 18cb e6bc 346e f33c 4c2b 163d cca4 d73c
00000040: cf82 d0bc b35c eb3c ecd5 973d c222 9a3d
00000050: f8ab 6fbd 7f02 ff3a aaef de3c c39d c03b
00000060: 544b ba3b 3a36 343d 03a8 b73b 6846 0c3d
00000070: 31b5 493c a38c 3d3c 16cd ba3b 9a5e c33c
00000080: 02de 213d 40e9 2cbc 2694 9d3d f20e 073d
00000090: 5718 113d 55bd 1ebd c06c 823c d5f8 ad3d
000000a0: ccca 32ba 7d13 673c 54ba 13bc 1cb2 1fbd
000000b0: d608 713c 99f8 c83c 5a0e 103d c62b 543d
000000c0: 507e 35bc 1c99 88bd 5b31 2e3d 065f 1f3c
000000d0: af1a 33bc 3e1b bc3a 5b1d 0d3d 0889 483d
000000e0: 062a 6a3d 11bc bc3c 9e40 083b b747 d73a
000000f0: 474f 633b 2dd5 b73c aed2 28bc a7cd eaba
00000100: ca8f 873c de4f 773d 365c 5e3b 3524 15bd
00000110: 75a6 cd3b 130e 38bc f9e4 cf3c 5844 8b3d
00000120: 762d 973d 9c33 613d 5da0 48bd 945f 1e3c
00000130: 7911 263d 73c9 0c3d 0371 a23c 88b9 053d
00000140: d3f5 d0bb c0ab 85bb 74f8 dc3b 5a2c 093d
00000150: 310c e53c 05e2 5f3d a6f6 ffbc 177c 1b3c
00000160: cb1f ce3c ee22 2c3c 5f79 0b3d 9f58 9a3c
00000170: ec89 1cbc 15b3 913c 842d 673c 47d7 953a
00000180: 5727 f73a f44b 5c3d d1c9 383b f518 603d

conv1.1.running_mean f4 [100]
0.36440688 -0.42679697 0.53512627 -0.17928074 -0.4708209 -0.008169853 -0.17837796 0.39335737
-0.50555754 0.3404011 0.5085025 0.38506058 -0.26530036 -0.4594786 -0.13113403 -0.4964778
0.11032734 0.2682071 -0.043665964 -0.298891 0.00239319 -0.006114977 0.46039572 -0.40581983
0.13013314 0.09566551 0.21655871 -0.30351573 0.43212232 -0.3298297 0.22540228 -0.36072057
0.34144846 -0.4022273 -0.30026087 0.3250856 0.5432298 -0.0024917845 -0.30882308 -0.43072006
-0.2251518 0.3928501 -0.35958618 -0.26326957 -0.41940966 0.1756766 -0.46921563 -0.4366621
-0.1436143 -0.05652297 -0.27923623 0.56014746 -0.56069875 0.4905767 -0.23640129 -0.5054228
-0.1475328 0.31406087 0.22926386 0.3307649 0.094236165 -0.18163326 0.27333602 0.24653725
0.17412329 -0.49158698 0.120962396 -0.23243606 -0.39550018 -0.54472923 0.5551627 -0.21958098
0.5367127 -0.4463229 -0.20494556 -0.29928985 0.41964903 -0.35828862 -0.35198233 -0.35596356
-0.57010776 0.06884603 0.24896298 0.19006096 0.3609682 -0.12124568 0.1391871 -0.06710466
-0.07015966 -0.5696837 -0.28219545 0.56066793 0.48029542 0.115028046 0.03151182 0.5092604
-0.19907524 -0.19251922 -0.055734538 -0.20012699
00000000: 8a93 ba3e 2285 dabe 09fe 083f 5f95 37be
00000010: 700f f1be d9da 05bc b6a8 36be 2366 c93e
00000020: 386c 01bf 0e49 ae3e 382d 023f a926 c53e
00000030: 73d5 87be c740 ebbe 0048 06be 5732 febe
00000040: 4df3 e13d 7152 893e 15db 32bd 3e08 99be
00000050: 11d7 1c3b 2560 c8bb fdb8 eb3e 9ec7 cfbe
00000060: 9f41 053e 47ec c33d 91c1 5d3e 6a66 9bbe
00000070: 233f dd3e 70df a8be dbcf 663e 5eb0 b8be
00000080: 55d2 ae3e bdf0 cdbe cbbb 99be 9f71 a63e
00000090: 1c11 0b3f 354d 23bb 0f1e 9ebe 5787 dcbe
000000a0: 328e 66be a623 c93e ae1b b8be 45cb 86be
000000b0: ddbc d6be 91e4 333e 083d f0be 2d92 dfbe
000000c0: a10f 13be a184 67bd 0df8 8ebe d365 0f3f
000000d0: f489 0fbf df2c fb3e 2e13 72be 6363 01bf
000000e0: d712 17be 96cc a03e 25c4 6a3e 045a a93e
000000f0: e4fe c03d 12fe 39be b3f2 8b3e 4374 7c3e
00000100: 604d 323e 4ab1 fbbe 22bb f73d b803 6ebe
00000110: 007f cabe 6073 0bbf 251f 0e3f d6d9 60be
00000120: 0166 093f 6f84 e4be 40dd 51be 853c 99be
00000130: 3ddc d63e 9b71 b7be 0737 b4be db40 b6be
00000140: 95f2 11bf 26ff 8c3d 27f0 7e3e 579f 423e
00000150: d3d0 b83e a84f f8bd 1087 0e3e 2b6e 89bd
00000160: deaf 8fbd cad6 11bf ec7b 90be ef87 0f3f
00000170: 48e9 f53e d393 eb3d 8a12 013d e45e 023f
00000180: 61da 4bbe c223 45be e649 64bd 17ee 4cbe

conv1.1.running_var f4 [100]
7.778802e-07 3.868783e-06 2.0650805e-06 3.633816e-06 8.97895e-06 6.7170977e-06 1.2188732e-05 1.214611e-06
1.2607973e-06 1.0651733e-06 8.410493e-07 3.4602153e-06 1.717095e-05 4.925832e-06 2.7110466e-06 7.025954e-06
4.3099842e-08 6.7056103e-06 2.0849475e-06 4.550076e-06 2.454635e-06 3.5809242e-06 1.2839654e-06 9.194286e-06
3.7651196e-06 1.9673296e-06 4.91493e-06 2.3154946e-06 5.157696e-06 2.5340494e-05 6.438977e-06 4.277256e-06
4.0261257e-06 3.6568894e-05 9.646183e-07 7.3359324e-06 2.3627977e-05 1.9880686e-06 3.316962e-05 4.982834e-07
5.78688e-07 4.2841287e-07 9.548709e-06 2.9000685e-06 1.3079841e-05 1.2993407e-05 2.6731639e-06 8.976145e-07
1.1632528e-05 7.6045767e-06 1.3229695e-06 7.2746557e-06 9.898251e-06 2.5883406e-05 1.1741018e-05 4.923181e-07
3.2705404e-06 8.805388e-07 1.9306897e-06 4.133991e-06 1.6310771e-07 8.184953e-06 3.8032106e-06 1.0608479e-06
3.2292266e-06 2.6554008e-07 3.827071e-06 8.5855e-06 2.0729887e-05 1.9994648e-06 1.6772996e-05 4.842199e-07
2.891495e-06 1.6359248e-06 3.430221e-06 3.6498732e-06 5.615367e-07 2.1553121e-06 6.870656e-06 2.600228e-05
3.860092e-06 1.1959162e-06 5.3842864e-06 7.208598e-07 1.7195861e-06 2.0729235e-06 2.0482535e-06 2.765679e-05
3.266065e-06 4.0974114e-06 2.400298e-05 1.2168766e-06 2.5213614e-05 6.0178754e-06 2.06699e-06 2.3448696e-05
2.1879514e-06 1.2470085e-06 1.8398412e-05 5.071195e-07
00000000: 85cf 5035 98d0 8136 d095 0a36 7cdc 7336
00000010: 4ca4 1637 6e63 e136 357e 4c37 b705 a335
00000020: aa38 a935 13f7 8e35 78c4 6135 0c36 6836
00000030: 560a 9037 9348 a536 6def 3536 7cc0 eb36
00000040: c71c 3933 c100 e136 20eb 0b36 dbac 9836
00000050: 4fba 2436 cf4f 7036 b754 ac35 2841 1a37
00000060: 43ac 7c36 7706 0436 edea a436 e563 1b36
00000070: 4510 ad36 4c92 d437 640e d836 5985 8f36
00000080: 2818 8736 8d61 1938 0878 8135 2e27 f636
00000090: b234 c637 c26a 0536 9c1f 0b38 c6c1 0535
000000a0: 2357 1b35 9e00 e634 6533 2037 cc9e 4236
000000b0: 7d71 5b37 42fe 5937 9b64 3336 99f3 7035
000000c0: 5429 4337 d12a ff36 e390 b135 d118 f436
000000d0: aa10 2637 3120 d937 4afb 4437 d827 0435
000000e0: 757b 5b36 2a5e 6c35 ff90 0136 b6b6 8a36
000000f0: b522 2f34 1b52 0937 a93a 7f36 7562 8e35
00000100: b1b5 5836 8d8f 8e34 4a6a 8036 710a 1037
00000110: 18e5 ad37 8b2e 0636 bcb3 8c37 57fb 0135
00000120: 810b 4236 f391 db35 c032 6636 58f0 7436
00000130: 82bc 1635 fba3 1036 7c8a e636 791f da37
00000140: f085 8136 5e83 a035 abaa b436 1c81 4135
00000150: 87cc e635 8e1c 0b36 ba74 0936 8100 e837
00000160: 922e 5b36 7f7c 8936 025a c937 9053 a335
00000170: d381 d337 28ed c936 9eb6 0a36 b1b3 c437
00000180: b8d4 1236 e35e a735 4a56 9a37 fd20 0835

conv2.0.weight f4 [64, 100, 3]
0.008129439 -0.0015339503 0.04793734 0.007157261 0.04984608 0.010965321 0.03144312 -0.008248889
-0.052904826 0.05497298 -0.038906157 -0.010073794 0.03494373 -0.02607923 -0.056721337 0.0032709094
0.013431585 -0.0407715 -0.03608538 0.045170926 -0.046780497 -0.024614383 -0.021511398 -0.030597653
-0.051023904 0.043051954 -0.014141537 0.013160272 0.047741815 0.008530229 0.04501201 0.015274202
-0.055018324 0.023337988 -0.05553477 -0.010719468 -0.018864768 -0.021381544 0.032837547 0.049640227
0.0010640713 0.0105799455 0.012003181 -0.038702063 0.0408903 0.028824119 0.018445607 0.050223067
-0.015553888 0.017200047 -0.049375188 0.015869917 -0.0147229 -0.041421045 0.007300005 -0.0336185
-0.034582984 -0.06675123 -0.042331573 0.034225482 -0.018313916 -0.030508468 0.03452696 0.007782927
0.0074934307 -0.015350516 -0.0064999335 -0.018841868 -0.03187693 0.02408388 -0.027921405 0.047903772
-0.056546688 -0.011610591 -0.003281967 0.021762818 0.0175427 -0.002429192 0.030493619 0.018412475
-0.0028595922 -0.035478313 -0.052864693 -0.038691193 -0.0529072 -0.015551117 0.0025107136 0.0085730115
-0.045877334 0.008152886 -0.055125102 -0.039784007 -0.010981084 0.024423456 -0.008802237 -0.05922575
-0.009140209 -0.055818405 -0.018448532 0.030167393 0.036984872 0.052425 0.055376578 0.031923793
0.05818704 0.008305559 0.021174164 0.036366254 -0.04882777 -0.019355409 0.023955822 -0.042640384
0.028516175 -0.051671483 -0.027640752 -0.025846234 -0.0061145322 0.00023596344 0.0023424595 0.001380529
0.035249867 -0.037176333 0.035292875 -0.024757592 -0.05111776 -0.00015048706 0.01257128 -0.06085846
0.025940277 -0.015621064 -0.017295817 0.056080215 0.04340325 -0.037260786 -0.032105472 0.031674046
0.04032184 -0.03773011 0.0031444957 0.043603934 -0.024706233 -0.00543579 0.056005687 0.007397062
-0.039698955 -0.055388328 0.052677684 -0.031054748 0.0106804455 0.049600575 -0.05364073 0.031663198
0.0073178844 -0.017644849 -0.012268959 -0.00058234716 -0.0072788303 -0.04959474 -0.029449383 0.04350297
-0.012789362 -0.006710253 -0.037869167 0.017744482 0.040947538 0.0534098 0.03725352 0.057008382
0.023825152 -0.019090485 -0.048946574 -0.014914074 -0.006950963 -0.053661477 0.044829953 0.001752233
-0.03092599 0.03188074 -0.0428123 -0.043738823 -0.021369735 -0.007671504 -0.020952806 -0.053992584
0.01570551 -0.03669611 0.029314203 0.016051074 -0.04661054 0.0028443246 -0.030702325 -0.051743288
0.05403878 -0.023643361 -0.04349706 0.034860615 -0.013761682 -0.0076259207 -0.0012657387 -0.017694164
0.018267343 0.044850294 -0.053639583 -0.022915242 -0.060421444 0.04965783 0.026506854 0.012087475
0.018823517 0.029670836 -0.018915372 -0.0034451478 0.024748983 -0.0015681393 0.006845587 0.024788393
-0.011886142 -0.059105795 -0.03781758 -0.008540229 0.039758753 0.044058815 -0.04712754 -0.035778224
-0.007474495 -0.01626226 -0.047410112 -0.0073844767 -0.010855819 -0.0032488524 0.013191505 -0.033118125
0.042373918 -0.040586546 -0.05653647 -0.01998329 0.035740644 -0.016386941 -0.0075648823 0.008407264
-0.010823548 -0.04221367 0.042806078 0.0012889022 0.04599909 -0.058268934 -0.053451676 -0.0477871
0.03437107 0.011402521 -0.049676187 -0.010903071 0.013106596 -0.013360809 0.036754914 0.0039810725
00000000: 5731 053c d50e c9ba f259 443d 7587 ea3b
00000010: 672b 4c3d e4a7 333c 80ca 003d 5926 07bc
00000020: bbb2 58bd 592b 613d 105c 1fbd 8e0c 25bc
00000030: 2821 0f3d 1ca4 d5bc a254 68bd c15c 563b
00000040: 2710 5c3c 0400 27bd 43ce 13bd 2605 393d
00000050: e89c 3fbd 1aa4 c9bc ac38 b0bc eea7 fabc
00000060: 71fe 50bd 3f57 303d e8b1 67bc 2e9e 573c
00000070: ec8c 433d 60c2 0b3c 835e 383d a640 7a3c
00000080: e55a 61bd 4f2f bf3c 6d78 63bd b5a0 2fbc
00000090: 498a 9abc 5928 afbc aa80 063d 8d53 4b3d
000000a0: 4f78 8b3a 8257 2d3c fda8 443c 0e86 1ebd
000000b0: 967c 273d 8f20 ec3c 3e1b 973c b4b6 4d3d
000000c0: bcd5 7ebc 1de7 8c3c a33d 4abd a101 823c
000000d0: 5238 71bc 1da9 29bd e134 ef3b 8db3 09bd
000000e0: e3a6 0dbd deb4 88bd df63 2dbd 0530 0c3d
000000f0: 1107 96bc e5ec f9bc 246c 0d3d ec07 ff3b
00000100: 748b f53b bb80 7bbc 65fd d4bb 435a 9abc
00000110: 6291 02bd 8f4b c53c 6ebb e4bc bf36 443d
00000120: 809d 67bd 593a 3ebc 4516 57bb f047 b23c
00000130: b5b5 8f3c 1433 1fbb c1cd f93c c2d5 963c
00000140: ff67 3bbb b551 11bd a688 58bd a87a 1ebd
00000150: 38b5 58bd 1dca 7ebc c98a 243b d175 0c3c
00000160: dfe9 3bbd af93 053c dcca 61bd 8ef4 22bd
00000170: 01ea 33bc b313 c83c 4237 10bc b396 72bd
00000180: d1c0 15bc d7a1 64bd 6021 97bc 9c21 f73c
00000190: 737d 173d 99bb 563d 8dd2 623d 86c2 023d
000001a0: 8955 6e3d 0a14 083c 7175 ad3c c8f4 143d
000001b0: a1ff 47bd 3c8f 9ebc 003f c43c afa7 2ebd
000001c0: c19a e93c 7aa5 53bd dc6e e2bc 7bbb d3bc
000001d0: 6a5c c8bb f46c 7739 f383 193b def2 b43a
000001e0: 2a62 103d 3646 18bd 438f 103d 6fd0 cabc
000001f0: db60 51bd 10cc 1db9 c5f7 4d3c b846 79bd
00000200: b480 d43c 7eef 7fbc f5af 8dbc 5eb4 653d
00000210: 9bc7 313d c49e 18bd 0781 03bd a5bc 013d
00000220: 8428 253d e38a 1abd e213 4e3b 0a9a 323d
00000230: ba64 cabc b61e b2bb 3866 653d 0e63 f23b
00000240: 5f9b 22bd dfde 62bd 8ec4 573d 8766 febc
00000250: 09fd 2e3c f929 4b3d 62b6 5bbd 45b1 013d
00000260: ddca ef3b ee8b 90bc be03 49bc a8a8 18ba
00000270: 4183 eebb db23 4bbd d53f f1bc 2c30 323d
00000280: 798a 51bc afe1 dbbb b31c 1bbd e05c 913c
00000290: 9bb8 273d 3cc4 5a3d 2697 183d 9f81 693d
000002a0: f72c c33c a663 9cbc 347c 48bd 295a 74bc
000002b0: e7c4 e3bb 23cc 5bbd 9d9f 373d 2fab e53a
000002c0: 8058 fdbc 6195 023d f35b 2fbd 7b27 33bd
000002d0: 950f afbc 3d61 fbbb 38a5 abbc 5427 5dbd
000002e0: d7a8 803c a94e 16bd 5724 f03c 8b7d 833c
000002f0: b2ea 3ebd d967 3a3b 7183 fbbc c5f0 53bd
00000300: c557 5d3d b9af c1bc f929 32bd 01ca 0e3d
00000310: ae78 61bc dce2 f9bb 25e7 a5ba 5af3 90bc
00000320: 65a5 953c f1b4 373d 2eb5 5bbd bfb8 bbbc
00000330: 7a7c 77bd 0266 4b3d e724 d93c 8b0a 463c
00000340: c733 9a3c 4110 f33c 69f4 9abc fdc7 61bb
00000350: 61be ca3c 068a cdba f250 e03b 0711 cb3c
00000360: 18be 42bc eb18 72bd 9be6 1abd 51ec 0bbc
00000370: 13da 223d 0477 343d cf08 41bd 308c 12bd
00000380: 9cec f4bb 6e38 85bc 1b31 42bd 7bf9 f1bb
00000390: 9bdc 31bc b3ea 54bb 2f21 583c dfa6 07bd
000003a0: 4690 2d3d 143e 26bd c992 67bd ffb3 a3bc
000003b0: c864 123d e83d 86bc d5e2 f7bb 9fbe 093c
000003c0: 4055 31bc 3ee8 2cbd 6d55 2f3d 62f0 a83a
000003d0: 8b69 3c3d 68ab 6ebd 25f0 5abd 68bc 43bd
000003e0: aec8 0c3d a4d1 3a3c 4279 4bbd cba2 32bc
000003f0: 0cbd 563c 4be7 5abc 528c 163d a873 823b

conv2.0.bias f4 [64]
-0.03027525 0.014896068 -0.04878625 -0.037809964 0.013742666 0.028108347 0.014326711 -0.028146856
-0.036845025 0.011534712 0.040845443 0.025382692 0.051505964 0.02102852 0.052171487 -0.01083992
0.025546523 -0.037806537 -0.02342383 0.05761206 0.009532545 0.026593428 -0.053061623 0.026546234
-0.010235386 -0.015924549 0.030740859 -0.025808109 -0.013532934 -0.041919295 -0.03329797 0.026413435
-0.010646567 0.035185475 -0.00044614452 -0.011123533 -0.012234622 0.041388113 0.031099096 0.020285212
-0.018123567 -0.031985536 0.05551301 -0.04675481 0.0064393 -0.055896055 0.05272397 0.009292663
0.018197892 0.009698231 -0.05455404 0.042335033 0.028581722 0.028124597 -0.03684682 0.03366578
0.04230812 0.0137316575 -0.013740966 0.047055315 -0.02074465 -0.05392011 0.05160467 0.010861063
00000000: cd03 f8bc a30e 743c 17d4 47bd 9fde 1abd
00000010: eb28 613c 7a43 e63c 95ba 6a3c 3c94 e6bc
00000020: cfea 16bd 17fc 3c3c 8d4d 273d 5def cf3c
00000030: ebf7 523d 0144 ac3c c5b1 553d eb99 31bc
00000040: f146 d13c 07db 1abd 55e3 bfbc a0fa 6b3d
00000050: 642e 1c3c 76da d93c 2557 59bd 7d77 d93c
00000060: 52b2 27bc 3374 82bc 41d4 fb3c 876b d3bc
00000070: 3db9 5dbc 91b3 2bbd 7463 08bd fd60 d83c
00000080: f06e 2ebc a51e 103d 81e8 e9b9 7b3f 36bc
00000090: b973 48bc 9586 293d 88c3 fe3c 2c2d a63c
000000a0: e077 94bc 4403 03bd 9c61 633d f981 3fbd
000000b0: c300 d33b 43f3 64bd 17f5 573d 4140 183c
000000c0: bf13 953c 54e5 1e3c 0f74 5fbd 8067 2d3d
000000d0: 3724 ea3c 8e65 e63c b1ec 16bd 21e5 093d
000000e0: 474b 2d3d bffa 603c ca21 61bc 13bd 403d
000000f0: aff0 a9bc 55db 5cbd 6b5f 533d 9af2 313c

conv2.1.weight f4 [64]
0.9989404 1.0059849 1.0002805 1.0002439 0.9978623 0.99371475 1.0020313 0.9983751
1.000022 0.9910067 0.9842912 1.0067228 1.0070419 0.98563373 1.0128797 0.9957602
0.9992036 1.0091201 1.0179076 1.0052296 0.99962777 1.0001603 0.998628 1.0051808
0.9949458 1.0107832 1.0180815 0.98337877 0.98613733 0.98959017 0.98080146 0.9890974
1.0234146 0.9842713 0.99665385 1.0028716 0.9925268 1.0018835 1.0092752 0.99805915
1.0023553 0.984083 1.0026265 1.0023389 0.9883322 1.0073818 0.9936798 1.0022573
0.98919743 1.0099456 0.9923504 0.99801195 1.0080948 1.0015845 1.0022495 1.0079824
1.0043613 1.0011221 1.0030637 1.0088621 0.9948533 1.0131177 0.99325764 1.0027617
00000000: 8fba 7f3f 1dc4 803f 3109 803f fe07 803f
00000010: e773 7f3f 1764 7e3f 9042 803f 8395 7f3f
00000020: b900 803f 9db2 7d3f 82fa 7b3f 4bdc 803f
00000030: c0e6 803f 7e52 7c3f 0ba6 813f 24ea 7e3f
00000040: cfcb 7f3f d92a 813f cc4a 823f 5dab 803f
00000050: 9be7 7f3f 4105 803f 16a6 7f3f c4a9 803f
00000060: c5b4 7e3f 5861 813f 7f50 823f b6be 7b3f
00000070: 7f73 7c3f c855 7d3f ce15 7b3f 7d35 7d3f
00000080: 40ff 823f 34f9 7b3f b524 7f3f 195e 803f
00000090: 3d16 7e3f b83d 803f ee2f 813f ce80 7f3f
000000a0: 2e4d 803f ddec 7b3f 1156 803f a44c 803f
000000b0: 5703 7d3f e3f1 803f cd61 7e3f f849 803f
000000c0: 0b3c 7d3f e645 813f ad0a 7e3f b67d 7f3f
000000d0: 4009 813f ec33 803f b649 803f 9105 813f
000000e0: e98e 803f c524 803f 6464 803f 6522 813f
000000f0: b5ae 7e3f d7ad 813f 2246 7e3f 7f5a 803f

conv2.1.bias f4 [64]
-0.0043862686 0.0085503515 0.0018938538 0.0029240572 0.0014713018 0.0045263316 0.01897247 -0.009289043
-0.0015299111 0.014157223 0.012453793 0.022579595 0.027903447 0.011142467 0.027537722 0.015309374
0.0091946805 0.013038287 0.030826023 0.003567003 -0.011193678 -0.0036216595 -0.0012564975 0.015418876
0.022113089 0.028482577 0.0093383 0.008272679 0.00411683 0.0142256245 0.0034831143 -0.0064046504
0.034294307 0.0005922751 0.035656273 0.009108158 0.009034891 0.007115711 0.03817758 0.0033314677
-0.00094346784 0.007643735 0.00549654 0.0052234293 -0.0020000075 0.003995149 0.0074362084 -0.01561607
0.00040799577 0.00862759 0.00055166805 0.001900337 0.033373497 0.00029303497 0.002502533 0.0444807
0.006267749 0.002092871 0.010189633 0.0258085 -0.010277925 0.012083207 0.013058532 0.02160223
00000000: b0ba 8fbb c616 0c3c 303b f83a 8aa1 3f3b
00000010: b2d8 c03a 9f51 943b 276c 9b3c 1231 18bc
00000020: 4c87 c8ba b2f3 673c fe0a 4c3c d8f8 b83c
00000030: c595 e43c e58e 363c ca96 e13c 2bd4 7a3c
00000040: 49a5 163c 8a9e 553c db86 fc3c 61c4 693b
00000050: b065 37bc 5d59 6dbb 0fb1 a4ba 749f 7c3c
00000060: 8226 b53c 4b54 e93c abff 183c 218a 073c
00000070: 79e6 863b 9812 693c f644 643b 1ade d1bb
00000080: 3078 0c3d e942 1b3a 500c 123d 623a 153c
00000090: 1407 143c e92a e93b 1860 1c3d c154 5a3b
000000a0: 0e53 77ba 4c78 fa3b 521c b43b 4d29 ab3b
000000b0: 8f12 03bb bde9 823b 70ab f33b 8bda 7fbc
000000c0: 44e8 d539 bc5a 0d3c d19d 103a bb14 f93a
000000d0: a6b2 083d 7da2 9939 8901 243b 6531 363d
000000e0: b061 cd3b 8c28 093b 6bf2 263c 596c d33c
000000f0: be64 28bc a5f8 453c 74f3 553c 29f7 b03c

conv2.1.running_mean f4 [64]
-0.1655035 -0.071840264 -0.11817513 -0.24169247 -0.27058735 0.15188101 -0.049687464 -0.09949494
-0.13064525 0.09659911 0.21898481 -0.14155401 -0.061793756 0.2288097 -0.019171193 -0.0050208145
-0.09027026 -0.1922417 -0.012476023 -0.0666904 -0.15141845 -0.12737234 -0.16096655 0.020466369
-0.071461074 -0.08036829 -0.14225222 0.16620202 0.23089348 0.09707372 0.21634005 0.2452509
-0.04318696 0.26927438 -0.075240605 -0.090977006 0.011595046 -0.055241 0.010339586 -0.024197455
-0.23586768 0.13888273 -0.16370955 -0.15904921 0.046327356 -0.21071497 0.0754514 -0.16840659
0.065437905 -0.13338093 -0.07768033 -0.032068435 0.045792572 -0.18300672 -0.09554239 -0.032631923
-0.10066576 -0.15001151 -0.11850014 -0.034869984 -0.27794418 -0.13594882 0.08049726 -0.079201356
00000000: c079 29be fd20 93bd cd05 f2bd 3b7e 77be
00000010: 6d8a 8abe b286 1b3e 1585 4bbd 01c4 cbbd
00000020: dec7 05be c1d5 c53d 8e3d 603e 89f3 10be
00000030: 731b 7dbd 174d 6a3e e80c 9dbc a585 a4bb
00000040: 9ddf b8bd 02db 44be 3c68 4cbc fa94 88bd
00000050: 700d 1bbe e56d 02be 6ad4 24be 16a9 a73c
00000060: 2f5a 92bd 2198 a4bd 91aa 11be dd30 2a3e
00000070: 576f 6c3e 96ce c63d 3f88 5d3e 0d23 7b3e
00000080: cfe4 30bd 55de 893e bf17 9abd 2752 babd
00000090: 26f9 3d3c 6344 62bd 5e67 293c be39 c6bc
000000a0: 4c87 71be 4637 0e3e 7aa3 27be ccdd 22be
000000b0: c1c1 3d3d aac5 57be 4386 9a3d c772 2cbe
000000c0: 4f04 863d 0395 08be dd16 9fbd 315a 03bd
000000d0: fe90 3b3d 1d66 3bbe bbab c3bd 0da9 05bd
000000e0: da29 cebd 9e9c 19be 34b0 f2bd d4d3 0ebd
000000f0: b34e 8ebe 2b36 0bbe bfdb a43d 5234 a2bd

conv2.1.running_var f4 [64]
0.17523186 0.07607669 0.14385664 0.17976516 0.40567544 0.118468866 0.12054769 0.09371564
0.08435281 0.08897934 0.21902128 0.11519656 0.11977654 0.3750387 0.11742845 0.117812775
0.18445274 0.1054757 0.06737201 0.079724416 0.14864004 0.15544687 0.13100784 0.058979806
0.1272424 0.12536716 0.14140199 0.22396632 0.30777693 0.17605336 0.35243934 0.24162197
0.13406013 0.2618987 0.13118505 0.10750175 0.123478286 0.10844946 0.09934959 0.2151597
0.32354128 0.20781377 0.31606117 0.19271122 0.077956185 0.14232263 0.15624253 0.17462723
0.09267372 0.14310446 0.103396274 0.17503987 0.06910052 0.27027076 0.34265548 0.088356175
0.14922254 0.26503295 0.07881205 0.12545502 0.3274008 0.07597412 0.18680707 0.12196016
00000000: fb6f 333e 18ce 9b3d 284f 133e 5c14 383e
00000010: b1b4 cf3e ce9f f23d b5e1 f63d fced bf3d
00000020: 2bc1 ac3d cd3a b63d 1d47 603e 2dec eb3d
00000030: 674d f53d 1305 c03e 547e f03d d347 f13d
00000040: 2ee1 3c3e a503 d83d 56fa 893d 8e46 a33d
00000050: 1835 183e 772d 1f3e eb26 063e cf94 713d
00000060: d54b 023e 4060 003e afcb 103e 6d57 653e
00000070: f094 9d3e 5547 343e ee72 b43e c06b 773e
00000080: 0f47 093e 9617 863e 6055 063e e129 dc3d
00000090: 2fe2 fc3d c01a de3d cc77 cb3d d352 5c3e
000000a0: 34a7 a53e 22cd 543e c5d2 a13e 1756 453e
000000b0: 7ea7 9f3d 06bd 113e 0bfe 1f3e 7bd1 323e
000000c0: b8cb bd3d fa89 123e 6dc1 d33d a73d 333e
000000d0: 9384 8d3d ee60 8a3e 8a70 af3e 15f4 b43d
000000e0: cbcd 183e 66b2 873e 3668 a13d 4877 003e
000000f0: 14a1 a73e 5298 9b3d 5a4a 3f3e 40c6 f93d

conv3.0.weight f4 [128, 64, 3]
0.026761062 0.047468495 0.0705775 -0.0060765757 0.03840552 0.0032445067 -0.020973196 0.04163107
-0.06406228 -0.0067692124 -0.06984326 0.06633739 0.021969179 0.025357137 -0.05764649 0.01052425
0.0044785407 -0.023973053 -0.032133568 -0.046529837 0.0050772093 0.0018945578 0.016817827 0.054832414
-0.02710883 0.030024093 -0.03291418 0.06583323 -0.056213886 -0.06093542 -0.041703954 0.022592738
0.0016862649 -0.0238214 0.01823741 0.010862074 -0.0023808656 0.060921784 -0.0031089524 -0.020144168
0.05283395 -0.047349874 -0.07001809 0.05174348 0.05816155 0.06040648 -0.044987246 -0.03319872
-0.061600592 0.055008557 -0.039294004 -0.05670797 0.008548955 -0.05841385 -0.06242287 0.013938693
-0.051618926 0.029998183 0.020435002 0.043778986 0.012972881 -0.011624572 -0.011169462 -0.02180683
0.068702705 -0.009384006 0.006804326 -0.038430743 0.07124086 -0.024864346 -0.043987766 0.04573526
-0.021421935 0.035737276 0.048631873 0.052113295 -0.05867888 -0.0019508874 0.03538436 -0.026623372
0.048058808 0.032452848 0.008515097 -0.01328288 -0.06609853 0.053376567 0.063104756 0.0041810493
-0.045457203 0.019396974 0.005445679 -0.049683165 0.038993478 0.021939026 -0.057384342 -0.034939602
0.0115183415 -0.046268377 0.06219784 0.03194501 0.015242292 -0.047243807 0.05347002 -0.058303818
-0.03875689 -0.05777277 0.027404858 -0.020316543 -0.02904764 -0.05563657 0.023014745 0.06264149
-0.03644883 0.06290448 -0.016053047 0.004194453 -0.05047806 0.0010895067 -0.016943214 0.035602976
0.0098620355 0.059323613 0.06824141 -0.029097298 -0.06078157 0.0666125 0.045165755 0.052662995
0.0691178 -0.06328612 -0.03057595 0.04159465 0.05828872 -0.027968945 -0.021446845 0.05168137
-0.064705975 -0.023851296 -0.024799585 0.059992373 0.035291012 0.040298834 -0.006840597 0.0007238592
-0.04959502 -0.020603258 -0.039620906 -0.07088968 -0.025624305 0.011120485 0.026106374 0.019952355
-0.07205715 0.057900336 -0.0214022 -0.029727383 -0.04586096 -0.056301676 0.006320563 -0.04123428
-0.0036946884 0.06944224 -0.061356988 0.020499257 -0.0055009164 -0.020346534 -0.05334291 -0.069637775
0.017566737 -0.01181031 -0.047537327 0.021423584 0.050997294 0.003555578 0.032603484 -0.0134801585
-0.024553573 0.008405605 -0.03900011 -0.004823835 0.06284946 -0.0008369734 0.052942306 0.012352336
-0.06198167 -0.06882453 -0.06955161 -0.07134266 0.03735632 -0.0702263 -0.01644606 -0.018919628
0.061695833 0.03739603 0.031507377 0.019445851 0.011059068 -0.068821 -0.023149675 0.003167286
0.009334393 0.014200323 -0.057290662 0.047228325 -0.055893824 0.026167486 -0.002658063 -0.007959916
-0.05171121 -0.03749426 0.05892386 0.061488323 0.049562447 -0.027987575 0.06418268 -0.010199693
0.040286597 0.032394562 0.057431743 0.0747541 0.07315412 -0.014872294 0.020717649 -0.041421067
0.0035572024 0.022194294 -0.04688953 -0.06305341 -0.005044321 -0.0047912495 0.03307967 -0.025382776
-0.017693324 0.046308614 0.0111291725 0.008592078 -0.04788004 -0.037042376 -0.02700312 -0.060735717
0.00040530585 0.050469518 0.011518171 0.056235377 -0.059893582 -0.040777486 0.013124828 0.019266954
-0.015529971 -0.005216228 0.055895336 -0.051160708 -0.010417047 -0.021185795 0.05319849 -0.041900653
00000000: 043a db3c 536e 423d f08a 903d 031e c7bb
00000010: 1b4f 1d3d caa1 543b fbcf abbc 5785 2a3d
00000020: 1633 83bd 45d0 ddbb fc09 8fbd e6db 873d
00000030: b5f8 b33c c5b9 cf3c ba1e 6cbd e76d 2c3c
00000040: b9c0 923b 2363 c4bc 7d9e 03bd 1296 3ebd
00000050: b85e a63b d052 f83a 8ac5 893c f497 603d
00000060: 5613 debc 16f5 f53c 05d1 06bd 93d3 863d
00000070: 8840 66bd 6b97 79bd c4d1 2abd 6814 b93c
00000080: a905 dd3a 1925 c3bc 9f66 953c d7f6 313c
00000090: 4c08 1cbb 1f89 793d 91bf 4bbb 6205 a5bc
000000a0: 6968 583d f1f1 41bd a565 8fbd f9f0 533d
000000b0: ce3a 6e3d c96c 773d 8c44 38bd 62fb 07bd
000000c0: e750 7cbd a750 613d c0f2 20bd 9e46 68bd
000000d0: eb10 0c3c 5c43 6fbd 20af 7fbd 1e5f 643c
000000e0: 5e6e 53bd c0be f53c 4e67 a73c 9851 333d
000000f0: 358c 543c fd74 3ebc 1f00 37bc 3da4 b2bc
00000100: 01b4 8c3d 60bf 19bc d3f6 de3b 8e69 1dbd
00000110: bae6 913d 50b0 cbbc 842c 34bd e554 3b3d
00000120: 0e7d afbc 4061 123d 3732 473d c074 553d
00000130: 4459 70bd ebb4 ffba 31ef 103d 4219 dabc
00000140: 50d9 443d 47ed 043d e882 0b3c 70a0 59bc
00000150: ab5e 87bd 63a1 5a3d 113d 813d 2f01 893b
00000160: 5531 3abd 67e6 9e3c ab71 b23b 9380 4bbd
00000170: a0b7 1f3d 79b9 b33c d80b 6bbd d41c 0fbd
00000180: 6db7 3c3c e983 3dbd 2ac3 7e3d c5d8 023d
00000190: ceba 793c b982 41bd 6103 5b3d fccf 6ebd
000001a0: 8bbf 1ebd 24a3 6cbd 2780 e03c e16e a6bc
000001b0: 51f5 edbc 2ce3 63bd 6b89 bc3c 2e4a 803d
000001c0: 5e4b 15bd 10d4 803d ae81 83bc 9f71 893b
000001d0: 15c2 4ebd c7cd 8e3a 7fcc 8abc 6dd4 113d
000001e0: 6094 213c 51fd 723d 27c2 8b3d 755d eebc
000001f0: 18f6 78bd 226c 883d baff 383d 27b5 573d
00000200: a28d 8d3d 279c 81bd 6a7a fabc 275f 2a3d
00000210: 27c0 6e3d 211f e5bc 4bb1 afbc d8af 533d
00000220: 9184 84bd cb63 c3bc 8028 cbbc 90ba 753d
00000230: 4f8d 103d 6410 253d 1627 e0bb 5ec1 3d3a
00000240: 2624 4bbd 2ac8 a8bc 8849 22bd 9c2e 91bd
00000250: 10ea d1bc b232 363c 09dd d53c 1f73 a33c
00000260: b392 93bd e728 6d3d ab53 afbc d786 f3bc
00000270: b4d8 3bbd 969c 66bd ba1c cf3b 47e5 28bd
00000280: 9622 72bb bc37 8e3d 7751 7bbd 0fee a73c
00000290: 0841 b4bb c6ad a6bc 187e 5abd 409e 8ebd
000002a0: 1ee8 8f3c 0880 41bc 80b6 42bd 8380 af3c
000002b0: 8ae2 503d b304 693b 3b8b 053d e2db 5cbc
000002c0: 9324 c9bc aab7 093c 94be 1fbd 4311 9ebb
000002d0: 38b7 803d 5668 5bba 08da 583d 7461 4a3c
000002e0: 7ee0 7dbd e0f3 8cbd 1371 8ebd 1a1c 92bd
000002f0: f102 193d ced2 8fbd e3b9 86bc 56fd 9abc
00000300: c5b4 7c3d 942c 193d e10d 013d e84c 9f3c
00000310: 1831 353c 06f2 8cbd 63a4 bdbc 3e92 4f3b
00000320: 48ef 183c 79a8 683c 9da9 6abd 7d72 413d
00000330: ecf0 64bd 325d d63c e632 2ebb 4f6a 02bc
00000340: 22cf 53bd 9593 19bd 255a 713d 2edb 7b3d
00000350: fe01 4b3d 3346 e5bc 3572 833d 9d1c 27bc
00000360: 8f03 253d 29b0 043d 8c3d 6b3d ad18 993d
00000370: d4d1 953d ecaa 73bc 0fb8 a93c 23a9 29bd
00000380: f41f 693b cfd0 b53c 3c0f 40bd 2522 81bd
00000390: d54a a5bb eaff 9cbb 8c7e 073d 8aef cfbc
000003a0: 97f1 90bc 1aae 3d3d 2257 363c cac5 0c3c
000003b0: dc1d 44bd bfb9 17bd a635 ddbc 04c6 78bd
000003c0: 3b7f d439 20b9 4e3d b6b6 3c3c 1157 663d
000003d0: f952 75bd 4b06 27bd 8509 573c bbd5 9d3c
000003e0: 6b71 7ebc e4ec aabb 82f2 643d e48d 51bd
000003f0: 43ac 2abc d58d adbc a9e6 593d 05a0 2bbd

conv3.0.bias f4 [128]
-0.008379042 0.022585979 -0.02738791 -0.06123196 -0.048628874 0.067079075 0.027796406 -0.03609512
-0.07048615 0.020085428 -0.069020934 -0.055896435 0.025281789 0.016165728 -0.041254703 0.018006053
-0.061426695 0.027642133 0.042120706 -0.021089118 0.046689946 0.053209066 -0.04724843 -0.01664883
0.07165354 0.048572272 -0.07135043 -0.040580202 -8.1847604e-05 -0.042915434 -0.016254926 -0.0032180748
-0.05098354 -0.021239614 -0.049393438 0.010259441 0.060595702 0.032621194 -0.06109167 0.028009877
-0.047741 -0.004611703 0.0717432 -0.012130737 0.035017043 0.040870037 0.049142182 0.057903457
0.009496493 -0.049758628 -0.06506148 0.018860187 -0.014581442 0.023160629 -0.0066197505 0.02446507
0.07167879 0.0147716245 0.026840823 -0.00012682218 -0.053185277 0.06620129 -0.037785877 -0.014425707
0.018417493 -0.00034697668 -0.047058955 -0.051364224 0.01266035 -0.027685303 0.020776058 0.05991625
-0.06227028 0.031308908 -0.044789407 0.072150335 0.003972375 0.04354647 -0.06952978 0.0279524
0.03338762 -0.037546005 -0.015780168 -0.048621148 -0.04044927 -0.014826194 0.009610047 -0.04495986
0.030452399 -0.00965043 0.00564998 -0.019878736 0.025890963 0.006730146 -0.05182254 0.042248104
0.031347044 0.07174897 0.038826615 -0.07139484 -0.022156661 -0.02559387 0.028643398 0.01922947
0.0060031335 0.028037423 -0.049895074 0.0024091634 0.05614191 -0.023671856 0.0004544489 -0.037416425
0.05685057 0.014841543 0.044411883 -0.018881118 -0.0172522 0.0380932 0.020625638 0.036479563
0.022894403 0.06281505 -0.010043054 -0.07014157 -0.0007301584 0.021665644 -0.06791003 0.06808435
00000000: 4048 09bc 3b06 b93c 9c5c e0bc 5dce 7abd
00000010: 122f 47bd c160 893d 4ab5 e33c 7ad8 13bd
00000020: 0b5b 90bd 328a a43c d95a 8dbd a9f3 64bd
00000030: c11b cf3c fd6d 843c b1fa 28bd 6e81 933c
00000040: 8f9a 7bbd c171 e23c c386 2c3d 16c3 acbc
00000050: f53d 3f3d c0f1 593d 9287 41bd 2163 88bc
00000060: 17bf 923d b8f3 463d 2d20 92bd 6d37 26bd
00000070: 99a5 abb8 18c8 2fbd 0d29 85bc 56e6 52bb
00000080: 1ed4 50bd b3fe adbc c650 4abd 3717 283c
00000090: 3333 783d cd9d 053d 423b 7abd f874 e53c
000000a0: 118c 43bd c51d 97bb 19ee 923d 00c0 46bc
000000b0: 086e 0f3d 5767 273d 5049 493d 2d2c 6d3d
000000c0: 2e97 1b3c b4cf 4bbd f43e 85bd ae80 9a3c
000000d0: 00e7 6ebc 5cbb bd3c 7eea d8bb f86a c83c
000000e0: 54cc 923d af04 723c 49e1 db3c 92fb 04b9
000000f0: ced8 59bd 8b94 873d 5dc5 1abd cd59 6cbc
00000100: 48e0 963c 6cea b5b9 e4c0 40bd 4b63 52bd
00000110: 5b6d 4f3c 4acc e2bc 8d32 aa3c be6a 753d
00000120: 1f0f 7fbd c53d 003d 1975 37bd 8ec3 933d
00000130: b22a 823b c95d 323d a165 8ebd 6efc e43c
00000140: 75c1 083d d7c9 19bd 6945 81bc f826 47bd
00000150: 22ae 25bd 91e9 72bc 7573 1d3c d527 38bd
00000160: 4f77 f93c d61c 1ebc 7823 b93b bbd8 a2bc
00000170: 4919 d43c 8e88 dc3b df43 54bd 590c 2d3d
00000180: c265 003d 20f1 923d a808 1f3d 7537 92bd
00000190: e381 b5bc 3caa d1bc 8fa5 ea3c 1f87 9d3c
000001a0: efb5 c43b bdae e53c c75e 4cbd 0ee3 1d3b
000001b0: 0ff5 653d 7beb c1bc 1943 ee39 f741 19bd
000001c0: 25dc 683d f129 733c 3ce9 353d 93ac 9abc
000001d0: 7c54 8dbc 9e07 1c3d 19f7 a83c 986b 153d
000001e0: 0b8d bb3c 2da5 803d 9f8b 24bc 62a6 8fbd
000001f0: 1a68 3fba 267c b13c 6a14 8bbd cf6f 8b3d

conv3.1.weight f4 [128]
0.99902564 0.99327266 0.99958754 1.0027897 1.006294 1.0014813 1.0024409 0.9994267
1.0064652 1.0059229 0.99391556 1.0004554 0.9926944 0.9954536 0.9928493 1.0014315
1.0022887 0.99345803 0.9992745 1.000834 0.998833 1.0005364 1.002194 0.99336916
1.0031425 1.0083733 0.9984634 0.9999807 1.0087512 1.00407 1.0000088 1.0207481
1.0008609 1.0015396 1.0038103 1.0002128 1.0098407 1.000443 0.9998592 1.0106492
0.9977265 0.9998838 1.0029509 1.0048417 1.0037503 0.991335 0.9997689 1.005885
0.9997782 0.9971171 0.99317735 0.9997462 0.99645376 1.0013684 0.99343616 0.99438274
0.99488497 0.9944181 0.99810576 0.99475 0.99991477 1.0006773 0.9915556 1.0055376
1.0108042 0.9972012 0.99873185 0.99917907 1.0022715 0.99151224 0.9951538 1.0052476
0.994509 0.9998071 0.99554366 1.0023263 1.0011828 0.99369204 1.0116538 0.99120855
1.0033644 0.99399185 1.0061706 1.0003859 0.99958974 0.9909132 0.99999803 0.9919836
0.99731493 1.0006202 1.004656 1.0082082 0.9930943 1.002148 0.9972563 1.0031786
1.0010614 1.0023385 1.0032356 0.9992719 0.9962585 0.9887771 0.9915415 1.001934
1.0014365 0.99215245 1.000588 0.9960479 0.9980487 1.0017725 1.0017474 0.99253523
1.002581 1.021493 0.99862534 1.0004305 0.9980209 1.000737 0.99542063 1.0035439
1.0046744 1.0016972 0.99952054 1.0065427 1.0059431 0.98802465 1.0002632 1.0019773
00000000: 25c0 7f3f 1e47 7e3f f8e4 7f3f 6a5b 803f
00000010: 3ece 803f 8a30 803f fc4f 803f 6eda 7f3f
00000020: dad3 803f 15c2 803f 4071 7e3f ec0e 803f
00000030: 3821 7e3f 0cd6 7e3f 5f2b 7e3f e82e 803f
00000040: ff4a 803f 4453 7e3f 74d0 7f3f 541b 803f
00000050: 85b3 7f3f 9411 803f e547 803f 714d 7e3f
00000060: f966 803f 6012 813f 4c9b 7f3f bcfe 7f3f
00000070: c21e 813f 5e85 803f 4a00 803f e0a7 823f
00000080: 361c 803f 7332 803f db7c 803f f906 803f
00000090: 7642 813f 840e 803f c6f6 7f3f f45c 813f
000000a0: 016b 7f3f 62f8 7f3f b260 803f a79e 803f
000000b0: e47a 803f 21c8 7d3f dbf0 7f3f d7c0 803f
000000c0: 77f1 7f3f 1143 7f3f df40 7e3f 5eef 7f3f
000000d0: 9817 7f3f d72c 803f d551 7e3f de8f 7e3f
000000e0: c8b0 7e3f 2f92 7e3f dc83 7f3f f0a7 7e3f
000000f0: 6afa 7f3f 3216 803f 96d6 7d3f 75b5 803f
00000100: 0862 813f 9448 7f3f e4ac 7f3f 33ca 7f3f
00000110: 6f4a 803f bfd3 7d3f 66c2 7e3f f4ab 803f
00000120: 2498 7e3f 5cf3 7f3f f3db 7e3f 3a4c 803f
00000130: c226 803f 9a62 7e3f df7d 813f d8bf 7d3f
00000140: 3f6e 803f 4076 7e3f 33ca 803f a50c 803f
00000150: 1de5 7f3f 7dac 7d3f dfff 7f3f a3f2 7d3f
00000160: 0850 7f3f 5314 803f 9198 803f f70c 813f
00000170: 6e3b 7e3f 6346 803f 304c 7f3f 2868 803f
00000180: c822 803f a14c 803f 066a 803f 49d0 7f3f
00000190: cc0a 7f3f 7f20 7d3f aad5 7d3f 603f 803f
000001a0: 122f 803f b4fd 7d3f 4513 803f fffc 7e3f
000001b0: 1f80 7f3f 153a 803f 4239 803f ca16 7e3f
000001c0: 9354 803f 48c0 823f e9a5 7f3f 1b0e 803f
000001d0: 4c7e 7f3f 2618 803f e3d3 7e3f 2074 803f
000001e0: 2c99 803f 9d37 803f 94e0 7f3f 64d6 803f
000001f0: bec2 803f 2fef 7c3f a008 803f cb40 803f

conv3.1.bias f4 [128]
-0.0037101547 0.003611319 0.0011722016 -6.672633e-05 0.005557945 -0.0003171108 0.00092888926 -0.0040910137
-0.0010263841 0.0058988705 0.0022925925 -0.003153659 0.0020712418 -0.006257734 -0.0032011403 0.01055134
0.004233089 0.0016604973 0.005637483 0.006849221 -0.004253919 0.0024884334 0.0038560785 -0.0032470264
0.0026561262 0.010301514 -0.0004981134 -0.0010783519 0.0048622033 0.0045747696 0.0017329546 0.016515765
0.0034206614 0.0029549655 0.0057622194 0.0044833007 0.00865263 -0.006820008 0.0008060679 0.0040080496
0.0017635899 0.00274037 0.0046142945 0.00028643972 0.00063498045 0.0053122155 0.00036851692 0.010627921
0.0041504316 -0.0008142762 -0.0021779211 -0.0025573266 -0.001763441 0.0013182124 0.004432815 0.003929902
0.004534893 0.0031871416 0.0037871553 0.0046409224 -0.0021163318 0.0020892082 0.0012516025 0.0037993644
0.0072086244 0.004855446 0.00048534293 -0.0055225515 0.003646692 -0.0007074413 0.0017117081 0.0066703167
-0.0038104635 -0.0021725935 0.0037293753 -0.00012483327 0.00674766 0.0024625324 0.014483522 -0.00047735282
0.0011479259 -0.003085185 0.0066579957 -0.0014530874 0.0082239965 0.004630804 0.0031802289 -0.0023474197
0.00175751 -7.0567345e-05 0.009478477 0.017529717 -0.0029922447 -0.0020771872 0.0048246323 0.0047023096
0.00469184 0.0023953752 0.0036128126 -0.0040791635 0.003965723 0.0013556904 -0.0031861903 0.0022395798
0.0032299361 0.0009652473 0.0038575165 0.00512522 -0.0047041546 0.0039534806 -0.00067285093 -0.0037147652
0.0005363284 0.0059344466 0.0014089739 0.0015661995 7.103434e-05 0.0035680665 0.005020598 -9.5473515e-06
-0.000508979 -0.0011147961 0.00094515167 0.0069466727 0.0048282156 -5.8492707e-05 0.0036882279 -0.0019139505
00000000: 1126 73bb e1ab 6c3b 8fa4 993a 6def 8bb8
00000010: 6c1f b63b e441 a6b9 b480 733a e90d 86bb
00000020: bc87 86ba 504b c13b 523f 163b 9ead 4ebb
00000030: acbd 073b ad0d cdbb 39ca 51bb 87df 2c3c
00000040: b9b5 8a3b 0ba5 d93a a3ba b83b 6e6f e03b
00000050: 7564 8bbb fc14 233b 43b6 7c3b 10cc 54bb
00000060: 6712 2e3b aec7 283c d393 02ba 7c57 8dba
00000070: 1e53 9f3b f3e7 953b 4f24 e33a 124c 873c
00000080: 2d2d 603b 18a8 413b 00d1 bc3b a7e8 923b
00000090: c3c3 0d3c 607a dfbb 4d4e 533a f555 833b
000000a0: 4228 e73a c897 333b 8233 973b 4a2d 9639
000000b0: d174 263a 1812 ae3b 8135 c139 bb20 2e3c
000000c0: 5800 883b 2775 55ba 74bb 0ebb d298 27bb
000000d0: 4323 e7ba dec7 ac3a 2641 913b 68c6 803b
000000e0: 7199 943b 5ddf 503b ec31 783b e112 983b
000000f0: 28b2 0abb 19eb 083b d00c a43a c2fe 783b
00000100: 5336 ec3b 6f1a 9f3b a075 fe39 85f6 b4bb
00000110: 57fd 6e3b 9573 39ba 655b e03a ac92 da3b
00000120: f8b8 79bb 1262 0ebb 8968 743b ade5 02b9
00000130: 7a1b dd3b 7062 213b 4b4c 6d3c 3645 fab9
00000140: 0076 963a d130 4abb 512b da3b 8675 beba
00000150: f1bd 063c 00be 973b 636b 503b 2bd7 19bb
00000160: 405c e63a 8efd 93b8 9d4b 1b3c 7b9a 8f3c
00000170: 8919 44bb 6b21 08bb f317 9e3b d515 9a3b
00000180: 02be 993b bafb 1c3b f0c4 6c3b 81aa 85bb
00000190: e5f2 813b 6cb1 b13a 67cf 50bb eac5 123b
000001a0: 56ad 533b a608 7d3a 63ce 7c3b 76f1 a73b
000001b0: 4f25 9abb 338c 813b 4362 30ba 6b73 73bb
000001c0: 6498 0c3a bf75 c23b 52ad b83a ef48 cd3a
000001d0: 45f8 9438 39d6 693b d483 a43b 902d 20b7
000001e0: 016d 05ba 5a1e 92ba 0ec4 773a eaa0 e33b
000001f0: 0236 9e3b 1156 75b8 32b6 713b 86dd faba
