Code/model/model_atk_9.91.pt (torch, 962074 bytes, 50 tensors)

conv1.0.weight f4 [100, 1, 3]
000000 a2 b6 e0 3d ad f4 ce be d6 b3 d8 3e e1 33 99 3e
       0.109723344 -0.40421048 0.42324704 0.29922393
000010 0e 3b f2 be 94 c3 52 be 62 28 c5 be 79 2e 99 3e
       -0.4731068 -0.2058242 -0.38507372 0.29918268
000020 22 67 81 3e 35 3a ff 3e 75 c8 8d be 3f 42 c4 be
       0.25273997 0.49849096 -0.27692 -0.38331792
000030 a5 ce 87 3e 39 30 ba 3e 4c 73 19 3d b1 bf c1 be
       0.26524845 0.36364916 0.03746347 -0.3784156
000040 5e 23 0d bf bf 69 0a 3f db 7e ec 3e 3f e3 5e 3e
       -0.5513209 0.54067606 0.46190533 0.21766375
000050 8d 49 df 3d 80 99 86 3e aa eb c3 3d de 81 74 be
       0.109027006 0.26288986 0.09566434 -0.23877665
000060 ca 6e f2 bc 96 d9 3e 3e cb 40 c3 be 54 50 ed bd
       -0.029593844 0.1863769 -0.3813537 -0.11587587
000070 3e 82 0c 3f d6 cf fe be 69 d7 a7 3e f5 27 e8 be
       0.54886234 -0.4976794 0.32781532 -0.45342985
000080 2b ab 7c 3d b6 23 d5 3e 23 bd 45 3d cc 32 69 bd
       0.061686676 0.41628808 0.048276078 -0.05693321
000090 fa 1e 07 bf df c8 10 bf 05 6e 54 3e 8d a1 d2 bd
       -0.5278164 -0.56556505 0.20745094 -0.102847196
0000a0 21 5e 05 3f 7c 7d 29 3d 0f 9a 0d bf 99 58 10 3f
       0.52096754 0.041379437 -0.553132 0.5638519
0000b0 d6 88 ec 3d b1 36 c5 3e 45 60 b1 3e 11 ec 33 be
       0.11549537 0.3851829 0.3464376 -0.17570521
0000c0 b3 70 c9 3d 71 11 0a bd ae a6 de bb 8a 1e 92 3e
       0.09835949 -0.03370804 -0.006794772 0.28538924
0000d0 db 0e fd 3e b5 4b 78 be 91 b7 e1 3e e7 d2 76 be
       0.49425396 -0.2424763 0.44085363 -0.2410389
0000e0 49 aa 99 be cd 2e 0c bf 24 60 3f 3e be 75 07 3f
       -0.3001273 -0.5475891 0.18689018 0.52914035
0000f0 69 23 2d be 81 a1 8a 3d 49 3c 88 be 6f 1c 49 3e
       -0.16908039 0.06769086 -0.26608494 0.19639753
000100 c6 77 c3 be 63 d7 5c be 6b 6a 8d 3d cb ad d4 3e
       -0.38177317 -0.21566539 0.06905063 0.41538844
000110 da d7 ae be b4 80 52 be ad 73 da bd 38 34 c7 be
       -0.34149057 -0.20556909 -0.10666595 -0.38907027
000120 19 be ef 3e 5e 04 38 3c 23 b2 d9 bd c1 28 18 bf
       0.4682472 0.01123151 -0.1062968 -0.59437186
000130 a5 19 ed 3e 2d 99 d6 3d 90 94 6b 3e 9d 15 98 3e
       0.46308628 0.10478435 0.23005891 0.2970399
000140 d9 d4 b2 bc 68 36 94 3e 30 da 93 3e ee 1c fa be
       -0.02183001 0.2894776 0.288774 -0.48850197
000150 a3 11 c6 bc ba 07 12 3f 20 03 97 bd a6 f0 db 3e
       -0.024178332 0.5704304 -0.07373643 0.42957038
000160 a1 45 ff 3e 2d 0d 5b 3e 3a a0 9d 3e 8c f7 35 be
       0.4985781 0.21391745 0.30786306 -0.17770213
000170 0e 8a ed 3e 64 4e 82 be dc a1 e9 3d b1 1e a8 be
       0.4639439 -0.25450432 0.11407825 -0.32835916
000180 d9 b8 56 be e2 25 11 bf 4d 47 fb 3e 9e 7e 0e bf
       -0.20968951 -0.5669843 0.49077836 -0.5566195
000190 73 dd ec be c4 62 be be d8 7f 06 be 22 55 16 3f
       -0.46262702 -0.37184727 -0.13134706 0.5872365
0001a0 0a dd fc be 85 6d 03 bf 3d e4 cb be 00 99 e8 3e
       -0.4938739 -0.5133899 -0.3982257 0.4542923
0001b0 63 91 0b 3f 80 ba 64 3e f0 a1 b5 3e b1 36 b1 be
       0.5451872 0.22336769 0.3547511 -0.3461204
0001c0 0c 9d db 3e 24 15 b5 3d ca 3f 0f bf 3b ac 02 bf
       0.42893255 0.08841923 -0.5595671 -0.5104405
0001d0 81 df 7c be 21 c5 ae 3e de 97 da be 51 3a c6 3d
       -0.24694635 0.34134772 -0.4269399 0.09679092
0001e0 77 99 47 3e d0 d5 84 bd e5 e8 f3 3c 50 30 b8 bd
       0.19492136 -0.06486094 0.029774139 -0.0899359
0001f0 b7 5c 2c be e4 0c 4d 3e b1 4c 8d be 25 cb 7b 3c
       -0.16832243 0.20024449 -0.27597573 0.015368258
000200 bf 4b ea be 2e 22 11 bf 7e a0 d6 3e 92 f9 5f be
       -0.45760915 -0.5669278 0.4191932 -0.21872547
000210 08 ae 08 bf 46 4c fa be b5 44 95 3e 45 e6 d0 be
       -0.5339055 -0.48886317 0.29153982 -0.40800682
000220 e3 8d 0c bf c9 d8 55 3e ac 04 a3 3e 0b 0e 7b 3e
       -0.54904 0.20883478 0.31839502 0.24517076
000230 ee e8 aa be 2b 38 6d bd ea 6a d0 3e dd e6 ee be
       -0.33380836 -0.057914894 0.4070657 -0.4666051
000240 75 40 8f be c7 2b 08 bf e5 b9 89 3d 33 0f f7 3e
       -0.27978864 -0.531918 0.0672491 0.48253784
000250 87 0a 04 bf 5d cb de be 6b 88 c8 be 61 b2 d5 3d
       -0.51578563 -0.4351453 -0.3916658 0.10434414
000260 3b cb 61 3e cf de d2 3e 2a 2a 2c be 14 f8 ca 3e
       0.22050183 0.41185614 -0.1681296 0.39642394
000270 ce b5 a5 3d bb 93 04 bf a2 d7 76 be 9c 42 8d 3e
       0.08091317 -0.5178792 -0.24105695 0.2758988
000280 05 5e ca 3e 48 01 fe 3e 78 3a 04 3d 8b 8a f5 3e
       0.39524856 0.49610353 0.032282323 0.47957262
000290 73 d5 81 3e df c6 48 3e b2 21 09 bf 01 b3 b0 3e
       0.2535816 0.19607113 -0.5356704 0.3451157
0002a0 5f c7 11 bf bb ac 12 3e e8 f0 cb 3e b8 bf 8a be
       -0.5694484 0.14323704 0.39832234 -0.27099395
0002b0 5b ba f3 3e 69 7e c0 be ca da 66 3e 4a 1d 32 be
       0.47603115 -0.37596443 0.22544399 -0.17393985
0002c0 9d 0e 96 be 5e 22 92 3c 96 d5 f2 be c7 8b 04 3d
       -0.29308024 0.017838653 -0.47428578 0.032359865
0002d0 42 18 f4 bd e0 35 93 3e d4 25 06 be 7c b9 f5 be
       -0.11918689 0.2875204 -0.13100368 -0.47993076
0002e0 9a df b1 be 5d 0b 78 3e c8 1f cf bd a7 2a b9 be
       -0.34740907 0.24223085 -0.10113484 -0.36165354
0002f0 bf a9 e5 3c 91 e5 f8 bc a6 ba 57 be 61 0b b9 3e
       0.028035043 -0.030382903 -0.21067294 0.36141494
000300 d7 95 6b 3e 44 18 86 3d df 67 13 bf 98 09 84 3e
       0.23006378 0.06547597 -0.5758037 0.2578857
000310 9f 90 c6 be c1 d3 11 3e 53 33 10 3d 8d c4 83 bc
       -0.38782212 0.14240934 0.035205197 -0.016084934
000320 68 7c e4 be 3c bb d7 be bd 5e 9f be b6 34 cb 3d
       -0.44626164 -0.42135036 -0.31126967 0.09922163
000330 7f 65 d6 be 27 2c 05 bf 33 f9 ad bd 97 67 e4 be
       -0.4187431 -0.52020496 -0.084947966 -0.44610283
000340 9f b1 91 3e f1 5e 4a be f3 fd 39 3e 61 d3 e2 3e
       0.28455827 -0.1976278 0.1816328 0.44301894
000350 64 2a 9d 3e 7d 4a ad 3e 14 16 0a bf 4d 59 62 3e
       0.30696404 0.33845893 -0.5393994 0.22104378
000360 a8 63 09 bf a3 82 0f 3e 74 d6 b9 3e 1f 2e ae 3e
       -0.5366769 0.14014678 0.36296427 0.34019563
000370 97 ab 06 bd c7 c4 ae be 01 9d fe 3e bf 52 90 be
       -0.032878485 -0.34134504 0.4972916 -0.2818813
000380 e5 19 5c 3e fb 60 f2 bd df c6 12 3e 5f 26 bb 3e
       0.21494253 -0.11834904 0.14333676 0.36552712
000390 2b e9 94 be 40 b3 cb 3e 34 72 58 bd fe ae 41 be
       -0.29084143 0.39785194 -0.052843288 -0.1891441
0003a0 17 29 44 be d8 5e 08 3f 3c e2 65 3e 10 72 db 3e
       -0.191563 0.5326972 0.22449583 0.4286046
0003b0 db 12 b0 bd cd fa 3e 3e a3 e2 11 3f 95 c3 cf 3e
       -0.085973464 0.1865036 0.56986445 0.40578905
0003c0 b0 e2 12 be b2 27 e1 be 57 cf 46 3e eb f6 9f be
       -0.14344287 -0.43975598 0.19415031 -0.3124307
0003d0 1c f0 b0 3d a8 8a 22 3c c8 cf 10 3d b6 15 71 3e
       0.08639547 0.009920754 0.035354406 0.23543438
0003e0 7f b8 7a 3e 1b c0 2a be 7e b1 f7 3e b9 c9 66 be
       0.24484442 -0.16674845 0.48377603 -0.22537889
0003f0 36 33 9e be 4b d4 89 3e c9 e0 7c 3e 6f f4 13 bf
       -0.30898446 0.2691978 0.24695124 -0.5779485

conv1.0.bias f4 [100]
000000 1d 92 ba 3e 33 84 da be 6b fd 08 3f 2b 9a 37 be
       0.364396 -0.42678985 0.53511685 -0.17929904
000010 4c 0d f1 be 68 17 06 bc 65 a7 36 be cf 68 c9 3e
       -0.47080457 -0.008184291 -0.17837293 0.39337775
000020 63 6a 01 bf bb 49 ae 3e b5 2d 02 3f 99 27 c5 3e
       -0.5055296 0.34040627 0.50850993 0.38506773
000030 12 d4 87 be 92 3f eb be e0 47 06 be ca 31 fe be
       -0.26528984 -0.45946938 -0.13113356 -0.4964736
000040 b5 f8 e1 3d cb 52 89 3e 81 dd 32 bd a1 09 99 be
       0.11033765 0.2682098 -0.043668274 -0.2989016
000050 24 20 1d 3b be 55 c8 bb f8 b7 eb 3e 7d c6 cf be
       0.0023975456 -0.006113737 0.46038795 -0.40581122
000060 28 42 05 3e 71 e7 c3 3d 13 c5 5d 3e b7 68 9b be
       0.13013518 0.09565628 0.21657209 -0.3035333
000070 aa 3e dd 3e 7e de a8 be 49 d0 66 3e 9c b1 b8 be
       0.4321187 -0.32982248 0.22540392 -0.36073005
000080 2e d5 ae 3e 51 ef cd be 35 bd 99 be 38 72 a6 3e
       0.34147018 -0.40221646 -0.30027166 0.32509017
000090 6b 11 0b 3f 94 e1 23 bb f0 1d 9e be d7 88 dc be
       0.5432345 -0.0025006281 -0.30882215 -0.4307315
0000a0 12 8f 66 be da 23 c9 3e 8e 1c b8 be c0 ca 86 be
       -0.22515514 0.39285165 -0.35959285 -0.2632656
0000b0 c8 bd d6 be 2b e2 33 3e 4e 40 f0 be a4 94 df be
       -0.41941667 0.17566745 -0.4692406 -0.4366809
0000c0 67 11 13 be c3 8d 67 bd a3 f9 8e be 4b 66 0f 3f
       -0.14362107 -0.05653168 -0.27924833 0.5601546
0000d0 aa 86 0f bf 74 2c fb 3e 31 12 72 be e8 65 01 bf
       -0.56064856 0.49057353 -0.23639752 -0.5054612
0000e0 dd 14 17 be f3 ce a0 3e be c4 6a 3e 59 57 a9 3e
       -0.14754052 0.3140789 0.22926614 0.33074453
0000f0 54 f1 c0 3d 3b ff 39 be 55 f2 8b 3e b1 79 7c 3e
       0.0942103 -0.18163769 0.27333322 0.24655797
000100 c4 48 32 3e a1 b4 fb be 81 b7 f7 3d 50 00 6e be
       0.1741057 -0.49161246 0.120955475 -0.23242307
000110 d4 7e ca be 56 72 0b bf 43 1e 0e 3f 05 da 60 be
       -0.39549887 -0.5447134 0.55514926 -0.21958168
000120 2a 67 09 3f 5a 82 e4 be c1 d8 51 be f6 3b 99 be
       0.5367304 -0.446307 -0.20492841 -0.2992856
000130 e1 da d6 3e f2 6f b7 be bc 36 b4 be e2 3f b6 be
       0.41963866 -0.35827595 -0.3519801 -0.35595614
000140 bf f1 11 bf af 01 8d 3d 15 f0 7e 3e 54 9d 42 3e
       -0.570095 0.06885087 0.24896272 0.19005328
000150 59 d0 b8 3e 8c 53 f8 bd 6c 85 0e 3e 37 69 89 bd
       0.36096457 -0.1212531 0.13918084 -0.06709521
000160 96 b0 8f bd a9 d7 11 bf f2 79 90 be e0 86 0f 3f
       -0.07016103 -0.56969696 -0.28218037 0.5606518
000170 ab e8 f5 3e 53 8b eb 3d 64 18 01 3d 14 5f 02 3f
       0.48029074 0.11501183 0.0315174 0.5092633
000180 3d d6 4b be 69 22 45 be 68 4e 64 bd a2 ef 4c be
       -0.19905944 -0.19251408 -0.055738837 -0.20013288

conv1.1.weight f4 [100]
000000 c6 98 80 3f 33 bf 7e 3f ea 20 81 3f 85 fc 7e 3f
       1.0046623 0.99510497 1.008817 0.99604064
000010 b7 11 7e 3f dc c7 7f 3f ae 5e 7e 3f 77 ad 80 3f
       0.9924578 0.99914336 0.9936322 1.0052937
000020 6e 46 7f 3f f9 2e 81 3f 2d 94 7f 3f fa f5 7f 3f
       0.9971684 1.009246 0.99835473 0.99984705
000030 0e 53 7c 3f 44 7c 7f 3f 25 5d 81 3f 1a d4 7f 3f
       0.9856423 0.9979899 1.010655 0.99933016
000040 7a 00 80 3f 93 9d 7e 3f cb be 80 3f 59 f6 81 3f
       1.0000145 0.9945919 1.0058225 1.0153304
000050 e8 87 7f 3f 8f 73 7f 3f 6a 75 80 3f e5 6c 7c 3f
       0.9981675 0.99785703 1.0035832 0.9860366
000060 8c ba 7e 3f ce 1a 81 3f 37 cb 7e 3f 5d c6 81 3f
       0.995034 1.0086305 0.9952883 1.0138661
000070 06 b6 7f 3f 83 75 7c 3f ad be 7e 3f ec 0f 7f 3f
       0.9988712 0.9861681 0.995097 0.9963367
000080 d0 9c 80 3f a1 53 7c 3f 42 e5 81 3f c6 44 80 3f
       1.0047855 0.9856511 1.0148089 1.0020988
000090 bf b9 7c 3f 74 f5 7e 3f be f9 7b 3f 59 ee 81 3f
       0.98720926 0.9959328 0.9842795 1.0150863
0000a0 d6 75 7f 3f bb 11 80 3f 88 92 7d 3f 34 4f 80 3f
       0.9978918 1.0005411 0.99051714 1.0024171
0000b0 2c 24 7e 3f 40 fc 7d 3f 00 2f 81 3f fe bb 80 3f
       0.99273944 0.9921303 1.0092468 1.0057371
0000c0 64 b5 7d 3f 83 31 80 3f 97 a6 80 3f 37 e6 7d 3f
       0.99104905 1.001511 1.0050839 0.99179405
0000d0 14 69 7e 3f 51 c2 7d 3f 7c fc 7d 3f 44 22 84 3f
       0.99379086 0.9912463 0.99213386 1.0322957
0000e0 bf 8c 80 3f c5 3c 81 3f 14 42 80 3f 02 9f 7e 3f
       1.0042952 1.009667 1.0020165 0.99461377
0000f0 3a 25 80 3f 43 8f 7e 3f d3 c5 7e 3f 2c f4 7f 3f
       1.0011361 0.9943735 0.99520606 0.9998195
000100 a2 f2 80 3f 2a cd 81 3f 76 10 7f 3f 48 87 7d 3f
       1.0074046 1.0140736 0.9963449 0.9903455
000110 cb 55 7d 3f 9c 1d 80 3f 39 49 7e 3f b5 fc 81 3f
       0.98959035 1.0009036 0.9933048 1.0155245
000120 18 10 81 3f 15 36 80 3f e9 76 7e 3f 0c 0c 7f 3f
       1.0083036 1.0016505 0.9940019 0.9962776
000130 32 86 80 3f e4 fc 7f 3f 13 03 7e 3f 75 65 7e 3f
       1.0040953 0.99995255 0.9922344 0.9937356
000140 d5 98 7f 3f 64 ce 7f 3f 94 ee 7e 3f 37 5a 80 3f
       0.9984258 0.999243 0.9958279 1.0027531
000150 df fe 7f 3f 2b c5 81 3f 40 91 7f 3f bc 8e 7c 3f
       0.9999828 1.0138296 0.9983101 0.98655295
000160 1d 23 80 3f 9e 86 7e 3f bd 70 7d 3f b8 21 80 3f
       1.0010716 0.9942416 0.9900015 1.001029
000170 34 03 7f 3f 0a 9a 7e 3f ab a1 80 3f f0 0c 7e 3f
       0.9961426 0.99453795 1.0049337 0.9923849
000180 d8 9b 7f 3f 58 23 81 3f 63 aa 7d 3f f1 7c 82 3f
       0.99847174 1.0088911 0.99088115 1.0194379

conv1.1.bias f4 [100]
000000 86 d9 27 3d 20 2b 06 3d 51 55 50 3d 81 70 65 bd
       0.04097893 0.03275597 0.050862614 -0.056015495
000010 1e 76 5a bb c8 f7 ae 3c a4 37 46 3b c4 91 ec 3c
       -0.0033334563 0.021358386 0.0030245567 0.0288781
000020 09 2c e3 3a 55 20 a7 3d d8 72 f2 3c ae 80 90 bb
       0.0017331849 0.08160464 0.029595777 -0.004409871
000030 06 de 95 3c 1c 55 b3 3c a0 d5 42 3d 9d 3a bc ba
       0.018294346 0.02189117 0.04756701 -0.001436073
000040 e2 3c d7 3a 33 3d 5f 3c 28 54 4d 3d e9 37 40 3d
       0.0016421343 0.013625431 0.050129086 0.04692832
000050 9f 4e 35 bd 5a 6c 1f 3c aa 5c a4 3c 0b 6c af 3a
       -0.044264432 0.009730423 0.020063717 0.001338364
000060 2c fc 35 bb 42 96 09 3d 85 a3 44 bc a1 49 31 3d
       -0.0027768714 0.033590563 -0.012001877 0.04328311
000070 a8 c7 cd 3c 37 2e 7c 3c e7 d8 d6 3c df 2a 71 3a
       0.025119618 0.015391878 0.026226474 0.00091998087
000080 01 b1 54 3d 40 98 bd bc 6b a8 a6 3d 72 9f 15 3d
       0.051926617 -0.023143888 0.08137592 0.036529012
000090 cb 0e fb 3c ac 7c 7d 3c 08 c6 ab 3c 18 62 b5 3d
       0.030646702 0.015471619 0.020968452 0.088566005
0000a0 3c a8 72 3c 2b 2e f5 3c dc e9 73 3c 10 2f b1 bc
       0.014810618 0.029929241 0.014887299 -0.021628886
0000b0 ca 02 70 3b 2a c0 17 3d 08 8c fb 3c 44 19 ab 3c
       0.0036622756 0.037048496 0.03070642 0.020886071
0000c0 c0 a0 e6 3b 9d 81 82 3c 42 7d 3f 3d ed e4 23 3b
       0.007038206 0.015930945 0.046750315 0.0025008277
0000d0 f1 a9 cf ba b1 fc 05 3c 98 e5 82 3c 70 ce 62 3d
       -0.0015843493 0.008177922 0.01597862 0.055372655
0000e0 be 8a 33 3d bb 61 24 3d f2 36 f6 3b f1 82 0b bc
       0.043833487 0.040132266 0.007513874 -0.008515106
0000f0 da 43 9e bc 58 17 3d 3c 34 d1 4c bc 4f 16 f4 bc
       -0.019319464 0.01154121 -0.01250105 -0.029795794
000100 a4 69 00 3d b4 b6 71 3d de de 78 3c c1 c6 1d bd
       0.031350747 0.05901213 0.015189854 -0.038519625
000110 c1 85 5a bc 10 c0 8d bc 59 9f 62 3c c5 1d 85 3d
       -0.0133375535 -0.017303497 0.013831937 0.06499819
000120 ee 9b 41 3d 8f 63 0c 3d 00 24 2b bd a7 cb 11 39
       0.047267847 0.034274634 -0.04178238 0.00013904144
000130 ce 73 2f 3d 96 99 3e 3c a3 fe 50 3c d7 5f cb 3c
       0.04283505 0.011633297 0.012756023 0.024825973
000140 72 4b 28 3c 86 ad 38 3c 8e 59 82 3c 69 c4 04 3d
       0.010271894 0.01127184 0.015911844 0.032413874
000150 f7 c0 70 3c ac 83 4c 3d f0 c0 0b bd dd b3 a4 3c
       0.014694444 0.04993026 -0.034119546 0.020105297
000160 76 40 e0 bb db 43 26 bd 5f a4 29 3d b8 f7 ac 3c
       -0.006843622 -0.040592056 0.041416522 0.021114215
000170 83 5f f9 3c 54 42 af 3c bb 22 a5 3c 92 25 2d 3b
       0.030441051 0.021393932 0.020158162 0.0026420099
000180 ef 3f 48 3b ab 29 4f 3d 24 24 03 bd a1 34 3b 3d
       0.0030555686 0.050576847 -0.03201689 0.045704488

conv1.1.running_mean f4 [100]
000000 f0 91 ba 3e b4 83 da be 4d fd 08 3f c0 99 37 be
       0.36439466 -0.42678607 0.53511506 -0.17929745
000010 24 0e f1 be cc 07 06 bc 66 a9 36 be a8 68 c9 3e
       -0.470811 -0.00818057 -0.17838058 0.3933766
000020 3e 6a 01 bf cd 49 ae 3e bd 2d 02 3f 10 27 c5 3e
       -0.5055274 0.3404068 0.5085104 0.38506365
000030 ef d2 87 be 1f 40 eb be 34 48 06 be 7f 32 fe be
       -0.26528117 -0.45947358 -0.13113481 -0.496479
000040 66 f8 e1 3d 1a 52 89 3e 7f dc 32 bd de 09 99 be
       0.11033706 0.2682045 -0.043667313 -0.2989034
000050 6d 5d 1d 3b 01 35 c8 bb c6 b7 eb 3e 9a c5 cf be
       0.0024011985 -0.006109834 0.46038646 -0.40580446
000060 2e 41 05 3e 82 e7 c3 3d c0 c3 5d 3e d1 68 9b be
       0.13013145 0.09565641 0.21656704 -0.30353406
000070 0e 3e dd 3e f1 df a8 be c6 ce 66 3e ff b0 b8 be
       0.43211406 -0.32983354 0.22539815 -0.36072537
000080 8e d5 ae 3e 8a ed cd be 2d bd 99 be ce 72 a6 3e
       0.34147304 -0.4022029 -0.30027142 0.32509464
000090 b2 10 0b 3f f4 fc 23 bb 3f 1c 9e be d4 88 dc be
       0.5432235 -0.0025022598 -0.30880925 -0.43073142
0000a0 78 8f 66 be ec 23 c9 3e a1 1b b8 be 4c ca 86 be
       -0.22515666 0.3928522 -0.3595858 -0.26326215
0000b0 d6 bc d6 be 0f e4 33 3e 93 40 f0 be 77 94 df be
       -0.41940945 0.17567466 -0.46924266 -0.43667957
0000c0 81 0f 13 be 01 89 67 bd 8c f9 8e be df 65 0f 3f
       -0.14361383 -0.05652714 -0.27924764 0.5601482
0000d0 3a 86 0f bf f3 2a fb 3e 27 14 72 be e8 65 01 bf
       -0.5606419 0.49056205 -0.236405 -0.5054612
0000e0 c9 14 17 be 29 cf a0 3e 59 c5 6a 3e e3 57 a9 3e
       -0.14754023 0.3140805 0.22926845 0.33074865
0000f0 30 f1 c0 3d b6 fd 39 be dc f2 8b 3e 66 79 7c 3e
       0.09421003 -0.1816319 0.27333724 0.24655685
000100 72 49 32 3e a5 b4 fb be a7 b9 f7 3d b9 fe 6d be
       0.1741083 -0.49161258 0.12095957 -0.232417
000110 86 7d ca be 1d 72 0b bf a8 1d 0e 3f 0a da 60 be
       -0.39548892 -0.54471 0.55514 -0.21958175
000120 2f 67 09 3f 4b 82 e4 be d3 d9 51 be 76 3c 99 be
       0.5367307 -0.44630656 -0.2049325 -0.2992894
000130 c5 da d6 3e 22 70 b7 be 6f 37 b4 be 5b 41 b6 be
       0.41963783 -0.35827738 -0.35198542 -0.35596737
000140 79 f1 11 bf c5 02 8d 3d bf ee 7e 3e 11 9d 42 3e
       -0.57009083 0.06885294 0.24895762 0.19005229
000150 13 d0 b8 3e f5 53 f8 bd e1 85 0e 3e 5d 6f 89 bd
       0.36096248 -0.121253885 0.13918258 -0.06710694
000160 78 ae 8f bd 63 d7 11 bf 60 7b 90 be d3 86 0f 3f
       -0.07015699 -0.5696928 -0.28219128 0.560651
000170 32 e7 f5 3e 24 8e eb 3d 61 17 01 3d 61 5e 02 3f
       0.4802795 0.115017205 0.031516436 0.5092526
000180 c1 d5 4b be 88 22 45 be 6c 44 64 bd a6 ef 4c be
       -0.1990576 -0.19251454 -0.055729315 -0.20013294

conv1.1.running_var f4 [100]
000000 db 9b 37 35 a2 b3 71 36 fc 6f ed 35 5e e0 37 36
       6.839961e-07 3.6016359e-06 1.7690468e-06 2.7399724e-06
000010 e3 0a 04 37 2c c2 b8 36 e9 0b 34 37 72 d9 80 35
       7.870348e-06 5.506232e-06 1.0731609e-05 9.600028e-07
000020 55 c9 99 35 a8 2c 5d 35 af 73 1b 35 61 35 60 36
       1.1457984e-06 8.23939e-07 5.791034e-07 3.3409672e-06
000030 eb e6 80 37 75 21 8c 36 46 ab 07 36 4e 3f d4 36
       1.5366319e-05 4.17622e-06 2.0216262e-06 6.325462e-06
000040 b6 75 b3 33 85 8a ce 36 4d a8 f0 35 3e 47 7c 36
       8.3567485e-08 6.155404e-06 1.7930375e-06 3.7592395e-06
000050 44 eb 12 36 70 7e 6a 36 a3 70 95 35 46 6c 09 37
       2.1892638e-06 3.4942314e-06 1.1134147e-06 8.191046e-06
000060 cd 5e 55 36 d1 25 db 35 38 01 9c 36 05 08 03 36
       3.1794655e-06 1.6327778e-06 4.649304e-06 1.952519e-06
000070 d4 fa 94 36 e1 15 bc 37 f7 81 be 36 ac 25 6c 36
       4.439944e-06 2.2421535e-05 5.677571e-06 3.5188668e-06
000080 78 4b 60 36 bf 0a 09 38 54 2c 5b 35 c3 cb d8 36
       3.342253e-06 3.2673353e-05 8.1648363e-07 6.4610226e-06
000090 53 fa af 37 11 d0 b5 35 bb 16 f9 37 f4 36 d9 34
       2.0978192e-05 1.3546106e-06 2.9693698e-05 4.0459383e-07
0000a0 87 1d 01 35 85 8d b6 34 b0 a0 0d 37 3b b0 29 36
       4.809921e-07 3.400311e-07 8.441668e-06 2.5285542e-06
0000b0 f2 f1 3e 37 48 83 3a 37 db 11 13 36 f4 08 61 35
       1.1381215e-05 1.111703e-05 2.19151e-06 8.383206e-07
0000c0 f4 2e 2c 37 18 18 dd 36 1c 82 95 35 de f1 da 36
       1.0262931e-05 6.589118e-06 1.1139232e-06 6.5250633e-06
0000d0 f9 3e 10 37 1f b5 c1 37 10 9d 2f 37 4f 92 ed 34
       8.597731e-06 2.3091734e-05 1.0467382e-05 4.4251144e-07
0000e0 39 17 30 36 03 82 39 35 4d b1 f0 35 da 14 6b 36
       2.623956e-06 6.910706e-07 1.7932995e-06 3.5029866e-06
0000f0 01 4b 20 34 41 d0 f9 36 eb 80 6b 36 b2 1d 38 35
       1.4928447e-07 7.445022e-06 3.509277e-06 6.8588554e-07
000100 64 66 4c 36 b9 24 7b 34 98 52 72 36 83 9e 00 37
       3.0457968e-06 2.3389556e-07 3.6108886e-06 7.666301e-06
000110 7d 9b 9a 37 29 24 15 36 8d 1d 7b 37 93 b0 e0 34
       1.8430635e-05 2.2223778e-06 1.4967646e-05 4.1851726e-07
000120 f1 b5 18 36 28 6b af 35 6e 8f 53 36 bd c7 58 36
       2.2755669e-06 1.3069703e-06 3.1524937e-06 3.2302771e-06
000130 7d 6e ee 34 66 9a f4 35 da 85 cb 36 d5 63 c4 37
       4.4411345e-07 1.8224353e-06 6.065454e-06 2.3411509e-05
000140 3b 99 5b 36 b6 74 8a 35 b9 f2 9c 36 44 69 0b 35
       3.2722735e-06 1.0315769e-06 4.677419e-06 5.1934717e-07
000150 e2 29 e8 35 f2 fb f6 35 2f 67 d4 35 7f 4b cd 37
       1.7297536e-06 1.8401754e-06 1.5825261e-06 2.447306e-05
000160 cd b7 49 36 dc 76 81 36 6b 92 b2 37 7b 74 78 35
       3.005832e-06 3.8583366e-06 2.1287435e-05 9.25567e-07
000170 f5 23 c1 37 8a 60 b4 36 46 15 ec 35 56 bc ad 37
       2.3024137e-05 5.3756567e-06 1.7589562e-06 2.0710908e-05
000180 82 ff ec 35 1d 50 8a 35 4e 21 88 37 9f c8 df 34
       1.7657733e-06 1.0305117e-06 1.6227972e-05 4.1682958e-07

conv2.0.weight f4 [64, 100, 3]
000000 f4 5f f9 3b 69 98 22 3b b6 08 51 3d ad 15 b8 3b
       0.0076103155 0.0024810082 0.051033698 0.0056178183
000010 74 62 25 3d ae 62 20 3c 78 08 db 3c c5 b8 0f bc
       0.040377095 0.009789152 0.026737437 -0.00877208
000020 ba 11 47 bd 87 c6 4b 3d 93 5d 4b bd 3f 17 79 bc
       -0.04860089 0.049749877 -0.049649786 -0.015203296
000030 8c fa 12 3d a7 fa c3 bc e0 1a 51 bd 1a 04 2f 38
       0.03588347 -0.023923231 -0.05105102 4.172707e-05
000040 d8 5a c7 3c 28 7b 14 bd 8a 5b 0d bd 33 f6 44 3d
       0.02433531 -0.036250263 -0.034511127 0.048086356
000050 79 53 25 bd 0f 65 f4 bc 34 a4 c4 bc 97 a2 f4 bc
       -0.04036281 -0.029833345 -0.02400408 -0.029862685
000060 f1 a6 4f bd 75 31 20 3d 28 ec 8f bc bb 06 69 3c
       -0.050696317 0.039109666 -0.017568663 0.014222796
000070 de c3 55 3d 22 a9 3a 3c 31 05 3b 3d f9 36 44 3c
       0.052188747 0.0113928635 0.045659248 0.011975997
000080 af bb 54 bd ba 79 ae 3c 1e 03 5f bd e2 51 c1 bb
       -0.0519368 0.021298278 -0.054446332 -0.005899654
000090 ae 05 a7 bc b8 76 21 bc cb 7f 10 3d d5 15 47 3d
       -0.02038845 -0.009854965 0.035278123 0.048604805
0000a0 aa b3 27 3b 11 cb 43 3c 67 4f 6c 3b ae f0 17 bd
       0.0025589266 0.01195027 0.003605807 -0.037094764
0000b0 42 90 4c 3d 80 9c e3 3c ab 6a 9f 3c 6f 17 6b 3d
       0.049942262 0.027784586 0.019460043 0.057395395
0000c0 a0 20 95 bc d0 81 7d 3c 49 d8 4b bd ec 10 68 3c
       -0.018204033 0.015472844 -0.049766812 0.014164191
0000d0 bc 78 74 bc e7 2c 0d bd 40 ca a3 3a 12 57 37 bd
       -0.014921363 -0.03446665 0.0012496188 -0.04476077
0000e0 e5 9a 25 bd e2 e0 91 bd 0a 3a 2b bd 8f 5f 40 3d
       -0.040430922 -0.07122971 -0.041803397 0.04696613
0000f0 5b 11 8b bc 06 5c fc bc 74 9c ea 3c c9 32 de 3b
       -0.01697605 -0.030805599 0.028639056 0.0067809564
000100 96 25 92 b8 d9 76 89 bc ae c6 44 bc 96 73 b4 bc
       -6.9688234e-05 -0.016780304 -0.01201026 -0.022027772
000110 fb 7b fa bc b8 0a ed 3c e3 96 d2 bc 74 d5 37 3d
       -0.030576697 0.028935775 -0.025706714 0.0448813
000120 1a d4 76 bd ac 71 3c bc c3 9a 16 3a 9a 59 79 3c
       -0.06026087 -0.011501711 0.0005745107 0.015219117
000130 32 a4 c0 3c 25 29 13 3c 60 22 fa 3c 25 3d a1 3c
       0.023515794 0.008981978 0.03053397 0.019682476
000140 53 25 17 3b c9 fd 31 bd 73 b7 6b bd b0 d4 16 bd
       0.0023063018 -0.04345492 -0.057547998 -0.03682393
000150 c4 2e 5f bd 7e 27 78 bc 28 92 a7 3b 2c ae 27 3c
       -0.05448796 -0.015146134 0.0051138587 0.010234397
000160 25 2a 2f bd c7 1b 69 3c 01 66 5a bd 9a 7a 19 bd
       -0.0427648 0.014227814 -0.053319935 -0.037470438
000170 10 95 07 bc 66 43 d7 3c ff d4 f1 bb ed d9 85 bd
       -0.008275285 0.026277255 -0.0073801274 -0.06535707
000180 c4 a2 3d bc ca 7d 3f bd a6 9f 78 bc b8 af 15 3d
       -0.011574451 -0.04675082 -0.015174782 0.03654453
000190 7c 80 4a 3d 7c c6 60 3d bd c2 66 3d b4 07 18 3d
       0.04943894 0.05487679 0.05633806 0.03711672
0001a0 22 17 79 3d dd fe 67 3b 07 f3 fe 3c 8e ed 1f 3d
       0.060813077 0.0035399713 0.031121744 0.03904491
0001b0 6e 2b 40 bd c7 9a 87 bc 62 f8 ec 3c b0 59 51 bd
       -0.046916418 -0.016553296 0.028927032 -0.051110923
0001c0 de 38 e3 3c 77 98 51 bd 4b 2f c2 bc 40 f0 5c bc
       0.027737077 -0.051170792 -0.023704192 -0.013485014
0001d0 0f 48 5d bb 09 94 4c 3a 49 2b 01 3b 03 0d a2 3b
       -0.0033764874 0.00078040414 0.0019709638 0.004945399
0001e0 b2 43 09 3d e0 a1 1a bd 38 16 15 3d c9 fb d8 bc
       0.033511825 -0.037752032 0.036398143 -0.026487248
0001f0 03 c6 47 bd 6c 73 ee 39 13 a9 96 3c d0 6a 6b bd
       -0.048772823 0.00045480893 0.018391168 -0.05747491
000200 49 25 b3 3c a3 64 ab bc 09 60 31 bc 0e f8 4f 3d
       0.021868365 -0.02092201 -0.010826119 0.050773673
000210 68 37 26 3d 39 6f d2 bc ff 99 f5 bc 20 de eb 3c
       0.040580183 -0.0256878 -0.029980658 0.02879244
000220 07 63 49 3d 27 3c 17 bd 38 b5 30 bb 56 35 26 3d
       0.049166705 -0.0369226 -0.0026963484 0.04057821
000230 f7 5e b7 bc a2 a2 bc bb 7e b3 63 3d 8c d5 90 3b
       -0.02238415 -0.005756692 0.0555911 0.004419988
000240 f3 77 28 bd c7 df 44 bd 04 07 5b 3d f2 45 f3 bc
       -0.041130017 -0.048064973 0.053473487 -0.029696438
000250 9f d1 0d b9 96 ec 4a 3d 6c 63 6d bd bf 68 10 3d
       -0.00013524898 0.049542032 -0.057956144 0.035256144
000260 57 82 34 3c 98 f6 76 bc 96 7b 21 bc 0a 88 75 3b
       0.011017404 -0.015073441 -0.009856125 0.0037465119
000270 d7 03 9e bb 2c 8e 50 bd 93 8b f0 bc 0d 0f 3c 3d
       -0.004822235 -0.050916836 -0.02936343 0.04591279
000280 b3 82 13 bc 0c fb e2 ba 5c 10 16 bd e6 ec a8 3c
       -0.009003329 -0.001731725 -0.036636695 0.020620774
000290 2d 61 36 3d fd d2 77 3d b9 a9 4b 3d ea 06 8d 3d
       0.044526268 0.06050395 0.049722407 0.068860844
0002a0 4a f5 aa 3c 5b 31 46 bc f9 64 12 bd 59 c1 6d bc
       0.020868916 -0.012096728 -0.035740826 -0.01451143
0002b0 eb 46 88 ba 81 6f 59 bd ee 72 30 3d d1 9b fa bb
       -0.0010397112 -0.053084854 0.043078355 -0.0076479693
0002c0 a6 06 07 bd 8a 80 f4 3c 72 fb 34 bd 4a e8 3b bd
       -0.032965325 0.029846448 -0.04418511 -0.045875825
0002d0 7d e0 cd bc 0f 14 07 bc 25 e2 a3 bc 0e c1 6e bd
       -0.025131458 -0.008244528 -0.020005295 -0.05828958
0002e0 a7 8e c8 3c 2f bc 16 bd d4 2d d6 3c 9b ff 8b 3c
       0.024482084 -0.03680056 0.0261449 0.017089656
0002f0 0b b2 49 bd 33 cc 1b 3b 1e 81 e7 bc a8 17 52 bd
       -0.04924206 0.0023772835 -0.02825981 -0.05129209
000300 42 63 5a 3d 2d fb 08 bd 5c 91 49 bd 58 25 12 3d
       0.053317316 -0.033442665 -0.04921089 0.035680145
000310 c8 7f 4b bc 04 9e 4e bb 80 d9 e2 3a 34 3d bd bc
       -0.012420602 -0.003152729 0.0017307252 -0.023100473
000320 94 75 7f 3c 24 ba 26 3d 15 e7 3f bd 48 01 c8 bc
       0.015591998 0.04070486 -0.046851236 -0.024414673
000330 69 5d 73 bd 18 ad 75 3d df 05 e9 3c e2 6b 01 3c
       -0.059415255 0.05997953 0.028445182 0.007899256
000340 e2 d0 bc 3c 79 03 be 3c 27 eb 8c bc 70 ea 06 ba
       0.023048822 0.023195015 -0.017201973 -0.0005146628
000350 d2 ff ef 3c 6d ad 0f bb 35 3e 02 3c 93 10 f3 3c
       0.02929679 -0.0021923438 0.007949402 0.02967099
000360 95 12 71 bc f5 88 55 bd e2 bf d6 bc 96 ca 85 bc
       -0.014713903 -0.052132566 -0.026214544 -0.016331952
000370 08 88 00 3d 23 e7 22 3d c8 9b 46 bd c1 f4 11 bd
       0.03137973 0.03977121 -0.04848841 -0.035633806
000380 7a 17 98 bb 4e 69 86 bc 99 f6 30 bd 0f 1a ae bb
       -0.0046414705 -0.016407635 -0.043203924 -0.005313165
000390 b2 eb 88 bc 0c 15 f2 ba 9c ba 88 3c b9 5f 10 bd
       -0.01671395 -0.0018469407 0.016690545 -0.03524754
0003a0 21 3a 36 3d 9f d3 0d bd fe eb 69 bd 33 50 9e bc
       0.04448903 -0.034625646 -0.057109825 -0.019325351
0003b0 2e 4f 29 3d 3e e0 66 bc eb a5 82 bb 3c 9f 5c 3c
       0.041335277 -0.014091549 -0.003987064 0.013465699
0003c0 ee a2 62 bc 3d 8b 1d bd 2f 80 28 3d e2 dd 88 bb
       -0.013832791 -0.038462866 0.04113787 -0.004176841
0003d0 2f b5 44 3d d6 ad 7c bd 6c 74 5a bd c1 7e 3a bd
       0.048024353 -0.06168922 -0.053333685 -0.04553104
0003e0 33 3c 15 3d 62 a3 b0 3b d0 8e 51 bd 84 bd 13 bc
       0.036434364 0.0053905705 -0.051161587 -0.009017352
0003f0 62 fa 26 3c 02 f8 50 bc 14 14 25 3d 97 17 82 bb
       0.010191532 -0.012754442 0.04030235 -0.0039700973

conv2.0.bias f4 [64]
000000 cd 03 f8 bc af 0e 74 3c 17 d4 47 bd 9f de 1a bd
       -0.03027525 0.014896079 -0.04878625 -0.037809964
000010 eb 28 61 3c 7a 43 e6 3c 94 ba 6a 3c 39 94 e6 bc
       0.013742666 0.028108347 0.01432671 -0.02814685
000020 cf ea 16 bd d3 fb 3c 3c 8d 4d 27 3d 57 ef cf 3c
       -0.036845025 0.011534649 0.040845443 0.02538268
000030 dd f7 52 3d 01 44 ac 3c c5 b1 55 3d 0b 9a 31 bc
       0.051505912 0.02102852 0.052171487 -0.010839949
000040 f0 46 d1 3c 07 db 1a bd 57 e3 bf bc a0 fa 6b 3d
       0.025546521 -0.037806537 -0.023423834 0.05761206
000050 7a 2e 1c 3c 76 da d9 3c 25 57 59 bd 72 77 d9 3c
       0.009532565 0.026593428 -0.053061623 0.026546214
000060 59 b2 27 bc 3f 74 82 bc 42 d4 fb 3c 88 6b d3 bc
       -0.0102353925 -0.015924571 0.03074086 -0.02580811
000070 d1 b8 5d bc 91 b3 2b bd 74 63 08 bd d9 60 d8 3c
       -0.013532833 -0.041919295 -0.03329797 0.026413368
000080 31 6f 2e bc a5 1e 10 3d c6 f1 e9 b9 93 3f 36 bc
       -0.010646627 0.035185475 -0.00044621358 -0.011123556
000090 77 73 48 bc 95 86 29 3d 8d c3 fe 3c 2c 2d a6 3c
       -0.01223456 0.041388113 0.031099105 0.020285212
0000a0 e0 77 94 bc 44 03 03 bd 9c 61 63 3d f9 81 3f bd
       -0.018123567 -0.031985536 0.05551301 -0.04675481
0000b0 6c 01 d3 3b 43 f3 64 bd 17 f5 57 3d 51 40 18 3c
       0.0064393785 -0.055896055 0.05272397 0.009292678
0000c0 bf 13 95 3c 65 e5 1e 3c 0f 74 5f bd 80 67 2d 3d
       0.018197892 0.009698247 -0.05455404 0.042335033
0000d0 22 24 ea 3c 8e 65 e6 3c b1 ec 16 bd 21 e5 09 3d
       0.028581683 0.028124597 -0.03684682 0.03366578
0000e0 47 4b 2d 3d bd fa 60 3c e4 21 61 bc 13 bd 40 3d
       0.04230812 0.013731656 -0.01374099 0.047055315
0000f0 af f0 a9 bc 4f db 5c bd 6b 5f 53 3d 7a f2 31 3c
       -0.02074465 -0.053920086 0.05160467 0.010861034

conv2.1.weight f4 [64]
000000 7d 2c 80 3f e4 f0 7f 3f 82 b7 7e 3f 61 84 80 3f
       1.0013577 0.99976945 0.9949876 1.0040399
000010 49 0e 7f 3f 93 0d 7f 3f 6a a8 80 3f 28 2b 80 3f
       0.9963117 0.9963009 1.0051396 1.001317
000020 ee 19 80 3f 7b 70 7d 3f 30 8f 7a 3f 0b 35 80 3f
       1.0007913 0.98999757 0.97874737 1.0016187
000030 f2 cb 80 3f 1f a4 7a 3f e2 56 81 3f 6e 49 80 3f
       1.0062239 0.9790668 1.010464 1.0022409
000040 07 b7 7b 3f ea 3b 81 3f cb ea 7b 3f a3 d3 80 3f
       0.9832615 1.0096409 0.9840514 1.0064586
000050 92 0b 82 3f 6f b6 7f 3f f2 1c 80 3f 17 58 81 3f
       1.0159781 0.99887747 1.0008833 1.0105008
000060 d0 04 82 3f 31 b9 80 3f f8 eb 82 3f e8 0f 7c 3f
       1.0157719 1.0056516 1.0228262 0.9846177
000070 cf 72 7b 3f f4 02 7c 3f 0b 6f 7c 3f ff c0 81 3f
       0.9822206 0.98442006 0.9860694 1.0137023
000080 2c dd 83 3f c6 99 7b 3f db 3e 81 3f 43 49 80 3f
       1.0301871 0.98281515 1.0097307 1.0022358
000090 62 db 80 3f 3b 2e 80 3f dd 93 81 3f 1f 0f 7f 3f
       1.006695 1.0014108 1.0123249 0.9963245
0000a0 01 70 80 3f 29 f9 7a 3f 2b e5 80 3f ca 89 80 3f
       1.0034181 0.9803644 1.0069937 1.004205
0000b0 c9 6a 80 3f f6 aa 7f 3f 2f 4a 7e 3f 62 9c 80 3f
       1.0032588 0.9987024 0.99331945 1.0047724
0000c0 10 22 7e 3f c4 a8 80 3f 2e e9 7e 3f a7 49 80 3f
       0.99270725 1.0051503 0.99574554 1.0022477
0000d0 6c d2 7e 3f a0 77 80 3f 15 05 81 3f 58 72 80 3f
       0.9953983 1.0036507 1.0079676 1.0034895
0000e0 88 10 81 3f 47 c6 7f 3f 8c 0a 80 3f 68 07 7c 3f
       1.008317 0.9991192 1.0003219 0.984488
0000f0 f4 7f 7e 3f 50 16 7d 3f 86 30 7e 3f 2e c8 80 3f
       0.9941399 0.9886217 0.9929279 1.006109

conv2.1.bias f4 [64]
000000 ef 03 18 3c 27 5d 2b 3c 7c 8f 4f bc e8 bf b1 3c
       0.009278282 0.010459221 -0.012668487 0.021697953
000010 c8 66 16 3c 9c a5 12 3c 0b 9d 67 3c c9 3b b9 3b
       0.009179778 0.008950617 0.014136563 0.005652879
000020 e4 c0 3d 3c 97 cd 52 bc 25 64 8b 3c a3 fb 0a 3c
       0.011581633 -0.012866399 0.017015526 0.008482846
000030 91 d2 ad 3c 29 c6 c1 3b 9b ab bd 3c 8d d8 ea 3b
       0.02121857 0.005913515 0.023153117 0.007166928
000040 1c 70 f8 3b bb b3 97 3c 8f 10 90 3a ca 55 77 3b
       0.007581724 0.01851832 0.0010991263 0.0037740343
000050 41 a4 a2 bb 50 54 90 bb 31 7c 3d 3c 43 a0 f8 3b
       -0.0049634282 -0.004404582 0.011565254 0.007587464
000060 af 59 05 3d 50 22 03 3c e0 92 ed 3c cb 0a 25 3c
       0.032556232 0.008003786 0.0290007 0.010073374
000070 6b 81 27 3c 4a fe 73 ba c0 5e 08 bc 57 15 1f 3d
       0.010223727 -0.00093076064 -0.008323371 0.03883871
000080 ba de 93 3d 28 93 7b b8 68 63 7a 3c f0 2e ac 3a
       0.07220216 -5.9980113e-05 0.015282489 0.0013136547
000090 80 29 ef 3c 21 7c f5 3b 30 d6 71 3c 04 13 0f 3b
       0.029194593 0.007491604 0.014760539 0.0021831403
0000a0 54 f9 3a 3c 50 c5 80 3c cc 06 26 3c 22 47 f4 3b
       0.0114119835 0.015719086 0.010133456 0.0074547688
0000b0 d4 d1 48 3c 24 60 34 3b 50 58 20 3c ac 69 13 3c
       0.012257058 0.0027523125 0.00978668 0.008997362
0000c0 7c 9d a2 3a a4 77 a6 3b 68 a5 2c 3c 34 2c 57 3b
       0.0012406553 0.0050801802 0.010537483 0.0032832744
0000d0 7f 20 3e 3c a7 4e 2e 3b 7e 81 89 3c a8 60 82 bb
       0.011604427 0.0026597173 0.01678538 -0.0039788075
0000e0 42 bc 0f 3c 60 bc 82 bb b6 be 5d 3c db 32 fa 3a
       0.0087729115 -0.003989741 0.013534239 0.0019088642
0000f0 c4 a2 9b 3b 4d 61 49 3c 9c 79 08 3d 6b 64 8e 3c
       0.004749628 0.012291265 0.0333191 0.017381867

conv2.1.running_mean f4 [64]
000000 00 b8 ce bd da 67 a4 bd 1c 40 46 be cb 54 48 be
       -0.10093689 -0.080276206 -0.19360393 -0.19563596
000010 88 73 88 be bd 53 8b 3d 2e 53 8c bd 89 0b c2 bd
       -0.26650643 0.06803081 -0.06851803 -0.094748564
000020 7e 08 e8 bd d5 89 5a 3e dd df 2a 3e 7e 2e 15 be
       -0.11329745 0.21341641 0.1668696 -0.14568517
000030 e5 8f 8a bd 30 b4 8d 3e e8 e6 d9 bd 37 40 2c be
       -0.06765727 0.27676535 -0.10639745 -0.16821371
000040 0c 79 ee 3d 99 e4 35 be 69 33 0a 3d 6b e3 2f bd
       0.116441816 -0.17762984 0.033740435 -0.042941492
000050 ba 56 10 be bd df 20 be 3c f0 3e be e2 de 75 b9
       -0.14095584 -0.1571035 -0.1864633 -0.00023448051
000060 aa 36 f9 bd ad 99 34 be 66 5d 57 bd 76 b1 4c 3e
       -0.121686295 -0.17636748 -0.052579306 0.19989571
000070 ed 8a b9 3d 90 d6 19 3e 55 2e 74 3e 77 3c 0b 3e
       0.09059701 0.15023255 0.238458 0.13597284
000080 41 75 fa bc 79 95 5b 3e 9c f7 17 be b6 77 2f be
       -0.03057349 0.21443738 -0.14840549 -0.1713551
000090 6d 35 8f bd eb ac a2 bd b1 1b b9 3c 24 73 51 bc
       -0.06992612 -0.07943138 0.022596212 -0.012783799
0000a0 f7 24 31 be 55 d5 dc 3d d6 07 49 be a1 d5 b4 bd
       -0.17299257 0.10782877 -0.19631895 -0.08829809
0000b0 3f 3d a6 bd b8 f2 35 be 13 9c e1 3d c8 44 4d be
       -0.081171505 -0.17768371 0.11016097 -0.20045769
0000c0 6b 65 82 3b 0e 9e 4b be 54 23 16 bd 0a 1f ae bd
       0.003979375 -0.19884512 -0.036654785 -0.08502014
0000d0 69 3c 91 3d f7 ba f6 bd c3 1a 94 bc 50 3e 00 be
       0.070916004 -0.120473795 -0.018079167 -0.1252377
0000e0 e8 bd 99 bd 65 06 1f be 24 59 95 bd fc dc e2 3d
       -0.07506925 -0.15529783 -0.07292393 0.11077306
0000f0 38 84 70 be 5c a9 55 bd 2f 60 14 bc 40 05 d3 bd
       -0.23487937 -0.052163467 -0.009056135 -0.10303736

conv2.1.running_var f4 [64]
000000 b0 38 ff 3d b7 74 b7 3d 03 c0 30 3e 3b 55 0f 3e
       0.12461984 0.089578085 0.17260747 0.13997357
000010 8f fb b9 3e 07 7c b7 3d 37 d6 b4 3d f6 76 aa 3d
       0.36324736 0.08959203 0.08829921 0.08323471
000020 d6 6c d3 3d 85 72 6c 3e 96 de 2e 3e 06 41 0a 3e
       0.10323493 0.2309056 0.17077097 0.13501367
000030 ff 34 ec 3d b6 fd 9a 3e 46 b6 35 3e 10 c2 1d 3e
       0.11533546 0.3027169 0.17745313 0.1540606
000040 89 32 01 3e c1 67 b4 3d 5a 62 1a 3d 18 31 cf 3d
       0.12616934 0.08808852 0.03769145 0.10116786
000050 78 77 d4 3d c8 c1 6c 3e 78 3e 0d 3e 05 17 32 3d
       0.10374349 0.23120797 0.13793361 0.043478984
000060 4c 4e 0a 3e 1f d9 05 3e 5a ef be 3d 50 89 91 3e
       0.1350643 0.13071106 0.093229964 0.28425074
000070 fb 64 20 3e 60 cf 59 3e a1 9a a5 3e 20 b5 b9 3d
       0.15663521 0.21270514 0.32344535 0.0906775
000080 f7 17 27 3e 76 df 16 3e 42 b7 f4 3d d8 36 cb 3d
       0.16317736 0.14733681 0.11949016 0.0992257
000090 72 d7 8b 3d 23 c9 00 3e 3b ad c5 3d 5a 9f 4a 3e
       0.06828202 0.12576728 0.09652182 0.1978735
0000a0 20 42 61 3e f5 4b 1e 3e 50 09 82 3e 97 1f b4 3d
       0.21997881 0.15458663 0.2539773 0.08795088
0000b0 79 f8 5e 3d dd b8 7d 3e 90 4f ff 3d 1b 2e 3e 3e
       0.05443618 0.24777551 0.12466347 0.18572275
0000c0 d8 8f d0 3d d3 b7 74 3e 34 44 93 3d 11 33 2c 3e
       0.10183686 0.23898248 0.07190743 0.16816355
0000d0 87 84 f2 3d 43 a0 0b 3e ba d5 56 3e 76 a0 bd 3d
       0.11841684 0.13635354 0.20979968 0.09259121
0000e0 cf 0d cf 3d ea 1c 40 3e 2c fc 05 3e 64 84 a4 3d
       0.10110056 0.1876103 0.13084477 0.08033064
0000f0 63 76 7a 3e 5c 99 0b 3d 31 1f 2b 3e 07 bd 14 3e
       0.24459223 0.0340818 0.16711117 0.14525233

conv3.0.weight f4 [128, 64, 3]
000000 c1 67 cc 3c 0b ca 3d 3d 89 12 91 3d 46 99 f6 bb
       0.024951817 0.04633526 0.070836134 -0.007525596
000010 33 ec 11 3d aa c8 68 3a e9 45 ad bc 6f 83 2b 3d
       0.035625648 0.0008879999 -0.0211515 0.04187339
000020 fd 98 82 bd 55 0a c6 bb e6 ef 89 bd 24 ea 8c 3d
       -0.063768364 -0.006043712 -0.0673521 0.06880596
000030 80 00 a6 3c 23 bb ca 3c 16 6d 68 bd 04 ff 0b 3c
       0.02026391 0.024747437 -0.056744657 0.008544687
000040 d8 25 82 3b 37 33 c4 bc 34 d9 f9 bc 1b 2e 37 bd
       0.0039717965 -0.023950202 -0.030499078 -0.044721704
000050 b8 70 97 3b 2d 3e f1 3a 36 a6 83 3c 1e 18 55 3d
       0.0046215914 0.0018405371 0.016070466 0.052024953
000060 da 22 e5 bc 70 c0 fa 3c bf 9f 02 bd 04 8f 84 3d
       -0.02797072 0.03060934 -0.031890627 0.064725906
000070 ac 9b 6b bd 05 d1 72 bd 32 07 23 bd c8 13 c5 3c
       -0.057521507 -0.059281368 -0.039801784 0.024057284
000080 d1 64 ee 3a d8 6b ca bc 0b 37 97 3c 65 76 47 3c
       0.0018188005 -0.024709627 0.018458864 0.012174224
000090 1b c6 f1 ba d8 0d 7e 3d 36 05 77 ba 17 5f 98 bc
       -0.0018445881 0.06202492 -0.0009423079 -0.01860003
0000a0 3a eb 59 3d e5 e7 49 bd ae bb 8e bd 5a 6d 59 3d
       0.053202845 -0.049293417 -0.06969391 0.0530828
0000b0 c4 a4 6b 3d 83 1c 7e 3d ed f2 39 bd bd 59 0d bd
       0.05753018 0.06203891 -0.045397688 -0.03450941
0000c0 c3 da 82 bd 9a 40 5e 3d 4b 5d 21 bd e0 88 6b bd
       -0.06389382 0.054260828 -0.03939561 -0.05750358
0000d0 94 a0 09 3c 53 22 6d bd 8b c2 81 bd 1d 6a 52 3c
       0.008400101 -0.057894062 -0.06335934 0.012842682
0000e0 10 1e 5a bd d7 68 f9 3c 38 a3 b4 3c ca 5f 3b 3d
       -0.053251326 0.0304455 0.022050485 0.04574565
0000f0 a5 f7 33 3c 1e c8 3b bc e9 e4 19 bc 88 e5 c0 bc
       0.010984336 -0.011461286 -0.009392955 -0.023546949
000100 0c 92 8b 3d 29 da f3 bb e3 36 81 3b 25 ba 28 bd
       0.068149656 -0.007441778 0.0039433106 -0.041193146
000110 7c dd 91 3d 3d 70 d2 bc be 21 3f bd 42 5e 34 3d
       0.07122323 -0.025688285 -0.04666304 0.044035204
000120 5d 53 ac bc 7a 95 17 3d 01 11 46 3d bf 2e 53 3d
       -0.021035844 0.037007786 0.04835606 0.051558252
000130 d0 0c 6b bd d8 5b e6 b9 60 b3 0a 3d f3 c4 cf bc
       -0.057385266 -0.00043937447 0.03386247 -0.025362467
000140 32 50 42 3d 51 e2 01 3d c0 c1 df 3b bc 22 79 bc
       0.04743976 0.031709973 0.0068285167 -0.015206035
000150 1c 05 81 bd af 46 65 3d 66 13 83 3d e9 85 b5 3b
       -0.06299803 0.055975612 0.06400184 0.005539645
000160 f7 db 34 bd 6b 85 a7 3c 16 58 ba 3b ff b2 49 bd
       -0.044155087 0.02044936 0.00568677 -0.04924297
000170 13 04 23 3d cf 6b bb 3c e5 9c 6e bd a3 b0 13 bd
       0.039798807 0.022878556 -0.058255095 -0.036057126
000180 d8 08 2d 3c 90 96 3d bd d2 b7 71 3d b2 16 05 3d
       0.010561191 -0.046286166 0.059013195 0.032492347
000190 a2 6b 79 3c fa 06 3f bd ba 54 61 3d 06 5e 6b bd
       0.015223416 -0.046637513 0.055012442 -0.057462715
0001a0 fb b8 12 bd 76 dc 6d bd 10 fd d5 3c 38 5a a4 bc
       -0.035820942 -0.058071576 0.026121646 -0.02006255
0001b0 e7 40 de bc d0 45 5f bd 83 60 bb 3c 65 14 82 3d
       -0.027130557 -0.054509938 0.022873169 0.06351546
0001c0 b8 51 0b bd 70 ce 88 3d 06 77 5f bc 4b 7f 6c 3b
       -0.03401348 0.0668 -0.013639217 0.0036086615
0001d0 be 03 5a bd 42 f4 fc 3a 2d cd 8e bc 47 0e 10 3d
       -0.053226225 0.0019298869 -0.01743182 0.035169866
0001e0 79 bd 2e 3c 24 89 73 3d 37 fd 8a 3d 7f 25 e6 bc
       0.010665291 0.05945696 0.06786578 -0.028094051
0001f0 0c 72 72 bd 47 14 8e 3d 34 5e 31 3d 7e 08 56 3d
       -0.059190795 0.06937461 0.04330273 0.052254193
000200 54 11 91 3d fe 45 7e bd cd d5 ff bc 83 c4 22 3d
       0.07083383 -0.06207847 -0.031229878 0.03973819
000210 14 99 6a 3d 19 fd e7 bc f2 fd b6 bc f4 bd 5b 3d
       0.057274893 -0.028318929 -0.022337887 0.05364795
000220 43 c2 81 bd fa 37 ca bc 30 72 d6 bc 5f ed 74 3d
       -0.063358806 -0.024684895 -0.026177496 0.059796687
000230 71 43 13 3d bb 40 27 3d 08 c8 d8 bb 3a 83 a7 36
       0.03595299 0.040833216 -0.0066156425 4.9922646e-06
000240 80 9d 52 bd 7c 3a b5 bc 6c 61 25 bd dc d3 8f bd
       -0.051419735 -0.022122614 -0.040376112 -0.07022831
000250 28 80 d2 bc 67 3c 4f 3c 87 39 d4 3c 53 6d aa 3c
       -0.025695875 0.012648678 0.025906337 0.020804083
000260 76 8c 91 bd 57 60 6b 3d 95 5b a3 bc b7 1d dc bc
       -0.07106869 0.057464924 -0.01994113 -0.026869638
000270 33 ad 37 bd 48 e1 68 bd 60 5f 8f 3b d4 bd 2f bd
       -0.04484291 -0.05685547 0.0043753833 -0.042905644
000280 fe 31 80 bb 5f f7 91 3d 2a 31 70 bd a3 f1 bb 3c
       -0.0039122095 0.071272604 -0.058640637 0.02294237
000290 96 89 a1 bb d4 eb a2 bc 0a a4 51 bd 48 c2 8f bd
       -0.0049297316 -0.019887842 -0.05118183 -0.07019478
0002a0 34 26 90 3c c9 2c 61 bc 35 83 45 bd 6d ad ae 3c
       0.017596342 -0.013743588 -0.048220832 0.02132293
0002b0 e5 b6 4c 3d 5f 2e d3 3a d4 b6 0d 3d c2 53 5b bc
       0.04997911 0.0016111842 0.034598187 -0.013386669
0002c0 c5 89 d2 bc 38 46 cd 3b 85 3e 1f bd d2 d1 71 bb
       -0.02570046 0.0062644742 -0.038877983 -0.0036898744
0002d0 c4 5d 7b 3d 2d 03 9b ba 72 b2 5e 3d 02 58 6b 3c
       0.06136872 -0.0011826508 0.054369397 0.014364244
0002e0 00 66 7a bd d0 f3 89 bd c6 45 90 bd 5a fb 91 bd
       -0.06113243 -0.06735957 -0.07044558 -0.0712802
0002f0 e0 c6 15 3d 87 f0 95 bd 7c 1f 97 bc e9 18 9d bc
       0.036566615 -0.073212676 -0.01844763 -0.019176917
000300 34 5f 86 3d 2e 50 29 3d 30 eb 13 3d 6d ca 95 3c
       0.06561127 0.04133623 0.036112964 0.018285
000310 4a 9c 9c 3c 1c fa 8c bd 1c 47 ed bc ee 03 7c 3b
       0.019117493 -0.06883642 -0.028964572 0.003845449
000320 f6 43 60 3b 45 ab 9b 3c 74 b3 51 bd 4e 92 62 3d
       0.0034220195 0.019002566 -0.05119653 0.05531531
000330 af a3 5f bd 14 d5 ef 3c 3d 5e e4 3a 5f 46 ae 3b
       -0.05459946 0.029276408 0.0017423105 0.0053184475
000340 58 b9 4a bd b1 a1 fa bc 95 b3 7f 3d 55 eb 5d 3d
       -0.049493164 -0.030594679 0.062427122 0.05417951
000350 be 30 69 3d 06 c5 d6 bc 6d 19 8c 3d ed c8 8a bb
       0.05693125 -0.026216995 0.06840787 -0.004235378
000360 c6 74 36 3d ef 09 02 3d 37 7d 82 3d 2b 0e 91 3d
       0.044544958 0.031747755 0.06371539 0.070827805
000370 dd cc a4 3d 82 0a 1f 39 ec 89 97 3c 2f fa 1f bd
       0.08046887 0.00015167336 0.018498383 -0.039056953
000380 5a 4c 41 3c 13 cc d5 3c 1c 97 27 bd 34 e3 75 bd
       0.011797989 0.026098287 -0.040915594 -0.06003113
000390 fe 22 1b bc 39 01 00 3c 97 35 48 3d 09 70 01 bd
       -0.009468792 0.0078127915 0.048879232 -0.031600986
0003a0 3e 89 87 bc ab 37 36 3d df 6d bc 3c 4a aa b5 ba
       -0.016544934 0.044486683 0.02300161 -0.0013859954
0003b0 bd ab 2e bd d9 b6 32 bd e8 58 0b bd 20 46 8f bd
       -0.04264425 -0.04363141 -0.034020334 -0.06995797
0003c0 2f db 86 3b 70 64 61 3d e0 d0 5d 3c 14 25 7a 3d
       0.004115484 0.055027425 0.013538569 0.061070517
0003d0 4f 08 61 bd 3b eb 09 bd 3e 54 21 3d aa 98 e1 3b
       -0.054939564 -0.0336716 0.03938698 0.006884654
0003e0 cd ff 3b bb eb e7 26 3b 1a 7b 65 3d 6a 48 15 bd
       -0.0028686405 0.0025467824 0.056025602 -0.036446013
0003f0 ab e5 ca bb 9d e3 af bc 29 96 5f 3d 9c e8 25 bd
       -0.0061919293 -0.02147084 0.054586563 -0.040505037

conv3.0.bias f4 [128]
000000 40 48 09 bc 3b 06 b9 3c 9c 5c e0 bc 5d ce 7a bd
       -0.008379042 0.022585979 -0.02738791 -0.06123196
000010 12 2f 47 bd c1 60 89 3d 4a b5 e3 3c 7a d8 13 bd
       -0.048628874 0.067079075 0.027796406 -0.03609512
000020 0b 5b 90 bd 32 8a a4 3c d9 5a 8d bd a9 f3 64 bd
       -0.07048615 0.020085428 -0.069020934 -0.055896435
000030 c1 1b cf 3c fd 6d 84 3c b1 fa 28 bd 6e 81 93 3c
       0.025281789 0.016165728 -0.041254703 0.018006053
000040 8f 9a 7b bd c1 71 e2 3c c3 86 2c 3d 16 c3 ac bc
       -0.061426695 0.027642133 0.042120706 -0.021089118
000050 f5 3d 3f 3d c0 f1 59 3d 92 87 41 bd 21 63 88 bc
       0.046689946 0.053209066 -0.04724843 -0.01664883
000060 17 bf 92 3d b8 f3 46 3d 2d 20 92 bd 6d 37 26 bd
       0.07165354 0.048572272 -0.07135043 -0.040580202
000070 f7 95 ab b8 18 c8 2f bd 0d 29 85 bc 76 e6 52 bb
       -8.1818485e-05 -0.042915434 -0.016254926 -0.0032180822
000080 1e d4 50 bd b3 fe ad bc c6 50 4a bd 37 17 28 3c
       -0.05098354 -0.021239614 -0.049393438 0.010259441
000090 33 33 78 3d cd 9d 05 3d 42 3b 7a bd f8 74 e5 3c
       0.060595702 0.032621194 -0.06109167 0.028009877
0000a0 11 8c 43 bd dc 1d 97 bb 19 ee 92 3d 00 c0 46 bc
       -0.047741 -0.004611714 0.0717432 -0.012130737
0000b0 08 6e 0f 3d 57 67 27 3d 50 49 49 3d 2d 2c 6d 3d
       0.035017043 0.040870037 0.049142182 0.057903457
0000c0 2e 97 1b 3c b4 cf 4b bd f4 3e 85 bd ae 80 9a 3c
       0.009496493 -0.049758628 -0.06506148 0.018860187
0000d0 fe e6 6e bc 5c bb bd 3c 6c ea d8 bb f8 6a c8 3c
       -0.01458144 0.023160629 -0.006619742 0.02446507
0000e0 54 cc 92 3d af 04 72 3c 49 e1 db 3c 24 fa 04 b9
       0.07167879 0.0147716245 0.026840823 -0.00012681686
0000f0 ce d8 59 bd 8b 94 87 3d 5d c5 1a bd cd 59 6c bc
       -0.053185277 0.06620129 -0.037785877 -0.014425707
000100 48 e0 96 3c 38 ea b5 b9 e4 c0 40 bd 4b 63 52 bd
       0.018417493 -0.00034697517 -0.047058955 -0.051364224
000110 4b 6d 4f 3c 4a cc e2 bc 8d 32 aa 3c be 6a 75 3d
       0.012660335 -0.027685303 0.020776058 0.05991625
000120 1f 0f 7f bd c5 3d 00 3d 19 75 37 bd 8e c3 93 3d
       -0.06227028 0.031308908 -0.044789407 0.072150335
000130 a4 2a 82 3b c9 5d 32 3d a1 65 8e bd 6e fc e4 3c
       0.0039723683 0.04354647 -0.06952978 0.0279524
000140 75 c1 08 3d d7 c9 19 bd 69 45 81 bc f8 26 47 bd
       0.03338762 -0.037546005 -0.015780168 -0.048621148
000150 22 ae 25 bd 91 e9 72 bc 75 73 1d 3c d5 27 38 bd
       -0.04044927 -0.014826194 0.009610047 -0.04495986
000160 4f 77 f9 3c d6 1c 1e bc 60 23 b9 3b bb d8 a2 bc
       0.030452399 -0.00965043 0.005649969 -0.019878736
000170 49 19 d4 3c 85 88 dc 3b df 43 54 bd 59 0c 2d 3d
       0.025890963 0.0067301416 -0.05182254 0.042248104
000180 c2 65 00 3d 20 f1 92 3d a8 08 1f 3d 75 37 92 bd
       0.031347044 0.07174897 0.038826615 -0.07139484
000190 e3 81 b5 bc 3c aa d1 bc 8f a5 ea 3c 1f 87 9d 3c
       -0.022156661 -0.02559387 0.028643398 0.01922947
0001a0 fc b5 c4 3b bd ae e5 3c c7 5e 4c bd 05 e3 1d 3b
       0.0060031395 0.028037423 -0.049895074 0.0024091613
0001b0 0f f5 65 3d 7b eb c1 bc 4c 45 ee 39 f7 41 19 bd
       0.05614191 -0.023671856 0.00045446528 -0.037416425
0001c0 25 dc 68 3d f1 29 73 3c 3c e9 35 3d 93 ac 9a bc
       0.05685057 0.014841543 0.044411883 -0.018881118
0001d0 7c 54 8d bc 9e 07 1c 3d 19 f7 a8 3c 98 6b 15 3d
       -0.0172522 0.0380932 0.020625638 0.036479563
0001e0 0b 8d bb 3c 2d a5 80 3d 9f 8b 24 bc 62 a6 8f bd
       0.022894403 0.06281505 -0.010043054 -0.07014157
0001f0 a4 64 3f ba 26 7c b1 3c 6a 14 8b bd cf 6f 8b 3d
       -0.00073010684 0.021665644 -0.06791003 0.06808435
