Code/model/model_atk_10.41.pt (torch, 962136 bytes, 50 tensors)

conv1.0.weight f4 [100, 1, 3]
0.10875819 -0.39701992 0.43060175 0.30289236 -0.47281668 -0.21171379 -0.38517502 0.30006027
0.24498755 0.4948546 -0.28169382 -0.3938164 0.27154148 0.36914814 0.033271078 -0.3775072
-0.5603935 0.5360679 0.46564358 0.2272197 0.11362118 0.26735327 0.10004148 -0.22999755
-0.02184118 0.20032053 -0.38222304 -0.10043249 0.54640806 -0.5016354 0.30546987 -0.46688128
0.045068707 0.41684577 0.047971003 -0.065115385 -0.53214836 -0.5626987 0.21208069 -0.099583045
0.516596 0.042831678 -0.5615527 0.5509668 0.11268031 0.38315108 0.35025343 -0.17976178
0.09669374 -0.047932338 -0.026099546 0.2929068 0.4932215 -0.24149427 0.44146755 -0.24150625
-0.3048989 -0.5654737 0.1755604 0.52321553 -0.16536784 0.066917025 -0.26792896 0.20655467
-0.3677868 -0.2135966 0.06755273 0.42140505 -0.35133713 -0.20617972 -0.10562403 -0.38448986
0.4682555 0.0056378534 -0.11469965 -0.58406675 0.47179604 0.12374737 0.23207755 0.29811674
-0.027430626 0.29247653 0.30144435 -0.47405118 -0.015261822 0.57358587 -0.0750926 0.43228507
0.5031066 0.20816015 0.31686002 -0.16934127 0.46814388 -0.25105822 0.099289626 -0.32683733
-0.21017325 -0.5709683 0.4817592 -0.5607392 -0.46131128 -0.37091184 -0.11932686 0.5795579
-0.50362635 -0.5048141 -0.39390835 0.45594576 0.5492558 0.22166471 0.3519365 -0.3341292
0.4413169 0.09380068 -0.56044954 -0.5131518 -0.24606575 0.34965086 -0.40702233 0.07266783
0.19751829 -0.05935634 0.043173704 -0.09965546 -0.17289543 0.19002406 -0.27649993 0.007276205
-0.46116433 -0.5665142 0.4138414 -0.20917277 -0.5330051 -0.48643905 0.30277297 -0.41599268
-0.5533728 0.1986413 0.30274773 0.2297011 -0.34182054 -0.05850761 0.43503967 -0.4498335
-0.28309235 -0.52943027 0.07354378 0.4782886 -0.5181546 -0.43985596 -0.39396605 0.10833876
0.21521178 0.41390076 -0.17095293 0.39866483 0.07997218 -0.51783425 -0.24587165 0.2800994
0.39387497 0.49207133 0.03199201 0.4795283 0.25331116 0.18735445 -0.52600724 0.34723756
-0.55422014 0.15420246 0.41098958 -0.2587255 0.46071783 -0.38053024 0.2148313 -0.17558658
-0.28798062 0.014373595 -0.47085628 0.024299059 -0.12615825 0.29122242 -0.13773334 -0.48641306
-0.34097448 0.27243975 -0.09398996 -0.3569912 0.037843015 0.00040155338 -0.17035154 0.37137827
0.23350091 0.0807561 -0.57019305 0.262345 -0.39801502 0.14542037 0.039558135 -0.016653406
-0.4375459 -0.424564 -0.30563566 0.11577315 -0.4184373 -0.52241325 -0.09154408 -0.4477419
0.28114063 -0.18704394 0.18164444 0.44071555 0.30526534 0.33653468 -0.55260724 0.23179096
-0.54032224 0.14224146 0.3622745 0.35688838 -0.0252 -0.3362883 0.49404913 -0.29066855
0.20787653 -0.12322363 0.14507176 0.36905888 -0.27134562 0.40573806 -0.030069465 -0.19803117
-0.18589374 0.5382655 0.22544762 0.43323445 -0.1002113 0.18632579 0.5690235 0.4035682
-0.14345455 -0.43849546 0.19400309 -0.304805 0.082396336 -0.00020277184 0.034776088 0.23167683
0.24731365 -0.15020426 0.48582944 -0.21722713 -0.32940477 0.25747305 0.25322568 -0.5911443
00000000: 9dbc de3d 3246 cbbe d577 dc3e b514 9b3e
00000010: 0715 f2be 80cb 58be a935 c5be 80a1 993e
00000020: 04de 7a3e 955d fd3e 2c3a 90be 4ea2 c9be
00000030: 7c07 8b3e fc00 bd3e 4147 083d a048 c1be
00000040: f375 0fbf bf3b 093f d668 ee3e 48ac 683e
00000050: 39b2 e83d 87e2 883e 8ce2 cc3d 7a84 6bbe
00000060: 46ec b2bc d320 4d3e bdb2 c3be 8daf cdbd
00000070: 66e1 0b3f 2d6b 00bf 8c66 9c3e 100b efbe
00000080: f799 383d cf6c d53e 3e7d 443d 375b 85bd
00000090: e03a 08bf 060d 10bf ae2b 593e 32f2 cbbd
000000a0: a33f 043f 4570 2f3d ebc1 0fbf 290c 0d3f
000000b0: efc4 e63d 612c c43e 6b54 b33e 7913 38be
000000c0: 5e07 c63d b354 44bd b7ce d5bc e1f7 953e
000000d0: 8787 fc3e 464a 77be 0908 e23e 6a4d 77be
000000e0: b51b 9cbe e2c2 10bf 1bc6 333e 74f1 053f
000000f0: 3056 29be cb0b 893d fc2d 89be 1183 533e
00000100: 8d4e bcbe 11b9 5abe 1659 8a3d 67c2 d73e
00000110: 76e2 b3be c720 53be 6951 d8bd dbdb c4be
00000120: 2fbf ef3e bebd b83b a6e7 eabd 6685 15bf
00000130: 408f f13e 436f fd3d bda5 6d3e c2a2 983e
00000140: 31b6 e0bc 7cbf 953e ea56 9a3e d6b6 f2be
00000150: b90c 7abc 86d6 123f 26ca 99bd 7854 dd3e
00000160: 98cb 003f ef27 553e 7a3b a23e cc67 2dbe
00000170: 8eb0 ef3e b48a 80be 5c58 cb3d 3957 a7be
00000180: a837 57be fa2a 12bf 24a9 f63e 9b8c 0fbf
00000190: fe30 ecbe 28e8 bdbe a461 f4bd e85d 143f
000001a0: a8ed 00bf 7f3b 01bf 5bae c9be b971 e93e
000001b0: 079c 0c3f 13fc 623e 0531 b43e fc12 abbe
000001c0: 4af4 e13e 921a c03d 9f79 0fbf eb5d 03bf
000001d0: a9f8 7bbe 7005 b33e 3b65 d0be dfd2 943d
000001e0: 3c42 4a3e a21f 73bd e9d6 303d 2918 ccbd
000001f0: 800b 31be ab95 423e 6691 8dbe 3b6d ee3b
00000200: bb1d ecbe 1307 11bf 05e3 d33e 6331 56be
00000210: 0673 08bf 8a0e f9be 0f05 9b3e fefc d4be
00000220: d7a9 0dbf a068 4b3e c001 9b3e c436 6b3e
00000230: 1a03 afbe ada5 6fbd 85bd de3e 9450 e6be
00000240: 7bf1 90be be88 07bf 1f9e 963d 3ee2 f43e
00000250: c8a5 04bf cd34 e1be ebb5 c9be b6e0 dd3d
00000260: 7a60 5c3e cdea d33e 490e 2fbe cc1d cc3e
00000270: 74c8 a33d c990 04bf c7c5 7bbe 3069 8f3e
00000280: fba9 c93e c6f0 fb3e 0e0a 033d bc84 f53e
00000290: 00b2 813e d8d9 3f3e 69a8 06bf 1fc9 b13e
000002a0: 5fe1 0dbf 40e7 1d3e 3a6d d23e ab77 84be
000002b0: 35e3 eb3e dcd4 c2be bcfc 5b3e f8cc 33be
000002c0: 3272 93be 3a7f 6b3c 1314 f1be d20e c73c
000002d0: a12f 01be 1b1b 953e f809 0dbe 220b f9be
000002e0: 3594 aebe 397d 8b3e cf7d c0bd 8dc7 b6be
000002f0: 4701 1b3d 9587 d239 a270 2ebe 4b25 be3e
00000300: dd1a 6f3e 7463 a53d 2cf8 11bf 1552 863e
00000310: a0c8 cbbe 14e9 143e b607 223d b96c 88bc
00000320: 0406 e0be 7460 d9be 477c 9cbe 791a ed3d
00000330: 6a3d d6be e0bc 05bf 767b bbbd 6d3e e5be
00000340: aaf1 8f3e 7288 3fbe 0001 3a3e 78a5 e13e
00000350: bd4b 9c3e 464e ac3e ab77 0dbf 9c5a 6d3e
00000360: 8f52 0abf bfa7 113e 0b7c b93e 13ba b63e
00000370: 3b70 cebc fb2d acbe 02f4 fc3e 82d2 94be
00000380: 96dd 543e ac5c fcbd b18d 143e 49f5 bc3e
00000390: d0ed 8abe e6bc cf3e 3d54 f6bc afc8 4abe
000003a0: ee5a 3ebe c5cb 093f bedb 663e e8d0 dd3e
000003b0: 953b cdbd 30cc 3e3e 86ab 113f 7ea0 ce3e
000003c0: c0e5 12be 7a82 e0be bfa8 463e 670f 9cbe
000003d0: 69bf a83d 279f 54b9 5f71 0e3d b13c 6d3e
000003e0: ca3f 7d3e 25cf 19be a3be f83e ca70 5ebe
000003f0: bea7 a8be 82d3 833e cca6 813e 3c55 17bf

conv1.0.bias f4 [100]
0.36439434 -0.42679363 0.5351245 -0.1792845 -0.47080913 -0.008186655 -0.17838074 0.39336652
-0.50553066 0.340407 0.50850505 0.3850725 -0.26529905 -0.45948797 -0.13113438 -0.4964668
0.11032483 0.26818565 -0.043669358 -0.2988803 0.002391645 -0.006118422 0.4603867 -0.40582857
0.13013236 0.09566156 0.21656671 -0.3035252 0.43213618 -0.32982558 0.22540985 -0.3607314
0.3414545 -0.40222564 -0.30026224 0.32507604 0.54322684 -0.0024833686 -0.30882654 -0.4307284
-0.22515363 0.3928517 -0.35957825 -0.2632787 -0.41941813 0.17566979 -0.46922052 -0.4366693
-0.14361925 -0.05652348 -0.27923957 0.56014043 -0.5606911 0.4905788 -0.23639567 -0.5054469
-0.14752388 0.31406885 0.2292608 0.33074003 0.09422947 -0.1816446 0.27333778 0.24654588
0.17410596 -0.49162388 0.12094422 -0.23243645 -0.3955175 -0.5446641 0.5551448 -0.21958274
0.5367418 -0.44632024 -0.20495063 -0.2992889 0.41964754 -0.35827577 -0.35198897 -0.35596165
-0.5700821 0.06885406 0.24896398 0.19006874 0.36097005 -0.12125791 0.13917956 -0.067096025
-0.070166655 -0.56969273 -0.28218958 0.56067914 0.48030344 0.11502126 0.031512797 0.50924647
-0.19906643 -0.19251633 -0.0557327 -0.20013805
00000000: e591 ba3e b284 dabe ebfd 083f 5b96 37be
00000010: e50d f1be 5221 06bc 71a9 36be 5667 c93e
00000020: 756a 01bf d449 ae3e 632d 023f 3928 c53e
00000030: 47d5 87be 0242 ebbe 1748 06be e530 febe
00000040: fcf1 e13d a14f 893e a4de 32bd d706 99be
00000050: 25bd 1c3b 0b7d c8bb ceb7 eb3e c3c8 cfbe
00000060: 6b41 053e 35ea c33d aac3 5d3e a867 9bbe
00000070: f440 dd3e e6de a8be d7d1 663e c9b1 b8be
00000080: 20d3 ae3e 85f0 cdbe f9bb 99be 5e70 a63e
00000090: ea10 0b3f 03c0 22bb 831e 9ebe 6f88 dcbe
000000a0: ac8e 66be dc23 c93e a41a b8be 77cc 86be
000000b0: f9bd d6be c8e2 333e ac3d f0be 1e93 dfbe
000000c0: ed10 13be 2a85 67bd 7df8 8ebe 5d65 0f3f
000000d0: 7489 0fbf 252d fb3e b511 72be f864 01bf
000000e0: 8010 17be a2cd a03e 58c3 6a3e c256 a93e
000000f0: 61fb c03d 0b01 3abe eef2 8b3e 8676 7c3e
00000100: d548 323e 20b6 fbbe 9ab1 f73d d203 6ebe
00000110: 4581 cabe 1b6f 0bbf f81d 0e3f 4cda 60be
00000120: e967 093f 1684 e4be 94de 51be 653c 99be
00000130: 0bdc d63e ec6f b7be e637 b4be 9b40 b6be
00000140: e7f0 11bf 5b03 8d3d 6af0 7e3e 61a1 423e
00000150: 11d1 b83e 1156 f8bd 1685 0e3e a469 89bd
00000160: 89b3 8fbd 62d7 11bf 277b 90be ab88 0f3f
00000170: 55ea f53e 4490 eb3d 9013 013d fa5d 023f
00000180: 12d8 4bbe 0023 45be f947 64bd fdf0 4cbe

conv1.1.weight f4 [100]
1.0053393 0.99759334 1.0058732 1.0014762 0.9981846 0.9991123 0.9913038 1.0044175
1.0003269 1.0082028 0.99682564 1.0024468 0.98552454 0.993498 1.0098109 0.9975635
1.0007545 0.99831355 1.0076903 1.0198758 0.9979272 0.9925776 1.0097069 0.9901754
0.9973451 1.0092788 0.99882054 1.0118937 0.9995809 0.9924712 0.9966654 0.9940783
1.0016814 0.9899006 1.0133905 0.9965247 0.98639745 0.99928 0.9846422 1.0075406
0.99893695 1.0004857 0.99056304 0.9966609 0.9908005 0.9922647 1.0023947 1.0093768
0.990777 0.9969051 1.0042504 0.99340576 0.99467385 0.9887672 0.98779005 1.0263187
1.0020684 0.9998568 0.9976647 0.9924663 1.0040392 0.99939644 0.9929386 0.9962235
1.0057987 1.0196465 0.9934187 0.99300593 0.9900228 0.9979383 0.991239 1.0245212
1.0097563 1.0060431 0.9936616 0.99792385 1.0017427 1.0036601 0.9992997 0.99254364
0.9985252 0.99652857 0.9980743 0.9995274 1.0059941 1.0112352 1.0021472 0.9814835
0.9980172 1.0011867 0.98872 1.0041249 0.98906404 0.9899358 1.0055026 0.9907427
1.001301 1.0093505 0.98885685 1.0171452
00000000: f5ae 803f 4762 7f3f 74c0 803f 5f30 803f
00000010: 0789 7f3f d3c5 7f3f 16c6 7d3f c190 803f
00000020: b60a 803f ca0c 813f f72f 7f3f 2d50 803f
00000030: 564b 7c3f e355 7e3f 7c41 813f 5260 7f3f
00000040: b918 803f 7a91 7f3f fffb 803f 4a8b 823f
00000050: 2878 7f3f 9119 7e3f 133e 813f 237c 7d3f
00000060: 0252 7f3f 0c30 813f b4b2 7f3f bc85 813f
00000070: 89e4 7f3f 9812 7e3f 7725 7f3f ea7b 7e3f
00000080: 1937 803f 206a 7d3f c8b6 813f 3e1c 7f3f
00000090: 8b84 7c3f d0d0 7f3f 8311 7c3f 17f7 803f
000000a0: 55ba 7f3f ea0f 803f 8a95 7d3f 2b25 7f3f
000000b0: 1aa5 7d3f 0f05 7e3f 784e 803f 4233 813f
000000c0: 90a3 7d3f 2c35 7f3f 478b 803f d74f 7e3f
000000d0: f2a2 7e3f d91f 7d3f cfdf 7c3f 695e 833f
000000e0: c743 803f 9ef6 7f3f f466 7f3f 4512 7e3f
000000f0: 5b84 803f 72d8 7f3f 3931 7e3f 8108 7f3f
00000100: 03be 803f c783 823f b050 7e3f a335 7e3f
00000110: 2272 7d3f e278 7f3f d7c1 7d3f 8323 833f
00000120: b23f 813f 05c6 803f 9b60 7e3f f077 7f3f
00000130: 1b39 803f ef77 803f 1bd2 7f3f 5717 7e3f
00000140: 599f 7f3f 7f1c 7f3f cc81 7f3f 07e1 7f3f
00000150: 6ac4 803f 2870 813f 5c46 803f 8142 7b3f
00000160: 0e7e 7f3f e326 803f c11c 7d3f 2a87 803f
00000170: 4d33 7d3f 6f6c 7d3f 4fb4 803f 50a1 7d3f
00000180: a22a 803f 6632 813f b925 7d3f d031 823f

conv1.1.bias f4 [100]
0.039486784 0.024800481 0.061088998 -0.021773247 0.020326346 0.015696878 0.01787205 0.038861416
0.0071382537 0.07898102 0.017528482 0.008060778 0.008594051 0.022985479 0.042551164 0.003178562
-0.011420835 0.026103226 0.059680093 0.066835575 -0.019710789 0.004056767 0.060076296 0.0024579505
0.017292375 0.05173985 -0.010005584 0.04850874 0.036198992 0.014730105 0.026379772 0.001994944
0.042949643 -0.025213955 0.06904729 0.04691091 0.0017170061 -0.038356397 0.0070647686 0.063238285
0.011409639 0.004485153 0.030552346 -0.01398477 0.0032212047 -0.038412746 0.036567755 0.049450807
0.002850325 0.019267533 0.044276778 0.015348126 0.0074905567 0.012629891 0.0025427572 0.049609672
0.06483711 0.028633224 0.002225018 -0.039858352 -0.022684384 0.022954 -0.005749433 -0.047616325
-0.039544113 0.07086108 -0.0392339 -0.017942725 -0.008100789 -0.027657967 0.016947348 0.06776842
0.04948392 0.052007183 -0.04797694 0.0049283733 0.03874572 0.03748565 0.0028646868 0.01561901
0.019676639 0.01373216 0.029893942 0.03429732 0.04170302 0.061605237 0.018121237 0.02771827
0.011742359 -0.07439164 0.047123604 0.026513875 0.042092912 0.026750455 0.010366913 0.012833847
0.0016368423 0.058186393 0.01036567 0.04969788
00000000: e5bc 213d 612a cb3c 7538 7a3d cf5d b2bc
00000010: 7083 a63c bd96 803c 6868 923c 262d 1f3d
00000020: 03e8 e93b cdc0 a13d e497 8f3c 5a11 043c
00000030: 10ce 0c3c 0b4c bc3c 214a 2e3d 6c4f 503b
00000040: 741e 3bbc 6fd6 d53c 1d73 743d 17e1 883d
00000050: 8578 a1bc a1ee 843b 9012 763d 9115 213b
00000060: bda8 8d3c 2aed 533d 76ee 23bc 1ab1 463d
00000070: 6545 143d 8a56 713c 641a d83c 9bbd 023b
00000080: f7eb 2f3d 7f8d cebc aa68 8d3d a825 403d
00000090: 2a0d e13a 991b 1dbd 937f e73b 1383 813d
000000a0: 7fef 3a3c 31f8 923b ea48 fa3c 6020 65bc
000000b0: d91a 533b af56 1dbd 12c8 153d ee8c 4a3d
000000c0: 85cc 3a3b f2d6 9d3c 915b 353d b576 7b3c
000000d0: 5873 f53b 9aed 4e3c 63a4 263b 8333 4b3d
000000e0: 52c9 843d 3990 ea3c 9cd1 113b 8342 23bd
000000f0: 9ad4 b9bc 070a bc3c bd65 bcbb 5609 43bd
00000100: 02f9 21bd 9d1f 913d bab3 20bd 9ffc 92bc
00000110: 2cb9 04bc f692 e2bc 2ad5 8a3c 2bca 8a3d
00000120: a7af 4a3d 7c05 553d 7883 44bd 317e a13b
00000130: d5b3 1e3d 8e8a 193d 78bd 3b3b e0e6 7f3c
00000140: e730 a13c dbfc 603c 24e4 f43c 597b 0c3d
00000150: c9d0 2a3d c655 7c3d fd72 943c 6d11 e33c
00000160: 0663 403c a55a 98bd ae04 413d a033 d93c
00000170: 9e69 2c3d c523 db3c fcd9 293c 0e45 523c
00000180: 508b d63a db54 6e3d c5d4 293c 0190 4b3d

conv1.1.running_mean f4 [100]
0.364393 -0.42678964 0.5351229 -0.17928271 -0.47081625 -0.008182509 -0.178389 0.39336506
-0.50552833 0.34040758 0.5085062 0.3850683 -0.26528993 -0.45949268 -0.13113527 -0.49647242
0.110324755 0.26818004 -0.043668322 -0.29888144 0.0023954506 -0.0061145355 0.4603851 -0.40582132
0.13012867 0.09566146 0.21656153 -0.30352646 0.43213105 -0.32983732 0.22540341 -0.36072636
0.3414575 -0.402211 -0.30026177 0.32508054 0.5432152 -0.0024854161 -0.30881292 -0.43072835
-0.22515543 0.39285246 -0.35957065 -0.26327488 -0.41941038 0.17567769 -0.46922243 -0.43666837
-0.14361152 -0.056518525 -0.27923867 0.5601341 -0.56068397 0.49056676 -0.2364035 -0.5054466
-0.14752388 0.31407067 0.22926332 0.33074462 0.09422927 -0.18163884 0.2733418 0.24654378
0.17410867 -0.4916239 0.12094842 -0.23243007 -0.3955068 -0.5446609 0.55513537 -0.21958296
0.5367418 -0.44632027 -0.20495515 -0.2992929 0.41964626 -0.35827747 -0.3519948 -0.35597348
-0.57007784 0.06885633 0.24895883 0.19006754 0.36096832 -0.12125798 0.13918126 -0.06710839
-0.07016233 -0.56968844 -0.2822011 0.5606782 0.48029178 0.11502679 0.031511575 0.5092352
-0.19906434 -0.19251715 -0.055722658 -0.20013794
00000000: b891 ba3e 2c84 dabe d0fd 083f e395 37be
00000010: d40e f1be ee0f 06bc 9bab 36be 2567 c93e
00000020: 4e6a 01bf e749 ae3e 762d 023f ac27 c53e
00000030: 15d4 87be a042 ebbe 5348 06be a231 febe
00000040: f2f1 e13d e54e 893e 8edd 32bd fd06 99be
00000050: fefc 1c3b 715c c8bb 99b7 eb3e d0c7 cfbe
00000060: 7340 053e 28ea c33d 4ec2 5d3e d267 9bbe
00000070: 4840 dd3e 70e0 a8be 27d0 663e 20b1 b8be
00000080: 84d3 ae3e 9aee cdbe e9bb 99be f570 a63e
00000090: 2710 0b3f 5de2 22bb ba1c 9ebe 6d88 dcbe
000000a0: 258f 66be f523 c93e a519 b8be f7cb 86be
000000b0: f5bc d6be dae4 333e ec3d f0be ff92 dfbe
000000c0: e60e 13be f87f 67bd 5ff8 8ebe f364 0f3f
000000d0: fc88 0fbf 912b fb3e c213 72be f364 01bf
000000e0: 8010 17be dfcd a03e 01c4 6a3e 5c57 a93e
000000f0: 47fb c03d 88ff 39be 75f3 8b3e f975 7c3e
00000100: 8b49 323e 21b6 fbbe ceb3 f73d 2602 6ebe
00000110: de7f cabe e66e 0bbf 5a1d 0e3f 5bda 60be
00000120: e967 093f 1784 e4be c3df 51be eb3c 99be
00000130: e0db d63e 2570 b7be aa38 b4be 2842 b6be
00000140: 9ff0 11bf 8c04 8d3d 10ef 7e3e 11a1 423e
00000150: d7d0 b83e 1b56 f8bd 8885 0e3e 2070 89bd
00000160: 45b1 8fbd 1ad7 11bf aa7c 90be 9b88 0f3f
00000170: cee8 f53e 2a93 eb3d 4812 013d 3d5d 023f
00000180: 86d7 4bbe 3723 45be 713d 64bd f6f0 4cbe

conv1.1.running_var f4 [100]
8.0987803e-07 3.9207375e-06 1.8117317e-06 3.0748872e-06 8.743518e-06 6.0699294e-06 1.2171317e-05 1.0908145e-06
1.1088143e-06 9.192248e-07 8.3566385e-07 3.519541e-06 1.654084e-05 4.523629e-06 2.0396892e-06 6.802813e-06
5.4656017e-08 6.8097033e-06 1.944638e-06 3.8558937e-06 2.3688983e-06 3.3934832e-06 1.1946015e-06 8.763457e-06
3.2639873e-06 1.8007743e-06 5.003614e-06 2.1550354e-06 5.0095705e-06 2.4415625e-05 6.6395046e-06 4.001087e-06
3.7118411e-06 3.5559126e-05 9.2091767e-07 6.630058e-06 2.2782122e-05 1.6713321e-06 3.2364653e-05 4.626029e-07
6.3845425e-07 4.3170132e-07 9.499133e-06 2.719459e-06 1.1942491e-05 1.2652424e-05 2.0004875e-06 7.747513e-07
1.0975749e-05 7.2739654e-06 1.1775534e-06 7.1417767e-06 9.465155e-06 2.4998288e-05 1.133251e-05 4.7644457e-07
2.761389e-06 7.973057e-07 1.9427725e-06 3.922246e-06 1.511334e-07 7.556837e-06 3.4617483e-06 1.1105016e-06
3.0207284e-06 2.6869483e-07 3.7088594e-06 7.91566e-06 2.0288197e-05 2.3828152e-06 1.6101938e-05 4.7289905e-07
2.4244846e-06 1.4046198e-06 3.1739646e-06 3.5132987e-06 6.631261e-07 2.0116238e-06 6.4442593e-06 2.5254767e-05
3.5163819e-06 1.1323315e-06 5.041039e-06 6.9150127e-07 1.7366801e-06 1.7085005e-06 1.7065181e-06 2.6436284e-05
3.2029222e-06 3.815465e-06 2.3122528e-05 1.0385482e-06 2.4282024e-05 5.6664435e-06 1.9200015e-06 2.2477529e-05
1.9936638e-06 1.208399e-06 1.7371518e-05 4.4994428e-07
00000000: 6566 5935 e18e 8336 a12a f335 295a 4e36
00000010: 20b1 1237 4cac cb36 6933 4c37 1a68 9235
00000020: 92d2 9435 a6c0 7635 6252 6035 4131 6c36
00000030: 2fc1 8a37 adc9 9736 98e1 0836 b843 e436
00000040: edbe 6a33 e87e e436 a080 0236 e061 8136
00000050: 5df9 1e36 99bb 6336 3256 a035 c306 1337
00000060: e00a 5b36 22b2 f135 b8e4 a736 3a9f 1036
00000070: e217 a836 28d0 cc37 e9c8 de36 1341 8636
00000080: f218 7936 5225 1538 fb34 7735 c477 de36
00000090: 3c1c bf37 8952 e035 48bf 0738 a95b f834
000000a0: 3e62 2b35 94c4 e734 775e 1f37 f37f 3636
000000b0: 9c5c 4837 bf45 5437 1d40 0636 81f8 4f35
000000c0: 7c24 3837 e312 f436 6d0c 9e35 65a3 ef36
000000d0: 88cc 1e37 6ab3 d137 c320 3e37 0bca ff34
000000e0: 4d50 3936 6e06 5635 9460 0236 d69b 8336
000000f0: 3c47 2234 bc90 fd36 6250 6836 8b0c 9535
00000100: b8b7 4a36 2341 9034 b8e5 7836 80cd 0437
00000110: 9230 aa37 74e8 1f36 a612 8737 c0e2 fd34
00000120: 54b4 2236 5e86 bc35 4c00 5536 03c6 6b36
00000130: ae01 3235 6fff 0636 c43b d836 33da d337
00000140: fbfa 6b36 9dfa 9735 3226 a936 9b9f 3935
00000150: e017 e935 a14f e535 840b e535 7dc3 dd37
00000160: c9f1 5636 9806 8036 40f7 c137 3f64 8b35
00000170: 40b1 cb37 6122 be36 60d9 0036 208e bc37
00000180: e2ca 0536 4630 a235 0db9 9137 df8f f134

conv2.0.weight f4 [64, 100, 3]
0.004477519 -0.005820635 0.043510627 0.007950778 0.051926363 0.013017507 0.028830575 -0.012163836
-0.056142442 0.049871877 -0.037972976 -0.01198583 0.034130484 -0.028965984 -0.058928784 -0.0033165305
0.013746595 -0.043779623 -0.036405407 0.043013208 -0.048704952 -0.027129682 -0.022794697 -0.03330617
-0.05268489 0.044563036 -0.013484398 0.005841902 0.044667464 0.0038110886 0.040918313 0.012349192
-0.057294436 0.021296414 -0.05689042 -0.013642502 -0.020872178 -0.02064207 0.034150682 0.049009424
-0.0021775558 0.008813983 0.008757259 -0.043607555 0.035841484 0.027425272 0.01679813 0.04753696
-0.016614195 0.016643528 -0.049350776 0.014169685 -0.017188901 -0.044091444 0.0020727923 -0.03275908
-0.03764943 -0.06696489 -0.045109447 0.033634216 -0.015810004 -0.027067035 0.038296856 0.009704084
0.010202207 -0.012699557 -0.008052433 -0.02104417 -0.03557651 0.026309408 -0.024823168 0.05166417
-0.059545856 -0.01374297 -0.0070431763 0.0136950435 0.008281991 -0.010001846 0.02982068 0.016563198
-0.0045920336 -0.04052237 -0.05379075 -0.04085956 -0.053948533 -0.019097526 -0.00025328418 0.007328326
-0.049704686 0.005700667 -0.055664662 -0.042340044 -0.009022781 0.026314085 -0.0056007276 -0.054856095
-0.015961621 -0.05654606 -0.022291506 0.029268634 0.03694871 0.05449494 0.047011226 0.027878005
0.051864985 0.0035947075 0.022679748 0.03517745 -0.049234275 -0.022464635 0.022947934 -0.04452765
0.025472196 -0.056109827 -0.02889338 -0.02612333 -0.0035577095 -0.0072194664 -0.0024898339 -0.004937307
0.03453745 -0.037903164 0.03433943 -0.027405538 -0.05150453 -0.0017731269 0.015066957 -0.057309024
0.030406348 -0.02241877 -0.020955456 0.05432853 0.040257014 -0.03624915 -0.03180589 0.02946709
0.041243225 -0.03657066 0.00031503342 0.04164708 -0.02780201 -0.010440888 0.05528528 0.0050470456
-0.039863095 -0.05355774 0.055746213 -0.032762934 0.012149719 0.049696088 -0.058012918 0.029802136
0.004631099 -0.017604705 -0.014311174 0.0007469203 -0.0046880124 -0.04713712 -0.02642269 0.04196955
-0.017411137 -0.007182861 -0.038382065 0.013669989 0.040218323 0.041894507 0.028954638 0.046600305
0.020361409 -0.021527683 -0.051964108 -0.020010509 -0.009133133 -0.05589358 0.04415588 0.0042917733
-0.02977645 0.033209797 -0.040742025 -0.041297246 -0.02029975 -0.007438881 -0.022019494 -0.056173395
0.017590322 -0.035377216 0.030810717 0.018849054 -0.043072168 0.0042552445 -0.030607328 -0.050326537
0.05016088 -0.020662017 -0.0440678 0.027725311 -0.019636389 -0.0145932855 -0.00046288688 -0.014242448
0.020350263 0.044411797 -0.05248018 -0.020106588 -0.061141536 0.049986128 0.029411476 0.0084292805
0.0174686 0.03024766 -0.020102026 -0.007979778 0.023528568 -0.009825823 0.00026890988 0.0167932
-0.015132263 -0.06021449 -0.040359013 -0.014784549 0.03906117 0.040242326 -0.047155842 -0.03580338
-0.008189916 -0.017710904 -0.050364614 -0.007027282 -0.012758969 -0.0065511446 0.009009671 -0.03367999
0.039597902 -0.041478947 -0.057073228 -0.022228502 0.0337228 -0.017499398 -0.012505692 0.0072042225
-0.011167782 -0.0397941 0.044491544 -0.00024464357 0.046496376 -0.05661441 -0.05479821 -0.05121182
0.03445686 0.010790243 -0.05219625 -0.014256171 0.0120858075 -0.016141923 0.034224655 0.00093965326
00000000: 27b8 923b 06bb bebb 3338 323d fb43 023c
00000010: bdb0 543d 6247 553c 192e ec3c d34a 47bc
00000020: 9ef5 65bd 7446 4c3d 8d89 1bbd 3760 44bc
00000030: 68cc 0b3d 124a edbc 4f5f 71bd 265a 59bb
00000040: 6639 613c 4352 33bd d61d 15bd 9e2e 303d
00000050: d87e 47bd 113f debc f2bb babc 0d6c 08bd
00000060: 1ccc 57bd bb87 363d aaed 5cbc 6d6d bf3b
00000070: 3bf5 363d 75c3 793b f699 273d 4454 4a3c
00000080: 92ad 6abd d175 ae3c ee05 69bd cd84 5fbc
00000090: 21fc aabc 8f19 a9bc 96e1 0b3d 1bbe 483d
000000a0: 53b5 0ebb 8668 103c 9b7a 0f3c d69d 32bd
000000b0: 85ce 123d f7aa e03c 3b9c 893c 1eb6 423d
000000c0: 7e1a 88bc 0258 883c 0a24 4abd f727 683c
000000d0: bdcf 8cbc 3b99 34bd afd7 073b 632e 06bd
000000e0: 4a36 1abd e324 89bd afc4 38bd 08c4 093d
000000f0: fb83 81bc b0bb ddbc 2add 1c3d e1fd 1e3c
00000100: 2827 273c cd11 50bc 5aee 03bc d364 acbc
00000110: adb8 11bd d486 d73c f559 cbbc cf9d 533d
00000120: 5be6 73bd 322a 61bc 72ca e6bb 2d61 603c
00000130: 30b1 073c c8de 23bc 804a f43c 8baf 873c
00000140: c578 96bb c9fa 25bd b153 5cbd 5b5c 27bd
00000150: 23f9 5cbd 6a72 9cbc 3acb 84b9 7422 f03b
00000160: 2497 4bbd a9cc ba3b a100 64bd c16c 2dbd
00000170: 49d4 13bc a390 d73c 4f86 b7bb c9b0 60bd
00000180: f2c1 82bc d79c 67bd ad9c b6bc c6c4 ef3c
00000190: 8857 173d 1636 5f3d d88e 403d 6a60 e43c
000001a0: 6170 543d 2f95 6b3b e1ca b93c 3b16 103d
000001b0: e1a9 49bd c107 b8bc 4efd bb3c a062 36bd
000001c0: 11ab d03c 6bd3 65bd cfb1 ecbc 9800 d6bc
000001d0: 7628 69bb 4691 ecbb 7b2c 23bb 22c9 a1bb
000001e0: 2477 0d3d 5940 1bbd 81a7 0c3d 9481 e0bc
000001f0: 6af6 52bd 4468 e8ba 66db 763c debc 6abd
00000200: bc16 f93c 91a7 b7bc c7aa abbc 9887 5e3d
00000210: 8ae4 243d fd79 14bd e546 02bd f764 f13c
00000220: a8ee 283d 1ecb 15bd 122b a539 2196 2a3d
00000230: 0ac1 e3bc 4210 2bbc d172 623d b061 a53b
00000240: 7c47 23bd 5c5f 5bbd 2456 643d 6d32 06bd
00000250: 9d0f 473c 208e 4b3d f49e 6dbd 9c23 f43c
00000260: 79c0 973b be37 90bc 6a79 6abc f9cc 433a
00000270: e69d 99bb da12 41bd 6674 d8bc 43e8 2b3d
00000280: cda1 8ebc 355e ebbb 8336 1dbd 17f8 5f3c
00000290: f8bb 243d 9399 2b3d 4732 ed3c f6df 3e3d
000002a0: f8cc a63c d35a b0bc 51d8 54bd 14ed a3bc
000002b0: 23a3 15bc abf0 64bd ccdc 343d 01a2 8c3b
000002c0: beed f3bc ff06 083d 1ce1 26bd 4d27 29bd
000002d0: a94b a6bc dbc1 f3bb 3a62 b4bc 1316 66bd
000002e0: 9419 903c b3e7 10bd c266 fc3c 5569 9a3c
000002f0: 716c 30bd 946f 8b3b 38bc fabc 3323 4ebd
00000300: 7f75 4d3d 6443 a9bc 7080 34bd 3120 e33c
00000310: 7edc a0bc ad18 6fbc a0af f2b9 2859 69bc
00000320: 98b5 a63c 25e9 353d 75f5 56bd 92b6 a4bc
00000330: 8c6f 7abd 41be 4c3d 56f0 f03c f71a 0a3c
00000340: 4f1a 8f3c f1c9 f73c 01ad a4bc 9dbd 02bc
00000350: fcbe c03c 7dfc 20bc 79fc 8c39 e591 893c
00000360: 50ed 77bc 78a3 76bd 7e4f 25bd e53a 72bc
00000370: 9bfe 1f3d 23d5 243d 7c26 41bd 91a6 12bd
00000380: ff2e 06bc 7516 91bc 204b 4ebd 1d45 e6bb
00000390: ff0a 51bc fcaa d6bb 4d9d 133c 07f4 09bd
000003a0: 6931 223d d4e5 29bd 9ec5 69bd 8c18 b6bc
000003b0: eb20 0a3d e65a 8fbc ade4 4cbc 6611 ec3b
000003c0: 13f9 36bc 23ff 22bd c43c 363d 8143 80b9
000003d0: fc72 3e3d 83e4 67bd 1674 60bd 7cc3 51bd
000003e0: a322 0d3d 8fc9 303c bccb 55bd b792 69bc
000003f0: 8d03 463c 113c 84bc 272f 0c3d 1053 763a

conv2.0.bias f4 [64]
-0.03027525 0.014896068 -0.04878625 -0.037809964 0.013742666 0.02810835 0.0143267205 -0.028146856
-0.036845025 0.0115346825 0.040845443 0.025382692 0.051505934 0.021028519 0.052171487 -0.010839959
0.025546525 -0.037806537 -0.023423836 0.057612058 0.009532553 0.026593428 -0.053061623 0.026546242
-0.0102353925 -0.015924543 0.030740863 -0.025808109 -0.013532897 -0.041919295 -0.03329797 0.026413433
-0.010646655 0.035185475 -0.00044616358 -0.011123496 -0.012234593 0.041388113 0.031099105 0.020285212
-0.018123567 -0.031985536 0.05551301 -0.04675481 0.006439339 -0.055896055 0.05272397 0.009292678
0.018197881 0.009698262 -0.05455404 0.042335033 0.028581718 0.028124597 -0.03684682 0.033665784
0.04230812 0.013731639 -0.01374098 0.047055315 -0.02074465 -0.05392011 0.05160467 0.010861067
00000000: cd03 f8bc a30e 743c 17d4 47bd 9fde 1abd
00000010: eb28 613c 7b43 e63c 9fba 6a3c 3c94 e6bc
00000020: cfea 16bd f7fb 3c3c 8d4d 273d 5def cf3c
00000030: e3f7 523d 0044 ac3c c5b1 553d 159a 31bc
00000040: f246 d13c 07db 1abd 58e3 bfbc 9ffa 6b3d
00000050: 6d2e 1c3c 76da d93c 2557 59bd 8177 d93c
00000060: 59b2 27bc 3074 82bc 43d4 fb3c 876b d3bc
00000070: 16b9 5dbc 91b3 2bbd 7463 08bd fc60 d83c
00000080: 4f6f 2ebc a51e 103d 10eb e9b9 533f 36bc
00000090: 9a73 48bc 9586 293d 8dc3 fe3c 2c2d a63c
000000a0: e077 94bc 4403 03bd 9c61 633d f981 3fbd
000000b0: 1701 d33b 43f3 64bd 17f5 573d 5140 183c
000000c0: b913 953c 76e5 1e3c 0f74 5fbd 8067 2d3d
000000d0: 3524 ea3c 8e65 e63c b1ec 16bd 22e5 093d
000000e0: 474b 2d3d abfa 603c d921 61bc 13bd 403d
000000f0: aff0 a9bc 55db 5cbd 6b5f 533d 9ef2 313c

conv2.1.weight f4 [64]
1.0016489 1.0047213 0.9936586 1.0042601 0.99821496 0.98387086 1.0014706 1.0090351
1.0060585 0.9899412 0.98144275 1.0025414 1.0031261 0.9768678 0.9994375 0.9994016
0.9969412 1.0048712 1.0115695 0.98720497 1.0105296 1.0033559 1.000261 1.0119301
1.0136061 1.0035509 1.0071439 0.98237985 0.99799085 0.9860619 0.9875921 0.98460615
1.0276192 0.98187006 1.0216783 1.0098665 0.98547906 0.997974 1.0103009 0.9967347
1.0050145 0.9862481 1.0048918 1.002112 0.99973553 0.9983007 0.99681157 0.99835104
0.9948193 1.0079602 0.9918184 0.99463403 1.0131859 1.0012338 1.0124379 1.0026001
0.9970552 1.0021018 1.0006437 0.99402773 1.0035349 1.0203686 0.9852673 1.0011725
00000000: 0836 803f b59a 803f 6960 7e3f 988b 803f
00000010: 048b 7f3f f6de 7b3f 3030 803f 1028 813f
00000020: 86c6 803f c96c 7d3f d53f 7b3f 4753 803f
00000030: 7066 803f 0214 7a3f 23db 7f3f c9d8 7f3f
00000040: 8a37 7f3f 9f9f 803f 1c7b 813f 77b9 7c3f
00000050: 0959 813f f76d 803f 8d08 803f ed86 813f
00000060: d8bd 813f 5b74 803f 17ea 803f 3f7d 7b3f
00000070: 547c 7f3f 8d6e 7c3f d6d2 7c3f 260f 7c3f
00000080: 0789 833f d65b 7b3f 5bc6 823f 4e43 813f
00000090: 5b48 7c3f 397b 7f3f 8a51 813f 012a 7f3f
000000a0: 51a4 803f c17a 7c3f 4ba0 803f 3545 803f
000000b0: abee 7f3f a290 7f3f 0b2f 7f3f ef93 7f3f
000000c0: 7aac 7e3f d704 813f d0e7 7d3f 56a0 7e3f
000000d0: 13b0 813f 6e28 803f 9197 813f 3355 803f
000000e0: 023f 7f3f df44 803f 1815 803f 9a78 7e3f
000000f0: d573 803f 709b 823f 7a3a 7c3f 6c26 803f

conv2.1.bias f4 [64]
0.0007906835 0.0058175726 0.0019392711 0.0063907984 0.006783997 0.0060214675 -0.0012455588 0.020431373
0.007553721 -0.01237771 0.00728974 0.010691264 0.017346976 0.003215311 0.0019691016 0.0018983047
0.00853449 -0.0083932 0.038386695 0.030171573 0.014997393 0.0020101257 -0.0069204317 0.0010394652
0.023170408 0.0024266164 0.012123413 0.021459278 0.0067749354 0.006166355 0.009910118 -0.0014660985
0.03185631 0.006791893 0.042153474 0.009501281 -0.004104911 -0.004228536 0.020135151 -0.011051832
0.0049058576 0.013437826 0.0061737895 0.00807975 0.0047022724 0.0017510578 0.0018027497 -0.00049203297
-0.010379505 -0.0027370371 0.0043805162 0.0029070233 0.057154953 0.0011899984 0.01455762 0.028215997
0.0019398492 -0.007027029 0.013953409 0.02723294 0.008742066 0.03905005 0.01751938 -0.005479843
00000000: df45 4f3a 56a1 be3b 242f fe3a e769 d13b
00000010: 4b4c de3b bb4f c53b 0542 a3ba b25f a73c
00000020: 3485 f73b e1cb 4abc c5de ee3b 692a 2f3c
00000030: 3f1b 8e3c f8b7 523b 0b0c 013b 89d0 f83a
00000040: 3fd4 0b3c a283 09bc 5e3b 1d3d 602a f73c
00000050: a0b7 753c 50bc 033b cac4 e2bb aa3e 883a
00000060: decf bd3c de07 1f3b 48a1 463c 5ecb af3c
00000070: 4700 de3b 230f ca3b 0c5e 223c 1a2a c0ba
00000080: c37b 023d 878e de3b 1fa9 2c3d 43ab 1b3c
00000090: 7d82 86bb 888f 8abb 79f2 a43c be12 35bc
000000a0: 51c1 a03b 542a 5c3c 804d ca3b ee60 043c
000000b0: 8515 9a3b c083 e53a 3e4a ec3a c6fb 00ba
000000c0: cd0e 2abc dd5f 33bb 6f8a 8f3b c283 3e3b
000000d0: 501b 6a3d b8f9 9b3a 1583 6e3c 3c25 e73c
000000e0: 8a42 fe3a fe42 e6bb d79c 643c 9d17 df3c
000000f0: e23a 0f3c f2f2 1f3d ce84 8f3c 4190 b3bb

conv2.1.running_mean f4 [64]
-0.22701457 -0.085247554 -0.19211929 -0.23971555 -0.25268748 0.24969964 -0.10720706 -0.0375783
-0.11247887 0.10356773 0.28026232 -0.12373032 -0.01799192 0.29241267 -0.16383912 -0.09000746
-0.057174444 -0.20136955 -0.022482779 0.05963467 -0.10891541 -0.19352846 -0.12794977 -0.028718418
-0.15905446 -0.17163199 -0.008512397 0.14712596 -0.067771114 0.009185853 0.10369089 0.23780018
-0.07219097 0.21814652 -0.1455493 -0.17716372 0.2111675 -0.13222408 0.056281514 -0.0063167717
-0.20592663 0.16789088 -0.15594271 -0.19744171 -0.08937963 -0.25438607 0.042862818 -0.17446013
-0.12545347 -0.18007296 -0.03359852 -0.023691887 0.041111704 -0.13840012 -0.035815556 -0.02648446
-0.0076723997 -0.15380445 -0.06176942 0.015357733 -0.24955112 -0.09805403 0.24661289 0.107928425
00000000: 8276 68be 4596 aebd ebba 44be fe77 75be
00000010: 4160 81be 43b1 7f3e 608f dbbd b4eb 19bd
00000020: 525b e6bd 511b d43d 8b7e 8f3e 5266 fdbd
00000030: ca63 93bc 1db7 953e 71c5 27be d555 b8bd
00000040: c02f 6abd d233 4ebe ce2d b8bc 7c43 743d
00000050: 0b0f dfbd 532c 46be 4405 03be e342 ebbc
00000060: 2cdf 22be 4cc0 2fbe 9577 0bbc 30a8 163e
00000070: 95cb 8abd 4380 163c e45b d43d e481 733e
00000080: dcd8 93bd cd61 5f3e e00a 15be 686a 35be
00000090: 4b3c 583e c065 07be 7287 663d ecfc cebb
000000a0: 6ede 52be 96eb 2b3e 72af 1fbe 292e 4abe
000000b0: ab0c b7bd e43e 82be ec90 2f3d ada5 32be
000000c0: e076 00be 0c65 38be 9a9e 09bd 7d15 c2bc
000000d0: bf64 283d c3b8 0dbe 55b3 12bd f0f5 d8bc
000000e0: c168 fbbb ea7e 1dbe ee01 7dbd 009f 7b3c
000000f0: 548a 7fbe 8dd0 c8bd 1788 7c3e 9409 dd3d

conv2.1.running_var f4 [64]
0.3004788 0.08700164 0.32271928 0.16390307 0.38791865 0.24004762 0.08491921 0.064432986
0.079757184 0.14397888 0.29716134 0.12109437 0.094817616 0.40324098 0.24924423 0.058470286
0.179499 0.10041227 0.06309248 0.105932735 0.11374966 0.22895424 0.043108486 0.07984832
0.16898969 0.11648372 0.17418326 0.31802544 0.21522684 0.12734433 0.17668733 0.25357196
0.12116624 0.21003073 0.16713391 0.15774311 0.25786996 0.17911069 0.16858138 0.24356951
0.3110185 0.25542456 0.2724967 0.22682874 0.079739995 0.2567566 0.08836751 0.28197798
0.15920262 0.15518717 0.094972804 0.19453907 0.0604258 0.19309014 0.24155001 0.062319327
0.16175088 0.19559021 0.17590764 0.069931805 0.27056047 0.09260502 0.27305415 0.106979825
00000000: 5bd8 993e ea2d b23d 763b a53e 35d6 273e
00000010: 469d c63e 0bcf 753e 1fea ad3d 71f5 833d
00000020: bc57 a33d 336f 133e 8825 983e 5300 f83d
00000030: bd2f c23d 9a75 ce3e e139 7f3e 8a7e 6f3d
00000040: 96ce 373e f3a4 cd3d a136 813d 43f3 d83d
00000050: 95f5 e83d fb72 6a3e 8692 303d 8487 a33d
00000060: a20b 2d3e 048f ee3d 195d 323e 3bd4 a23e
00000070: 6d64 5c3e 8d66 023e 86ed 343e 2fd4 813e
00000080: 0126 f83d 4c12 573e 2725 2b3e 6987 213e
00000090: 8807 843e cb68 373e 99a0 2c3e 496a 793e
000000a0: d13d 9f3e 02c7 823e b084 8b3e cb45 683e
000000b0: b94e a33d 9a75 833e 06fa b43d 6b5f 903e
000000c0: 0306 233e 63e9 1e3e 1a81 c23d 4035 473e
000000d0: 0b81 773d 6cb9 453e e358 773e 8d42 7f3d
000000e0: 06a2 253e cd48 483e 2221 343e 6838 8f3d
000000f0: e786 8a3e b3a7 bd3d c1cd 8b3e 3d18 db3d

conv3.0.weight f4 [128, 64, 3]
0.029125543 0.04949457 0.07126501 -0.0082556335 0.039575923 0.0055560893 -0.021682203 0.04162091
-0.060106438 -0.004146754 -0.067115046 0.06736177 0.024023244 0.028989151 -0.054480117 0.009743057
0.0037938298 -0.026260315 -0.03074265 -0.045045335 0.005598826 0.0006310364 0.014131312 0.051671576
-0.02531511 0.03188716 -0.031357165 0.06807954 -0.056096032 -0.05906513 -0.041012622 0.021470465
0.0032533815 -0.021223614 0.020411704 0.012495981 -0.004127091 0.061438605 0.0010968117 -0.018181356
0.051906113 -0.04721178 -0.069011234 0.0520653 0.056237895 0.06402286 -0.042141177 -0.031187234
-0.062644534 0.053344958 -0.0419755 -0.05603991 0.010341372 -0.057045713 -0.063851506 0.014755954
-0.053178463 0.030348476 0.02034014 0.04166031 0.0191644 -0.0073528113 -0.010281686 -0.017309682
0.07154563 -0.00751544 0.0065675285 -0.03800103 0.07312647 -0.027845735 -0.042409588 0.051185016
-0.01777519 0.042103987 0.053052694 0.053361066 -0.05638154 -0.0013354105 0.037265666 -0.026908485
0.048289992 0.034670144 0.0062902486 -0.016001975 -0.0672438 0.052368328 0.068215646 0.0031007654
-0.045453142 0.021723745 0.0053787082 -0.051838614 0.04289459 0.023119813 -0.057850547 -0.035237134
0.008589211 -0.04141669 0.057199 0.03338261 0.014114854 -0.045469563 0.05376845 -0.052646425
-0.033840727 -0.058079697 0.026864594 -0.018886866 -0.027124729 -0.05670953 0.024414632 0.06538313
-0.03265774 0.066808484 -0.016876 -0.002034487 -0.048348706 -0.00094451907 -0.020202462 0.037674714
0.009182864 0.059851818 0.06837812 -0.029060863 -0.06141148 0.06902484 0.047235504 0.053868998
0.07033454 -0.06333637 -0.031509757 0.04182283 0.0592883 -0.02453163 -0.018777499 0.05246088
-0.06256065 -0.021467559 -0.023662195 0.059744522 0.033184025 0.039655227 -0.0065547633 0.0015732042
-0.047052924 -0.021045808 -0.041227486 -0.07169384 -0.024986967 0.017388918 0.025768004 0.020107506
-0.07091884 0.059483938 -0.020527301 -0.030696293 -0.047012094 -0.057941947 0.0037481308 -0.039073374
0.00048131016 0.07213881 -0.062165596 0.018356962 -0.01005148 -0.015319843 -0.050229605 -0.07090253
0.013133978 -0.014712593 -0.043528352 0.021178387 0.05069486 0.002181479 0.0311796 -0.015795242
-0.02540807 0.0053155418 -0.039459508 -0.0059962175 0.06625718 0.0033302854 0.05599727 0.008866734
-0.055748075 -0.060900424 -0.069141306 -0.07061102 0.038031727 -0.07112166 -0.02044342 -0.021644032
0.05732213 0.034700952 0.030727807 0.018927863 0.01586169 -0.068060264 -0.030759161 0.0038366073
0.011432926 0.015414577 -0.054767706 0.049478788 -0.05304667 0.030529497 0.0010272781 0.0004039205
-0.04832124 -0.033599913 0.058356512 0.052597024 0.049215816 -0.018619351 0.07353993 -0.0025186203
0.039806444 0.034514006 0.062495407 0.075465225 0.08248834 0.0061667203 0.02713232 -0.039082386
0.018496787 0.025339173 -0.044250283 -0.061144024 -0.008771291 -0.0023048953 0.051054936 -0.026882319
-0.016076615 0.04951744 0.016419774 -0.0010660909 -0.05354947 -0.045573965 -0.033830483 -0.066880785
-0.0024080635 0.050679635 0.018903555 0.059430204 -0.05649754 -0.03845293 0.03137563 0.014660461
-0.01732628 0.0065450286 0.06409435 -0.044017915 -0.0025892707 -0.014320747 0.05597219 -0.042800207
00000000: b198 ee3c d1ba 4a3d 64f3 913d a342 07bc
00000010: 5d1a 223d db0f b63b e09e b1bc b07a 2a3d
00000020: 2b32 76bd 7ee1 87bb 9d73 89bd f8f4 893d
00000030: 65cc c43c a87a ed3c 8b26 5fbd 58a1 1f3c
00000040: e7a1 783b df1f d7bc 03d8 fbbc 7581 38bd
00000050: 5b76 b73b 236c 253a 0587 673c 93a5 533d
00000060: a261 cfbc 1c9c 023d 5f70 00bd 496d 8b3d
00000070: f4c4 65bd 47ee 71bd dafc 27bd d4e2 af3c
00000080: af36 553b 25dd adbc 7236 a73c f1bb 4c3c
00000090: 8c3c 87bb 0ca7 7b3d e5c2 8f3a 11f1 94bc
000000a0: 819b 543d 2461 41bd c355 8dbd 6d42 553d
000000b0: b559 663d 6b1e 833d 3a9c 2cbd 5f7c ffbc
000000c0: c74b 80bd 3e80 5a3d 80ee 2bbd 1b8a 65bd
000000d0: dc6e 293c c4a8 69bd 94c4 82bd f5c2 713c
000000e0: a9d1 59bd 5e9d f83c 5ea0 a63c 00a4 2a3d
000000f0: a9fe 9c3c daef f0bb 8474 28bc 09cd 8dbc
00000100: 8486 923d 1544 f6bb 6c34 d73b f8a6 1bbd
00000110: 55c3 953d bd1c e4bc adb5 2dbd 61a7 513d
00000120: 469d 91bc 3b75 2c3d c84d 593d 2291 5a3d
00000130: 54f0 66bd f108 afba e2a3 183d 2f6f dcbc
00000140: bacb 453d 4802 0e3d 6e1e ce3b 9316 83bc
00000150: 1eb7 89bd 2c80 563d a5b4 8b3d 3636 4b3b
00000160: 132d 3abd fff5 b13c e03f b03b ba54 54bd
00000170: 3db2 2f3d c365 bd3c b2f4 6cbd d054 10bd
00000180: c3b9 0c3c 8ca4 29bd 8049 6a3d 34bc 083d
00000190: fd41 673c 4b3e 3abd 4e3c 5c3d c7a3 57bd
000001a0: 939c 0abd fae4 6dbd 2313 dc3c a1b8 9abc
000001b0: ae34 debc 4148 68bd 3201 c83c 97e7 853d
000001c0: 1fc4 05bd e3d2 883d 8a3f 8abc 0755 05bb
000001d0: 4b09 46bd 9a99 77ba a27f a5bc cd50 1a3d
000001e0: b973 163c 2e27 753d d409 8c3d 0c11 eebc
000001f0: 9b8a 7bbd e55c 8d3d 047a 413d bda5 5c3d
00000200: 8e0b 903d 80b6 81bd 6010 01bd 6a4e 2b3d
00000210: 4ad8 723d 8ff6 c8bc 45d3 99bc 38e1 563d
00000220: cc1f 80bd bcdc afbc 38d7 c1bc acb6 743d
00000230: f9eb 073d 856d 223d 57c9 d6bb f933 ce3a
00000240: 91ba 40bd 4268 acbc 27de 28bd 38d4 92bd
00000250: 78b1 ccbc 3473 8e3c 6c17 d33c 7fb8 a43c
00000260: e63d 91bd 6ea5 733d df28 a8bc cb76 fbbc
00000270: c18f 40bd 8954 6dbd 33a3 753b 670b 20bd
00000280: 5b58 fc39 83bd 933d 5aa1 7ebd 5761 963c
00000290: f6ae 24bc 1400 7bbc 8fbd 4dbd 5835 91bd
000002a0: e52f 573c 160d 71bc c94a 32bd 4c7e ad3c
000002b0: 6aa5 4f3d 25f7 0e3b 5c6c ff3c 0665 81bc
000002c0: 9624 d0bc ff2d ae3b 4ba0 21bd eb7b c4bb
000002d0: d8b1 873d eb40 5a3b 655d 653d c745 113c
000002e0: 1858 64bd b972 79bd f599 8dbd 839c 90bd
000002f0: 28c7 1b3d 3ca8 91bd f678 a7bc d34e b1bc
00000300: 9cca 6a3d 9622 0e3d e2b8 fb3c 9b0e 9b3c
00000310: 60f0 813c 2e63 8bbd a3fa fbbc 976f 7b3b
00000320: 2b51 3b3c 6c8d 7c3c 1a54 60bd 45aa 4a3d
00000330: 7747 59bd ff18 fa3c bca5 863a 4bc5 d339
00000340: 7eec 45bd 10a0 09bd 3d07 6f3d fa6f 573d
00000350: 8696 493d 9c87 98bc 1a9c 963d 700f 25bb
00000360: 150c 233d 8f5e 0d3d 2ffb 7f3d 838d 9a3d
00000370: a6ef a83d 3312 ca3b 9944 de3c da14 20bd
00000380: 9386 973c 1994 cf3c c93f 35bd 2872 7abd
00000390: 76b5 0fbc ba0d 17bb fb1e 513d 4f38 dcbc
000003a0: 1bb3 83bc cdd2 4a3d c382 863c 13bc 8bba
000003b0: b056 5bbd c4ab 3abd d591 0abd cbf8 88bd
000003c0: 9ad0 1dbb 7395 4f3d a1db 9a3c 166d 733d
000003d0: f769 67bd d280 1dbd bc83 003d 6e32 703c
000003e0: d8ef 8dbc ae77 d63b e643 833d 214c 34bd
000003f0: c1b0 29bb 91a1 6abc 1843 653d 454f 2fbd

conv3.0.bias f4 [128]
-0.008379042 0.022585979 -0.02738791 -0.06123196 -0.048628874 0.067079075 0.027796406 -0.03609512
-0.07048615 0.020085428 -0.069020934 -0.055896435 0.025281789 0.016165728 -0.041254703 0.018006053
-0.061426695 0.027642133 0.042120706 -0.021089118 0.046689946 0.053209066 -0.04724843 -0.01664883
0.07165354 0.048572272 -0.07135043 -0.040580202 -8.183912e-05 -0.042915434 -0.016254926 -0.0032180583
-0.05098354 -0.021239614 -0.049393438 0.010259441 0.060595702 0.032621194 -0.06109167 0.028009877
-0.047741 -0.0046117115 0.0717432 -0.012130737 0.035017043 0.040870037 0.049142182 0.057903457
0.009496493 -0.049758628 -0.06506148 0.018860187 -0.014581442 0.023160629 -0.0066197407 0.02446507
0.07167879 0.0147716245 0.026840823 -0.00012684439 -0.053185277 0.06620129 -0.037785877 -0.014425707
0.018417493 -0.00034697924 -0.047058955 -0.051364224 0.01266035 -0.027685303 0.020776058 0.05991625
-0.06227028 0.031308908 -0.044789407 0.072150335 0.003972357 0.04354647 -0.06952978 0.0279524
0.03338762 -0.037546005 -0.015780168 -0.048621148 -0.04044927 -0.014826195 0.009610047 -0.04495986
0.030452399 -0.00965043 0.005649986 -0.019878736 0.025890963 0.0067301462 -0.05182254 0.042248104
0.031347044 0.07174897 0.038826615 -0.07139484 -0.022156661 -0.02559387 0.028643398 0.01922947
0.006003135 0.028037423 -0.049895074 0.0024091636 0.05614191 -0.023671856 0.00045446027 -0.037416425
0.05685057 0.014841543 0.044411883 -0.018881118 -0.0172522 0.0380932 0.020625638 0.036479563
0.022894403 0.06281505 -0.010043054 -0.07014157 -0.0007301577 0.021665644 -0.06791003 0.06808435
00000000: 4048 09bc 3b06 b93c 9c5c e0bc 5dce 7abd
00000010: 122f 47bd c160 893d 4ab5 e33c 7ad8 13bd
00000020: 0b5b 90bd 328a a43c d95a 8dbd a9f3 64bd
00000030: c11b cf3c fd6d 843c b1fa 28bd 6e81 933c
00000040: 8f9a 7bbd c171 e23c c386 2c3d 16c3 acbc
00000050: f53d 3f3d c0f1 593d 9287 41bd 2163 88bc
00000060: 17bf 923d b8f3 463d 2d20 92bd 6d37 26bd
00000070: 0ba1 abb8 18c8 2fbd 0d29 85bc 0fe6 52bb
00000080: 1ed4 50bd b3fe adbc c650 4abd 3717 283c
00000090: 3333 783d cd9d 053d 423b 7abd f874 e53c
000000a0: 118c 43bd d71d 97bb 19ee 923d 00c0 46bc
000000b0: 086e 0f3d 5767 273d 5049 493d 2d2c 6d3d
000000c0: 2e97 1b3c b4cf 4bbd f43e 85bd ae80 9a3c
000000d0: 00e7 6ebc 5cbb bd3c 69ea d8bb f86a c83c
000000e0: 54cc 923d af04 723c 49e1 db3c 8801 05b9
000000f0: ced8 59bd 8b94 873d 5dc5 1abd cd59 6cbc
00000100: 48e0 963c c4ea b5b9 e4c0 40bd 4b63 52bd
00000110: 5b6d 4f3c 4acc e2bc 8d32 aa3c be6a 753d
00000120: 1f0f 7fbd c53d 003d 1975 37bd 8ec3 933d
00000130: 8c2a 823b c95d 323d a165 8ebd 6efc e43c
00000140: 75c1 083d d7c9 19bd 6945 81bc f826 47bd
00000150: 22ae 25bd 92e9 72bc 7573 1d3c d527 38bd
00000160: 4f77 f93c d61c 1ebc 8523 b93b bbd8 a2bc
00000170: 4919 d43c 8f88 dc3b df43 54bd 590c 2d3d
00000180: c265 003d 20f1 923d a808 1f3d 7537 92bd
00000190: e381 b5bc 3caa d1bc 8fa5 ea3c 1f87 9d3c
000001a0: f2b5 c43b bdae e53c c75e 4cbd 0fe3 1d3b
000001b0: 0ff5 653d 7beb c1bc a044 ee39 f741 19bd
000001c0: 25dc 683d f129 733c 3ce9 353d 93ac 9abc
000001d0: 7c54 8dbc 9e07 1c3d 19f7 a83c 986b 153d
000001e0: 0b8d bb3c 2da5 803d 9f8b 24bc 62a6 8fbd
000001f0: 0e68 3fba 267c b13c 6a14 8bbd cf6f 8b3d

conv3.1.weight f4 [128]
1.0004926 0.9897449 0.99844706 1.0027276 1.0018958 0.99825233 1.0120803 1.007329
1.0005382 1.0021837 0.994195 1.0054096 0.9997427 0.99802136 0.9934823 0.9987342
1.0020814 0.9974694 0.9908033 1.0068659 1.0008249 1.0022509 1.0007071 0.9993084
0.99396896 1.0071768 1.0033842 1.0022594 1.0124519 0.9944676 1.0001701 1.049996
0.999234 0.9985023 0.9977579 1.0016042 1.0052085 0.995241 1.001326 0.99094075
0.9885389 1.0012996 0.99856967 1.0007603 1.0022331 0.98749214 0.99916714 1.0127698
1.0053606 1.0056676 0.998888 0.9986038 0.99242973 1.0057602 1.0047996 0.9992116
0.9924648 0.9913258 1.0010539 1.0022452 0.9930728 1.0040996 0.9895005 0.9994007
0.99503547 1.0015498 1.0022863 1.0026282 1.0032023 0.9934336 0.98820394 1.0019892
1.0009154 1.0003651 0.9999962 1.0049068 0.99057347 1.0005368 1.0065817 1.0071566
1.0015359 0.9902737 1.0085201 0.99155456 1.0036343 0.98991644 1.0020581 0.99208856
0.98992413 1.0032762 0.99490243 1.0011777 0.99383694 1.0009656 1.0058292 0.99847287
1.0013417 0.99137795 1.0016977 1.0140867 0.9996524 1.0011843 1.006046 0.9988664
0.99966466 0.99450296 0.99968743 0.9946629 1.0035961 1.0061954 1.000261 0.99988353
1.0043523 0.9919173 1.0015389 0.9942928 1.0014838 1.0001986 0.98800373 0.9986638
1.0015324 1.0039037 0.998 1.013025 0.99204385 0.990533 1.0011239 1.0031393
00000000: 2410 803f ec5f 7d3f 3a9a 7f3f 6159 803f
00000010: 1f3e 803f 778d 7f3f d98b 813f 28f0 803f
00000020: a311 803f 8e47 803f 9083 7e3f 43b1 803f
00000030: 23ef 7f3f 547e 7f3f db54 7e3f 0bad 7f3f
00000040: 3444 803f 285a 7f3f 49a5 7d3f fbe0 803f
00000050: 081b 803f c249 803f 2c17 803f add2 7f3f
00000060: c074 7e3f 2beb 803f e56e 803f 094a 803f
00000070: 0698 813f 6e95 7e3f 9305 803f 4566 863f
00000080: cdcd 7f3f d99d 7f3f 106d 7f3f 9134 803f
00000090: acaa 803f 1dc8 7e3f 732b 803f 4bae 7d3f
000000a0: e310 7d3f 962a 803f 43a2 7f3f ea18 803f
000000b0: 2d49 803f 49cc 7c3f 6bc9 7f3f 71a2 813f
000000c0: a8af 803f b7b9 803f 20b7 7f3f 80a4 7f3f
000000d0: e00f 7e3f c0bc 803f 469d 803f 55cc 7f3f
000000e0: 2c12 7e3f 87c7 7d3f 8922 803f 9249 803f
000000f0: 053a 7e3f 5686 803f e84f 7d3f b9d8 7f3f
00000100: a5ba 7e3f c932 803f eb4a 803f 1f56 803f
00000110: ef68 803f aa51 7e3f effa 7c3f 2f41 803f
00000120: ff1d 803f f70b 803f c0ff 7f3f c9a0 803f
00000130: 3996 7d3f 9711 803f abd7 803f 82ea 803f
00000140: 5432 803f 9482 7d3f 3017 813f 85d6 7d3f
00000150: 1777 803f 2a6b 7d3f 7143 803f 84f9 7d3f
00000160: ab6b 7d3f 5b6b 803f edb1 7e3f 9726 803f
00000170: 196c 7e3f a41f 803f 03bf 803f eb9b 7f3f
00000180: f72b 803f f2ca 7d3f a137 803f 98cd 813f
00000190: 38e9 7f3f cf26 803f 1ec6 803f b5b5 7f3f
000001a0: 06ea 7f3f bf97 7e3f 84eb 7f3f 3aa2 7e3f
000001b0: d675 803f 03cb 803f 8d08 803f 5ef8 7f3f
000001c0: 9e8e 803f 4bee 7d3f 6d32 803f f989 7e3f
000001d0: 9f30 803f 8206 803f d0ed 7c3f 6ea8 7f3f
000001e0: 3732 803f eb7f 803f ee7c 7f3f ceaa 813f
000001f0: 96f6 7d3f 9293 7d3f d424 803f de66 803f

conv3.1.bias f4 [128]
-0.0029493645 -0.0032386403 0.000610936 0.0014409947 0.009010469 -0.0011853236 0.012165915 0.0066157766
0.0007587136 0.0037564652 -0.0046992423 0.0060539157 -0.0053912266 -0.0011186901 -0.0026545092 0.007985749
0.0065187975 -0.007798169 0.0003312691 0.0007795489 -0.0017736325 0.003030735 0.0020878953 0.0052152914
0.006154138 0.00917643 -2.47891e-05 0.00024745005 -0.0023893698 0.004560986 0.0067096064 0.02821917
0.004613628 -0.0018606572 -0.0033311066 0.0057295584 0.0017301387 -0.0024539197 0.0054403087 0.004440643
-0.0016354991 0.0075075664 0.0008499857 -0.0018125869 0.0051404783 0.005483106 -0.0020214869 0.015272995
0.0087353615 0.004829752 0.000791167 -0.0012852164 0.004027588 0.0060833837 -0.0007216117 -0.0027425867
0.00068568287 0.0002534371 0.0037648655 0.004997788 0.0057240105 0.002161332 0.007157499 -5.4926022e-05
0.0024347964 0.0011027968 0.0016159844 0.0047035515 0.0031348607 0.005511777 -0.0003504638 0.0041579492
-0.006930964 0.0021296882 0.007274352 0.007911455 0.005999991 0.0052464837 0.0049026962 0.0014446151
0.00807977 0.0040202863 0.012717034 0.00028618457 0.0074389093 0.00873452 0.008841572 0.005517855
0.002028307 0.004376842 0.0019880924 0.008363624 0.004355929 0.0062025553 0.0056961942 0.0029574765
-0.007685367 0.008016321 -0.0041773007 0.018219626 6.6277375e-05 0.00032339152 0.0052696574 -0.005250071
-0.0020920301 0.0019109602 0.0007834943 0.0026635204 0.0014297261 0.00479464 -0.0058810203 0.0055379546
-0.0032788464 -0.0016578934 0.00502187 0.001821453 -0.000743352 0.0075893416 -0.0039958027 -0.0020317568
0.00011220913 0.0013405136 0.00093047344 0.007974602 0.001087985 -0.0005557978 0.0037516714 0.006122463
00000000: 204a 41bb 5e3f 54bb 3927 203a c2df bc3a
00000010: a5a0 133c dc5c 9bba 8c53 473c 28c9 d83b
00000020: 68e4 463a 072f 763b 1afc 99bb ed5f c63b
00000030: e3a8 b0bb 03a1 92ba 46f7 2dbb a9d6 023c
00000040: a39b d53b c887 ffbb 30ae ad39 a45a 4c3a
00000050: 3b79 e8ba 4c9f 463b 12d5 083b 09e5 aa3b
00000060: a7a8 c93b bd58 163c 30f2 cfb7 2fbc 8139
00000070: f996 1cbb 5374 953b 42dc db3b e42b e73c
00000080: eb2d 973b 4ce1 f3ba b24e 5abb 05bf bb3b
00000090: d2c5 e23a f1d1 20bb 9e44 b23b d082 913b
000000a0: 3e5e d6ba 0802 f63b 93d1 5e3a 5394 edba
000000b0: 7571 a83b a0ab b33b ec7a 04bb 963b 7a3c
000000c0: c31e 0f3c e542 9e3b 5266 4f3a b574 a8ba
000000d0: dbf9 833b 1f57 c73b 8b2a 3dba f8bc 33bb
000000e0: 66bf 333a c0df 8439 f6bb 763b 7cc4 a33b
000000f0: 7b90 bb3b 22a5 0d3b 7489 ea3b 5e60 66b8
00000100: 1b91 1f3b b88b 903a 70cf d33a 4020 9a3b
00000110: 3c72 4d3b 239c b43b 74be b7b9 683f 883b
00000120: 241d e3bb 3d92 0b3b b05d ee3b 0c9f 013c
00000130: 939b c43b b2ea ab3b cca6 a03b 3d59 bd3a
00000140: 0361 043c 9bbc 833b 1b5b 503c 0b0b 9639
00000150: 18c2 f33b 3b1b 0f3c 3edc 103c 1fcf b43b
00000160: 58ed 043b 9d6b 8f3b a84a 023b 9507 093c
00000170: 2ebc 8e3b ce3e cb3b 24a7 ba3b 39d2 413b
00000180: 88d5 fbbb e356 033c bde1 88bb 5341 953c
00000190: 65fe 8a38 e08c a939 17ad ac3b ca08 acbb
000001a0: 711a 09bb 2f79 fa3a 6a63 4d3a 758e 2e3b
000001b0: a665 bb3a 5b1c 9d3b 93b5 c0bb bb77 b53b
000001c0: eae1 56bb ac4d d9ba 808e a43b d2bd ee3a
000001d0: 82dd 42ba 03b0 f83b 39ef 82bb 3927 05bb
000001e0: d151 eb38 2cb4 af3a 04eb 733a e8a7 023c
000001f0: b89a 8e3a f5b2 11ba 9ade 753b f19e c83b
