Code/model/model_atk_12.08.pt (torch, 962136 bytes, 50 tensors)

conv1.0.weight f4 [100, 1, 3]
000000 2d 47 cd 3d e9 52 d5 be a0 aa d4 3e b6 d3 9d 3e
       0.10023341 -0.41664818 0.41536427 0.30825585
000010 de 26 ee be 7e dc 4f be 4f b3 b6 be d0 31 a1 3e
       -0.46514028 -0.20298955 -0.35683677 0.31483316
000020 9c 64 85 3e 1e 32 fe 3e 2a 25 91 be f5 92 c8 be
       0.2605332 0.4964761 -0.28348666 -0.3917462
000030 0b 7a 86 3e d1 07 bc 3e 24 43 29 3d 63 26 c7 be
       0.26264986 0.36724713 0.041323796 -0.38896474
000040 02 b4 10 bf c4 d2 02 3f 59 5e e9 3e 41 69 68 3e
       -0.5652467 0.5110285 0.45579794 0.22696401
000050 0f ae f1 3d 7b ed 84 3e 75 16 c1 3d 78 91 69 be
       0.11800777 0.25962433 0.094281115 -0.22809398
000060 54 b6 0f bd 52 6c 47 3e e4 55 c2 be aa 10 ff bd
       -0.03508599 0.19474915 -0.37956154 -0.1245435
000070 be ce 05 3f ed 72 05 bf bc 1c ad 3e f8 26 e6 be
       0.5226859 -0.5212849 0.33810985 -0.44951606
000080 d3 45 8a 3d 5c de d2 3e 6c b7 54 3d b6 a2 58 bd
       0.06751599 0.41185272 0.051932737 -0.05288955
000090 bd 08 07 bf d8 a7 10 bf 49 1a 54 3e d5 e9 c1 bd
       -0.5274771 -0.5650611 0.20713152 -0.09468428
0000a0 0a eb 04 3f f1 c0 3e 3d 23 f9 0e bf b8 ab 0c 3f
       0.5192114 0.046570722 -0.558489 0.5494952
0000b0 82 f7 d5 3d 37 0e c1 3e 13 22 b1 3e 5f c6 32 be
       0.10447599 0.37706158 0.3459631 -0.17458485
0000c0 a7 3a bb 3d 91 e2 e1 bc 40 1a 48 3b de 61 95 3e
       0.091420464 -0.027573856 0.0030533224 0.2917623
0000d0 32 d7 ff 3e 28 03 76 be fd eb ea 3e 93 5a 69 be
       0.49968868 -0.24024642 0.4588317 -0.22788458
0000e0 3b 3e 96 be 29 bb 0d bf 8c 16 3d 3e 87 a3 07 3f
       -0.29344353 -0.5536371 0.18465632 0.529839
0000f0 9f 37 2f be f3 3d 89 3d cd 83 86 be 02 2a 4b 3e
       -0.17111062 0.06701269 -0.2627243 0.19840243
000100 72 c3 bd be 15 d1 5d be b2 f2 80 3d 26 83 d6 3e
       -0.37063175 -0.2166179 0.062962905 0.41896933
000110 d7 c6 b2 be 69 24 51 be ec 9d d6 bd 8a ab c8 be
       -0.34917328 -0.20424046 -0.1047934 -0.39193374
000120 b7 6e ee 3e 0e dd f9 3b 24 10 db bd 57 46 18 bf
       0.46568844 0.0076252287 -0.10696438 -0.5948233
000130 4a ab ea 3e 5d 57 d4 3d 51 b7 6b 3e eb 23 96 3e
       0.45833808 0.10368226 0.23019148 0.29324278
000140 cf 73 e8 bc 4b e0 89 3e 97 c4 91 3e c3 51 00 bf
       -0.028375534 0.26928934 0.284703 -0.5012476
000150 69 ef a9 bc ed 33 13 3f 82 76 97 bd f1 fe d9 3e
       -0.020744042 0.5750111 -0.073956504 0.42577317
000160 24 0e 00 3f c4 32 5d 3e 56 6e 9f 3e 08 f4 39 be
       0.50021577 0.21601397 0.31138867 -0.18159497
000170 ca 19 ef 3e da c3 85 be a4 90 d4 3d e6 2e a8 be
       0.46699363 -0.26125985 0.103791505 -0.3284828
000180 83 2a 5d be 19 c3 0f bf c3 52 fd 3e 9a 26 0f bf
       -0.21598248 -0.5615707 0.49477205 -0.55918276
000190 b5 9f ee be 52 14 bd be 05 20 17 be 23 bf 18 3f
       -0.46606222 -0.36929566 -0.14758308 0.5966665
0001a0 c8 dd fc be 07 7d 01 bf 8a 35 c4 be 39 92 f1 3e
       -0.49387956 -0.505814 -0.38322097 0.47181872
0001b0 ef 82 0c 3f 56 76 65 3e dd e8 b5 3e 9c a3 ae be
       0.5488729 0.22408423 0.35529223 -0.341092
0001c0 34 1b df 3e 1c ce ba 3d 25 9a 0f bf 93 c4 02 bf
       0.43575442 0.091213435 -0.5609458 -0.510812
0001d0 c0 91 79 be 5d 4b ab 3e 70 9c dc be 3b 1b d7 3d
       -0.24372005 0.33455935 -0.43088102 0.10503241
0001e0 82 d0 4b 3e aa d5 67 bd fb 05 e6 3c 3c 06 bb bd
       0.19903758 -0.05660025 0.028079024 -0.091320485
0001f0 69 81 1f be b2 a9 5b 3e 0b 0e 8e be 2d da 3b 3c
       -0.1557671 0.21451452 -0.2774509 0.011465591
000200 9d 62 e6 be 1e 95 11 bf 1a 01 d5 3e 40 b2 50 be
       -0.4499711 -0.5686816 0.41602403 -0.20380497
000210 8c 99 09 bf 50 c7 fa be 8f cb 97 3e 9b 99 d1 be
       -0.5374992 -0.48980188 0.2964749 -0.40937504
000220 df 87 0d bf f7 37 44 3e 4f 2b 9a 3e e1 8d 6b 3e
       -0.5528545 0.19161974 0.30111167 0.23003341
000230 83 2e b2 be 29 22 89 bd 87 9a d4 3e 1f 5f f1 be
       -0.3480111 -0.06695969 0.41524145 -0.47142884
000240 6a 42 8d be e3 79 07 bf 0a 66 88 3d b7 e5 f9 3e
       -0.27589732 -0.5292036 0.066600874 0.4880807
000250 b0 00 02 bf f4 b3 dc be 64 03 ce be 1e 85 d9 3d
       -0.507823 -0.43106043 -0.40236962 0.10621093
000260 22 26 52 3e da 38 d7 3e 17 60 23 be fa 8b cd 3e
       0.20522359 0.42035562 -0.15954624 0.40145856
000270 9c 6f aa 3d 3a 70 04 bf cb 12 78 be 27 5b 8a 3e
       0.08322069 -0.51733744 -0.24225919 0.2702267
000280 57 d7 cc 3e 5a cd fd 3e 02 f7 21 3d 66 39 f7 3e
       0.4000804 0.49570733 0.039542206 0.4828598
000290 ab e8 84 3e 44 db 45 3e ef 59 07 bf 73 14 b3 3e
       0.25958762 0.19321924 -0.528716 0.3497654
0002a0 eb 1d 11 bf 57 3f 13 3e 61 56 d3 3e f8 da 89 be
       -0.56686276 0.14379631 0.4127684 -0.26924872
0002b0 ef 30 e4 3e 76 7b c2 be bd ec 6e 3e 60 d9 2c be
       0.44568583 -0.37984818 0.23332496 -0.16879797
0002c0 93 2f 96 be e7 a5 7c 3c d9 b4 f3 be c7 0c dd 3c
       -0.2933317 0.015420414 -0.47598913 0.026983632
0002d0 f5 ea 06 be 3f d8 8e 3e 3a 6b 13 be a1 26 f5 be
       -0.13175566 0.27899358 -0.14396372 -0.47881034
0002e0 c8 c5 ac be 66 92 81 3e 06 ab be bd 5a f0 b5 be
       -0.33744645 0.25307006 -0.09309964 -0.35534936
0002f0 51 bf 1e 3d a2 a7 5d bc 7f f6 44 be 37 72 bb 3e
       0.038756672 -0.013528736 -0.19234656 0.36610577
000300 34 c8 6b 3e 4a 35 9a 3d ba 9d 13 bf 67 f2 87 3e
       0.2302559 0.07529695 -0.57662547 0.26552126
000310 e6 12 c5 be 6e fb 07 3e a1 66 07 3d 69 70 3e bc
       -0.3849098 0.13279507 0.03305686 -0.01162348
000320 20 79 e1 be 46 74 d7 be 56 5c a0 be b6 d7 cb 3d
       -0.44037724 -0.42080897 -0.31320447 0.09953253
000330 48 69 d7 be f6 6d 04 bf 9e 23 a5 bd 0e dd e2 be
       -0.4207251 -0.5173029 -0.08063434 -0.44309276
000340 e7 58 97 3e 6e 30 44 be 5e 55 3a 3e 85 94 e2 3e
       0.29560015 -0.191591 0.18196627 0.44253936
000350 ad 66 9d 3e 98 54 b2 3e a0 f7 0a bf 07 cd 5e 3e
       0.30742398 0.34830165 -0.54284096 0.21757899
000360 81 5b 07 bf bb ba 17 3e 17 e4 c7 3e 97 36 b5 3e
       -0.52874 0.14817326 0.39041206 0.3539321
000370 ac ff c6 bc d5 c9 ae be 09 f3 01 3f 7d d9 8d be
       -0.024291836 -0.3413836 0.5076147 -0.27704993
000380 7f 90 61 3e 65 27 03 be 14 3f 09 3e 67 b3 b7 3e
       0.22027777 -0.12807997 0.13402969 0.3587906
000390 18 38 8b be dc 98 d1 3e eb 2e 35 bd 5c 23 69 be
       -0.27191234 0.40936935 -0.044234198 -0.22767395
0003a0 df fb 50 be c3 9b 05 3f 22 69 64 3e 4a 0f de 3e
       -0.20408581 0.521908 0.2230573 0.4337104
0003b0 df ae aa bd 1e a1 3f 3e d0 89 10 3f 44 c0 ce 3e
       -0.08334135 0.18713805 0.56460285 0.40381062
0003c0 db 17 13 be 9b 0b df be 5e 54 4d 3e 05 67 9f be
       -0.14364569 -0.43563542 0.20051715 -0.31133285
0003d0 f6 b9 82 3d ae dc 9e 3c 5f 2e f9 3c cc a4 6c 3e
       0.063831255 0.019392338 0.03041762 0.2310974
0003e0 9e 15 77 3e 5f c3 14 be 24 10 fe 3e 75 78 57 be
       0.2412934 -0.14527653 0.4962169 -0.21042044
0003f0 00 aa a5 be 17 6e 87 3e 21 6f 79 3e 61 4b 16 bf
       -0.32356262 0.2645118 0.24358799 -0.5870877

conv1.0.bias f4 [100]
000000 4f 93 ba 3e e3 82 da be 69 fd 08 3f de 99 37 be
       0.36440513 -0.42677984 0.53511673 -0.1792979
000010 b0 0d f1 be d4 fd 05 bc 89 a7 36 be c3 67 c9 3e
       -0.47080755 -0.008178193 -0.17837347 0.39336976
000020 3c 6a 01 bf f5 49 ae 3e cd 2e 02 3f f6 25 c5 3e
       -0.50552726 0.340408 0.5085266 0.38505524
000030 70 d6 87 be 44 3f eb be 4f 42 06 be bb 2f fe be
       -0.2653079 -0.45946705 -0.13111232 -0.4964579
000040 18 f6 e1 3d 42 52 89 3e cb de 32 bd 1c 0a 99 be
       0.11033267 0.2682057 -0.043669503 -0.29890525
000050 dc 87 1d 3b 12 4a c8 bb 70 b9 eb 3e fa c5 cf be
       0.0024037277 -0.0061123455 0.46039915 -0.40580732
000060 88 3f 05 3e 19 eb c3 3d 46 c5 5d 3e c7 68 9b be
       0.13012516 0.09566326 0.21657285 -0.30353376
000070 fd 3e dd 3e be dc a8 be 65 d1 66 3e 7a af b8 be
       0.4321212 -0.32980913 0.22540815 -0.36071378
000080 4c d4 ae 3e 32 f1 cd be fe be 99 be 7e 70 a6 3e
       0.34146345 -0.4022308 -0.30028528 0.325077
000090 0a 11 0b 3f 22 f3 23 bb 80 1e 9e be c0 88 dc be
       0.54322875 -0.0025016745 -0.30882645 -0.43073082
0000a0 9d 8f 66 be 17 24 c9 3e fa 17 b8 be eb c8 86 be
       -0.22515722 0.39285347 -0.35955793 -0.26325163
0000b0 9c bc d6 be cb e0 33 3e 6c 3f f0 be 7c 93 df be
       -0.41940773 0.1756622 -0.46923387 -0.4366721
0000c0 8a 10 13 be f1 87 67 bd b0 f8 8e be 75 65 0f 3f
       -0.14361778 -0.05652613 -0.27924109 0.56014186
0000d0 5f 89 0f bf f5 2c fb 3e f1 12 72 be 8d 67 01 bf
       -0.56068987 0.49057737 -0.23640038 -0.5054863
0000e0 1e 15 17 be b3 ca a0 3e 62 c5 6a 3e 54 5a a9 3e
       -0.1475415 0.31404647 0.22926858 0.33076727
0000f0 ac f5 c0 3d 8b fd 39 be 69 f2 8b 3e 94 75 7c 3e
       0.09421858 -0.18163125 0.27333382 0.24654227
000100 da 4f 32 3e 2e b6 fb be b8 b3 f7 3d 0b 06 6e be
       0.17413273 -0.4916243 0.120948255 -0.23244493
000110 92 7c ca be 94 70 0b bf 55 1e 0e 3f da de 60 be
       -0.39548165 -0.54468656 0.55515033 -0.21960011
000120 21 6a 09 3f 50 86 e4 be fd d9 51 be ce 3c 99 be
       0.53677565 -0.44633722 -0.20493312 -0.29929203
000130 1e de d6 3e 56 72 b7 be 33 36 b4 be bb 3e b6 be
       0.41966337 -0.3582942 -0.351976 -0.35594735
000140 f3 f0 11 bf f9 01 8d 3d 67 ef 7e 3e ec 9f 42 3e
       -0.57008284 0.06885142 0.24896012 0.19006318
000150 ae cf b8 3e ae 52 f8 bd 56 7f 0e 3e 53 6a 89 bd
       0.36095947 -0.12125145 0.13915762 -0.06709733
000160 7a b1 8f bd 3b d7 11 bf 8c 79 90 be 62 87 0f 3f
       -0.07016273 -0.5696904 -0.28217733 0.5606595
000170 84 e8 f5 3e 3d 8f eb 3d 36 17 01 3d c1 5e 02 3f
       0.48028958 0.1150193 0.031516276 0.50925833
000180 c1 d6 4b be 62 24 45 be 44 51 64 bd d1 f2 4c be
       -0.19906141 -0.1925216 -0.055741563 -0.20014502

conv1.1.weight f4 [100]
000000 85 b3 80 3f 57 2d 7e 3f 61 98 80 3f 3c 46 80 3f
       1.0054785 0.99287933 1.0046502 1.0021434
000010 5d 9c 7e 3f b7 b0 7e 3f 80 4a 7e 3f cd 2f 80 3f
       0.9945734 0.99488395 0.9933243 1.0014588
000020 8c 71 7f 3f a7 17 81 3f d6 08 80 3f 10 ba 7f 3f
       0.99782634 1.0085343 1.0002697 0.99893284
000030 d6 60 7c 3f a4 8c 7f 3f 1f 97 80 3f 29 71 7f 3f
       0.9858526 0.99823976 1.0046118 0.99782044
000040 5a c7 7f 3f 5b 1b 80 3f ad 41 81 3f 0e 98 82 3f
       0.9991356 1.0008348 1.0098168 1.0202653
000050 9e 7b 7f 3f 94 75 7e 3f f3 fc 80 3f d2 9c 7d 3f
       0.99798 0.9939816 1.0077194 0.99067414
000060 2c b4 7e 3f 2f ba 80 3f f1 de 7e 3f bb 85 81 3f
       0.9949367 1.0056819 0.9955893 1.0118936
000070 fc 95 7f 3f 97 a6 7c 3f fc 57 7f 3f d5 cc 7e 3f
       0.99838233 0.98691696 0.9974363 0.995313
000080 a9 e9 80 3f 7b 36 7d 3f c3 d0 82 3f 7a 33 80 3f
       1.0071307 0.98911256 1.0219959 1.0015709
000090 ee 45 7e 3f 56 96 7f 3f b3 31 7b 3f 88 f2 81 3f
       0.99325454 0.9983877 0.9812271 1.015214
0000a0 82 a4 7f 3f 78 3c 80 3f 73 aa 7c 3f dc 7d 7f 3f
       0.99860394 1.0018454 0.98697585 0.9980142
0000b0 ff 03 7e 3f 63 0a 7e 3f 2d 9d 80 3f 29 72 81 3f
       0.9922485 0.992346 1.0047966 1.0112964
0000c0 84 c6 7c 3f b8 aa 7f 3f 5e ba 80 3f ab 7b 7e 3f
       0.9874041 0.9986987 1.0056875 0.9940745
0000d0 40 4b 7e 3f 0d b8 7d 3f 14 fb 7e 3f 31 cb 83 3f
       0.9933357 0.99108964 0.99601865 1.0296384
0000e0 ee 60 81 3f bb ee 7e 3f c4 7c 80 3f ad e7 7e 3f
       1.0107706 0.99583024 1.0038075 0.9957226
0000f0 67 42 80 3f ec e8 7d 3f b9 b0 7d 3f ce 6e 7f 3f
       1.0020264 0.99183536 0.9909778 0.9977845
000100 c7 cc 80 3f 19 bb 81 3f ad a3 7d 3f 0a 2b 7e 3f
       1.0062493 1.0135223 0.99077874 0.9928442
000110 02 08 7d 3f 5f 11 80 3f 14 35 7e 3f 23 8f 82 3f
       0.98840344 1.0005301 0.9929974 1.0199932
000120 2d 7d 82 3f e9 e0 80 3f 02 46 7f 3f 36 48 7e 3f
       1.0194451 1.0068637 0.997162 0.99328935
000130 ac 5d 80 3f e5 c0 80 3f d4 c0 7e 3f 53 85 7d 3f
       1.0028586 1.0058867 0.9951298 0.9903156
000140 91 67 7f 3f 16 7b 7f 3f d0 3c 7e 3f 76 4b 80 3f
       0.99767405 0.9979719 0.9931154 1.0023029
000150 93 3c 80 3f 2d 6d 81 3f da f5 7e 3f 3c 62 7d 3f
       1.0018486 1.0111443 0.9959389 0.9897802
000160 15 79 7f 3f fa 79 7f 3f 29 0b 7d 3f 11 a0 80 3f
       0.9979413 0.99795496 0.98845154 1.0048848
000170 be 92 7d 3f fb 8b 7d 3f c2 53 80 3f 75 ba 7c 3f
       0.99052036 0.9904172 1.0025561 0.9872201
000180 3e 72 7f 3f 13 db 80 3f 5b a1 7d 3f 4d 5c 82 3f
       0.99783695 1.0066856 0.99074334 1.0184418

conv1.1.bias f4 [100]
000000 eb 91 37 3d 0d 90 96 3c 90 21 29 3d 82 ee 6e bd
       0.044816893 0.018379236 0.041291773 -0.058332928
000010 96 69 85 39 55 27 a1 3c 6f 42 e1 3c 94 c7 e8 3c
       0.00025446404 0.019672075 0.027497498 0.028415479
000020 de 82 43 bb b4 9d 82 bc c4 20 21 3d b4 a4 2d 3c
       -0.0029832642 -0.01594434 0.03933789 0.01059835
000030 66 a8 a2 bc 65 90 ac 3c 44 53 86 3d 97 20 96 3a
       -0.01985569 0.021064946 0.065588504 0.0011453804
000040 83 0b 94 3c e2 a3 e0 3c 11 a7 50 3d 50 b0 71 3d
       0.018071895 0.027421895 0.050940577 0.059006035
000050 5e 75 53 ba 5b 23 ee 3b 64 20 14 3d 24 ab 9e b9
       -0.00080665003 0.0072673983 0.036163703 -0.00030263618
000060 6b b4 0a bb c9 c1 60 3d cc 8f 3f 3c 7f 53 51 3d
       -0.0021164666 0.054872308 0.011691999 0.05110502
000070 d4 57 e4 3c 75 7c 24 3c fb e6 d7 3c bb 8f 7d 3c
       0.027873911 0.0100394385 0.026355257 0.015476163
000080 20 52 59 3d 40 8d ca 3c 5d 24 b8 3d 4b de a4 3c
       0.053056836 0.024725556 0.08991311 0.020125529
000090 9f 46 e7 3c f8 e5 9e 3b 6b e8 74 3b cd f2 c5 3d
       0.028231917 0.0048491918 0.0037369977 0.09665451
0000a0 8f a2 22 3c 0d d2 d0 3c 92 92 22 3c 71 fe f0 bc
       0.009926452 0.025490785 0.00992264 -0.029418202
0000b0 4b b8 a6 3b 04 e3 89 3c 71 c6 00 bc 8e a7 4c 3d
       0.0050878874 0.016831882 -0.007859812 0.04996448
0000c0 e0 7c ef bc a9 dc 00 3d a4 d5 41 3d f5 16 9d 3c
       -0.02923435 0.031460438 0.047322884 0.019175986
0000d0 8b bd c8 bb fd 13 1a 3c 48 81 a5 3c 1b 61 58 3d
       -0.006126111 0.00940418 0.020203248 0.052826982
0000e0 20 46 47 3d f9 24 8c bb 28 d6 fd 3c 75 56 b5 3c
       0.04865086 -0.0042768684 0.030985907 0.022135952
0000f0 14 ee 0f 3c 6b 3a 59 3b 8f 67 27 ba f9 7d c9 bc
       0.00878479 0.0033146392 -0.0006385976 -0.024596201
000100 83 d1 2b 3d 6c d3 41 3d 62 7e 41 3c 70 02 50 bd
       0.041947853 0.04732077 0.011809917 -0.050783575
000110 71 3b 2a 3a c6 5e 53 3b 4a dc b4 3c 26 81 87 3d
       0.0006493843 0.0032252534 0.022077698 0.0661643
000120 6d 82 25 3d 6c 8d 81 3d ca f3 77 ba 4e 5f 3c 3d
       0.040407587 0.06325802 -0.00094586296 0.045989327
000130 47 bf 3f 3d 57 98 c4 3c 34 6e e9 3c e8 3d 00 3d
       0.046813276 0.023998423 0.028494932 0.03130904
000140 ed bf 15 bd a5 c1 1a 3c bc 38 34 ba f6 f4 67 3c
       -0.036559988 0.0094455825 -0.0006874909 0.014157524
000150 f2 97 13 3d d5 90 61 3d 8e 2a 81 3a 9c 70 82 3c
       0.03603358 0.055069763 0.0009854601 0.015922837
000160 63 28 8d 3c 1a 77 ce 3c 0a d4 21 3d f9 20 f8 3c
       0.017231172 0.025203276 0.039508857 0.03028916
000170 2f 18 ee 3b 66 a7 6e 3c b6 88 70 3c a4 9d 41 3c
       0.0072660665 0.014566278 0.014681032 0.01181737
000180 da 83 90 3c 62 56 39 3d 4a 05 84 bc ec 0f 32 3d
       0.017640997 0.045248397 -0.016115803 0.043472216

conv1.1.running_mean f4 [100]
000000 2d 93 ba 3e 58 82 da be 42 fd 08 3f 5d 99 37 be
       0.3644041 -0.4267757 0.5351144 -0.17929597
000010 a5 0e f1 be 83 e9 05 bc d1 a9 36 be 8e 67 c9 3e
       -0.47081485 -0.008173349 -0.17838217 0.39336818
000020 0f 6a 01 bf 19 4a ae 3e d7 2e 02 3f 5f 25 c5 3e
       -0.5055246 0.34040907 0.5085272 0.38505074
000030 2b d5 87 be e3 3f eb be 90 42 06 be 7a 30 fe be
       -0.26529822 -0.4594718 -0.13111329 -0.4964636
000040 a7 f5 e1 3d 7a 51 89 3e ed dd 32 bd 5d 0a 99 be
       0.110331826 0.26819974 -0.043668676 -0.2989072
000050 22 cb 1d 3b a2 26 c8 bb 3e b9 eb 3e f7 c4 cf be
       0.0024077375 -0.006108121 0.46039766 -0.4057996
000060 84 3e 05 3e 4d eb c3 3d da c3 5d 3e d1 68 9b be
       0.13012129 0.095663644 0.21656743 -0.30353406
000070 47 3e dd 3e 5b de a8 be b1 cf 66 3e c6 ae b8 be
       0.43211576 -0.32982144 0.22540165 -0.36070842
000080 a7 d4 ae 3e 38 ef cd be da be 99 be 14 71 a6 3e
       0.34146616 -0.40221572 -0.3002842 0.32508147
000090 3c 10 0b 3f ef 14 24 bb 9a 1c 9e be d0 88 dc be
       0.54321647 -0.0025036891 -0.30881196 -0.4307313
0000a0 16 90 66 be 1e 24 c9 3e f7 16 b8 be 61 c8 86 be
       -0.22515902 0.39285368 -0.3595502 -0.26324752
0000b0 8f bb d6 be f9 e2 33 3e a7 3f f0 be 55 93 df be
       -0.4193997 0.17567052 -0.46923563 -0.43667093
0000c0 76 0e 13 be d6 82 67 bd 87 f8 8e be fb 64 0f 3f
       -0.14360985 -0.05652126 -0.27923986 0.5601346
0000d0 e4 88 0f bf 48 2b fb 3e 23 15 72 be 9c 67 01 bf
       -0.56068254 0.49056458 -0.23640876 -0.5054872
0000e0 1d 15 17 be 01 cb a0 3e 0d c6 6a 3e f6 5a a9 3e
       -0.14754148 0.3140488 0.22927113 0.3307721
0000f0 b6 f5 c0 3d ef fb 39 be fb f2 8b 3e 1a 75 7c 3e
       0.09421866 -0.18162511 0.27333817 0.24654046
000100 98 50 32 3e 33 b6 fb be 12 b6 f7 3d 45 04 6e be
       0.17413557 -0.49162444 0.12095274 -0.23243816
000110 2a 7b ca be 52 70 0b bf aa 1d 0e 3f e0 de 60 be
       -0.39547092 -0.5446826 0.55514014 -0.2196002
000120 19 6a 09 3f 4f 86 e4 be 44 db 51 be 46 3d 99 be
       0.5367752 -0.4463372 -0.204938 -0.2992956
000130 fc dd d6 3e 73 72 b7 be 01 37 b4 be 5b 40 b6 be
       0.41966236 -0.35829505 -0.35198215 -0.35595974
000140 a9 f0 11 bf 40 03 8d 3d f7 ed 7e 3e 7e 9f 42 3e
       -0.57007843 0.068853855 0.24895464 0.19006154
000150 67 cf b8 3e d0 52 f8 bd d0 7f 0e 3e 35 71 89 bd
       0.36095735 -0.1212517 0.13915944 -0.06711046
000160 37 af 8f bd f4 d6 11 bf 1d 7b 90 be 5a 87 0f 3f
       -0.070158415 -0.5696862 -0.28218928 0.56065905
000170 eb e6 f5 3e 4f 92 eb 3d df 15 01 3d fc 5d 02 3f
       0.4802774 0.115025155 0.031515 0.5092466
000180 40 d6 4b be ae 24 45 be 34 46 64 bd c7 f2 4c be
       -0.19905949 -0.19252273 -0.055731013 -0.20014487

conv1.1.running_var f4 [100]
000000 f8 b1 1c 35 09 e6 5b 36 48 11 03 36 1c 5d 32 36
       5.837351e-07 3.276744e-06 1.953058e-06 2.6578264e-06
000010 b9 9d 07 37 d2 c7 c8 36 4d 5a 3c 37 17 8d 6b 35
       8.08335e-06 5.9837266e-06 1.1226698e-05 8.7749635e-07
000020 2a 90 92 35 60 e5 75 35 52 fd 04 35 7e eb 61 36
       1.0919805e-06 9.1603397e-07 4.954246e-07 3.3664687e-06
000030 3b 11 81 37 64 a5 92 36 c3 f8 e3 35 33 dd cd 36
       1.5386022e-05 4.370393e-06 1.6985217e-06 6.135227e-06
000040 74 9e c6 33 43 0d d7 36 d5 98 d0 35 bc 2d 66 36
       9.248916e-08 6.409043e-06 1.5541688e-06 3.4299292e-06
000050 ce 5d 16 36 29 10 5d 36 22 13 87 35 2e 2c 0c 37
       2.2406343e-06 3.2940973e-06 1.0063852e-06 8.354937e-06
000060 1d a2 4c 36 6c 22 c7 35 df bd 97 36 70 c1 dc 35
       3.0492731e-06 1.4836673e-06 4.5222546e-06 1.6447575e-06
000070 d8 27 9a 36 09 2f bf 37 57 c7 c5 36 79 a8 82 36
       4.594196e-06 2.2790877e-05 5.8942637e-06 3.8939147e-06
000080 e3 d6 54 36 85 5c 0c 38 d5 82 4b 35 fb 8e bd 36
       3.1715542e-06 3.3464767e-05 7.581378e-07 5.649284e-06
000090 3c 60 b5 37 b8 c7 b9 35 5b e5 fc 37 c6 3a c5 34
       2.1621694e-05 1.38417e-06 3.0147543e-05 3.6736873e-07
0000a0 b7 55 12 35 c7 e9 99 34 7a 2d 10 37 50 67 26 36
       5.451397e-07 2.8668566e-07 8.593657e-06 2.4796063e-06
0000b0 9a 4c 3e 37 67 d5 43 37 c6 f7 e6 35 80 cd 5a 35
       1.1342718e-05 1.1672592e-05 1.7208447e-06 8.151037e-07
0000c0 5e 08 2b 37 c7 59 cc 36 ad 9a 8d 35 fd c6 f1 36
       1.0194342e-05 6.090125e-06 1.0550335e-06 7.205525e-06
0000d0 e2 be 10 37 63 ff c4 37 79 22 39 37 67 fd de 34
       8.627512e-06 2.3483944e-05 1.1034886e-05 4.1535097e-07
0000e0 0d dd 21 36 f2 d4 67 35 29 98 dc 35 49 48 76 36
       2.4119538e-06 8.636408e-07 1.6435562e-06 3.6698932e-06
0000f0 3e b9 da 33 6b fb e9 36 e7 1d 55 36 5f 73 56 35
       1.01851114e-07 6.97321e-06 3.1756879e-06 7.98891e-07
000100 5e 7f 3d 36 ab 7b 78 34 2e 07 6a 36 32 dc 01 37
       2.8237332e-06 2.314179e-07 3.4872896e-06 7.740267e-06
000110 cb 50 9b 37 58 8a 09 36 5e 75 7f 37 6e 68 df 34
       1.8515062e-05 2.0495117e-06 1.5226511e-05 4.161297e-07
000120 2b fe 0e 36 7e c1 a1 35 a1 72 6d 36 71 1b 41 36
       2.1307594e-06 1.2051748e-06 3.5382475e-06 2.8775214e-06
000130 d0 32 0f 35 f4 4e d1 35 0a 6a d1 36 9c 2a c5 37
       5.3345593e-07 1.5594692e-06 6.24103e-06 2.3504072e-05
000140 9e 5a 51 36 0d c3 97 35 e1 98 97 36 94 66 47 35
       3.1196173e-06 1.1307144e-06 4.517948e-06 7.428255e-07
000150 06 8a cb 35 cd 13 c0 35 38 c2 c1 35 58 25 d4 37
       1.5164849e-06 1.4310878e-06 1.4436146e-06 2.5289759e-05
000160 b7 af 3d 36 26 b0 72 36 74 9b b4 37 39 54 56 35
       2.8265474e-06 3.6163342e-06 2.153006e-05 7.984377e-07
000170 dc 66 bf 37 a4 bb b5 36 08 f7 dd 35 e8 8d b2 37
       2.2816872e-05 5.4160646e-06 1.6537679e-06 2.1285334e-05
000180 40 94 d9 35 9f 16 8d 35 22 91 8a 37 80 01 da 34
       1.6210906e-06 1.0511902e-06 1.6518465e-05 4.0606756e-07

conv2.0.weight f4 [64, 100, 3]
000000 14 4c 0a 3c 3e 7c 23 3b 9b 94 71 3d 35 33 bd 3b
       0.00844099 0.002494588 0.05897961 0.0057739266
000010 97 9d 1e 3d 02 30 04 3c 52 92 00 3d fd 6b 2e bc
       0.038724508 0.008068087 0.031389542 -0.010645864
000020 6e 97 4e bd 90 ff 56 3d 3c 28 4c bd f8 59 9c bc
       -0.050437383 0.052489817 -0.049843058 -0.01908587
000030 1d 1c 16 3d c9 39 c4 bc 07 20 6a bd 59 7b 35 bb
       0.036647905 -0.023953335 -0.05715945 -0.002769193
000040 60 f0 90 3c 43 33 22 bd ee 2d 08 bd c7 14 46 3d
       0.017692745 -0.03959967 -0.033246927 0.04835966
000050 89 f8 38 bd 57 04 e6 bc 47 8b bc bc 71 a5 04 bd
       -0.045158897 -0.028078241 -0.023015631 -0.03238434
000060 fe a0 54 bd 50 12 2a 3d f9 38 92 bc eb 13 7a 3c
       -0.051911347 0.04152137 -0.017849432 0.015263538
000070 54 6b 61 3d 00 35 fd 3b be d1 4b 3d 44 fd 78 3c
       0.055033997 0.0077272654 0.049760573 0.015197102
000080 74 50 47 bd 5b 89 b2 3c 4d 1c 5f bd 18 90 19 bc
       -0.04866071 0.021794012 -0.05447035 -0.0093727335
000090 98 88 b7 bc 77 55 73 bc 0d 31 0a 3d 79 23 51 3d
       -0.022404 -0.014851919 0.033738185 0.05105922
0000a0 15 0f 23 3b 66 da 00 3c 50 03 1c 3c b0 1c 1b bd
       0.0024880816 0.00786457 0.009522274 -0.037869155
0000b0 c0 40 45 3d e3 d1 e2 3c 59 d8 9e 3c 0a e4 4c 3d
       0.048157454 0.027687972 0.019390272 0.050022162
0000c0 d5 ca 91 bc ee cf 7a 3c 99 6b 4c bd f8 a5 71 3c
       -0.017796913 0.015308363 -0.0499073 0.014749043
0000d0 ae 2b 65 bc 45 18 2f bd 7e 49 8c 3b 91 d9 2c bd
       -0.013987465 -0.042747755 0.004281222 -0.042199675
0000e0 56 6c 2d bd e8 e3 8c bd 06 e5 3e bd dd 3c 30 3d
       -0.042339645 -0.06879407 -0.046605133 0.043026794
0000f0 30 35 a1 bc c7 54 fc bc b4 a0 ff 3c f0 dc ad 3b
       -0.019678682 -0.030802144 0.031204559 0.005305879
000100 84 18 47 bb 7b 64 9b bc 34 71 33 bc d5 2d af bc
       -0.0030379603 -0.018968811 -0.010952283 -0.02138416
000110 79 ce 16 bd 20 88 d3 3c 3c 13 db bc a9 b0 3e 3d
       -0.036818 0.025821745 -0.02674257 0.046555195
000120 b2 54 74 bd f3 51 3f bc 07 99 29 bb 32 da b4 3c
       -0.059651084 -0.011677253 -0.0025878565 0.0220767
000130 97 70 b9 3c dd a6 e0 3b 52 48 fc 3c 7f 15 a0 3c
       0.022636695 0.006855829 0.030796204 0.0195415
000140 88 6e 79 bb 94 16 23 bd 70 b8 60 bd 0a d1 25 bd
       -0.0038060267 -0.039816454 -0.054863393 -0.04048256
000150 f3 52 56 bd 95 e4 6a bc 92 6f b3 ba b2 f7 37 3c
       -0.0523252 -0.014336725 -0.0013689867 0.011228489
000160 45 bc 2f bd 68 26 0d 3c fc d7 56 bd 8b b4 14 bd
       -0.042904157 0.008615114 -0.052452073 -0.03630499
000170 78 cc 95 bb e9 bf be 3c 61 fe e7 bb e3 8e 7e bd
       -0.0045714937 0.02328487 -0.007079885 -0.062147986
000180 64 d0 53 bc c6 f5 51 bd bd db 71 bc db 62 10 3d
       -0.012928102 -0.05125978 -0.014761862 0.035250526
000190 54 93 47 3d 90 6d 6f 3d 8a 59 72 3d 29 7d 2f 3d
       0.048724487 0.058454096 0.059167422 0.04284397
0001a0 7f 3a 7b 3d 20 35 c6 39 25 7d c4 3c 86 62 0e 3d
       0.061335083 0.00037805084 0.023985455 0.034761928
0001b0 1c 93 37 bd a5 b0 7b bc c6 d4 db 3c a9 72 3f bd
       -0.04481803 -0.01536194 0.026834857 -0.046740208
0001c0 ca f4 d6 3c f2 d7 56 bd 3a dc cd bc 6a 75 77 bc
       0.026239771 -0.052452035 -0.025129426 -0.015103677
0001d0 9c be 9f ba da 07 d6 3b 85 5f d2 3b b3 46 1c 3c
       -0.0012187543 0.0065316977 0.006420078 0.00953834
0001e0 0f 04 0f 3d c9 17 16 bd fc 7a 16 3d 77 74 d9 bc
       0.03491598 -0.036643777 0.03673838 -0.026544793
0001f0 28 18 4d bd 5b a0 a3 3a b3 7d 7c 3c 4c a7 6b bd
       -0.050071865 0.0012483703 0.015410828 -0.057532594
000200 36 5d cc 3c 0c 3b 8c bc dd c3 ed bb 5b 77 5f 3d
       0.02494679 -0.017118 -0.0072560147 0.054557186
000210 e7 07 1a 3d 87 e5 04 bd bb b8 08 bd f4 6c da 3c
       0.037605193 -0.032445457 -0.033379298 0.026663281
000220 c9 1c 34 3d 5f 4e 1a bd f7 7c 26 ba 39 a7 2c 3d
       0.043972764 -0.037672397 -0.00063510187 0.042151663
000230 cf f5 d8 bc e9 55 9a bb 16 5a 79 3d d7 30 b7 3b
       -0.026484398 -0.0047099483 0.06087693 0.005590539
000240 b5 c7 31 bd 52 40 57 bd c5 af 59 3d 12 c5 f7 bc
       -0.043403346 -0.052551575 0.053146143 -0.030245338
000250 01 31 07 bb fd 9d 35 3d bd 05 68 bd 44 2f 03 3d
       -0.0020628574 0.044340122 -0.056646097 0.032027498
000260 a2 3b e9 3b bd f8 6b bc f9 23 08 bc da 10 aa 3b
       0.0071177045 -0.014402566 -0.008309358 0.005189997
000270 de b8 e4 bb 03 df 61 bd db ab f5 bc 13 91 3e 3d
       -0.0069800457 -0.05514432 -0.029989174 0.046525072
000280 e2 13 1e bc 59 98 6f bb 60 e5 10 bd 47 4f a2 3c
       -0.009648295 -0.0036559312 -0.035375 0.019813193
000290 a4 da 28 3d 65 ec 73 3d b2 dc 48 3d 76 b1 99 3d
       0.041224137 0.059551615 0.049038596 0.07504551
0002a0 9e bc ad 3c 60 d9 9b bc 89 02 2a bd a2 45 5a bc
       0.021208104 -0.01902455 -0.041506324 -0.013322266
0002b0 a7 ab 49 3b c2 70 4d bd b6 c7 2b 3d 18 b4 09 bc
       0.0030772479 -0.050156362 0.041938506 -0.008404754
0002c0 fb a7 15 bd 87 7a e3 3c e0 5e 45 bd 45 64 36 bd
       -0.03653715 0.027768387 -0.048186183 -0.04452922
0002d0 6f b5 9f bc 03 56 f7 ba 07 2e 85 bc a9 51 7c bd
       -0.019495694 -0.0018870238 -0.0162573 -0.061601315
0002e0 6d 23 92 3c 73 92 26 bd 3d 81 bd 3c 48 b1 4d 3c
       0.017839158 -0.04066701 0.023132915 0.012554474
0002f0 9b ba 49 bd 6b cc 47 3b 84 89 f4 bc df 72 43 bd
       -0.049250226 0.0030486833 -0.029850729 -0.04771697
000300 9f a3 5b 3d 0e 9f 03 bd 8b d9 54 bd 82 57 21 3d
       0.053622838 -0.03213411 -0.051965278 0.039390095
000310 67 4b 28 bc 77 3a e4 38 86 40 20 ba b4 c7 c4 bc
       -0.010271884 0.00010882777 -0.00061131304 -0.024021007
000320 9a 15 70 3c 97 4e 1f 3d 7e 33 50 bd ed ca d1 bc
       0.014653588 0.03889331 -0.050830357 -0.025609458
000330 1f 61 7d bd f0 16 65 3d c4 5d ee 3c ad 7d 1c 3c
       -0.0618602 0.055930078 0.029097445 0.009551448
000340 2c ba cf 3c d6 a1 dc 3c fa 0b 84 bc 41 79 5c ba
       0.025357328 0.026932638 -0.016118992 -0.0008410402
000350 65 c4 d4 3c 4e 20 9c 3b cf 28 5d 3c d6 21 1d 3d
       0.025972554 0.004764593 0.013498499 0.038362347
000360 ff 0e 68 bc a3 1d 6f bd 20 25 00 bd 72 15 56 bc
       -0.014163732 -0.058377873 -0.031285405 -0.013066636
000370 81 ae 07 3d 0a d3 1b 3d bf a1 46 bd 8d 1a 0f bd
       0.033125404 0.03804306 -0.048494097 -0.03493743
000380 c6 de 5c bb 6f 48 83 bc 52 72 40 bd 7c 43 98 bb
       -0.003370212 -0.01602575 -0.046984024 -0.0046467166
000390 21 9b 55 bc 4b 12 3e bb 48 8f 5f 3c cf 9e 14 bd
       -0.013037474 -0.0029002603 0.013645001 -0.036284264
0003a0 10 13 27 3d 8a ef 08 bd 8a d4 64 bd f4 5a 98 bc
       0.040789664 -0.033431567 -0.055866756 -0.018598057
0003b0 80 3c 0c 3d 76 58 57 bc d5 7b 98 bb 65 1a 24 3c
       0.034237385 -0.013143649 -0.004653434 0.010016059
0003c0 91 e7 85 bc b9 50 2f bd fe f4 27 3d b6 25 9b bb
       -0.016345771 -0.042801592 0.041005127 -0.00473472
0003d0 02 c8 3c 3d 23 5f 81 bd 80 5d 55 bd 1b 3c 3d bd
       0.04608918 -0.06316974 -0.05209112 -0.0461999
0003e0 91 3e 12 3d 13 31 f2 3b 45 16 4d bd ca 88 72 bc
       0.0357042 0.007391104 -0.050070066 -0.014803121
0003f0 93 b5 4a 3c ff 79 85 bc 93 dd 1f 3d fc c8 99 3b
       0.012372392 -0.016293524 0.03902967 0.0046931487

conv2.0.bias f4 [64]
000000 cd 03 f8 bc af 0e 74 3c 17 d4 47 bd 9f de 1a bd
       -0.03027525 0.014896079 -0.04878625 -0.037809964
000010 eb 28 61 3c 70 43 e6 3c 9b ba 6a 3c 3c 94 e6 bc
       0.013742666 0.028108329 0.014326717 -0.028146856
000020 cf ea 16 bd d8 fb 3c 3c 8d 4d 27 3d 5d ef cf 3c
       -0.036845025 0.011534654 0.040845443 0.025382692
000030 ed f7 52 3d 01 44 ac 3c c5 b1 55 3d 0e 9a 31 bc
       0.05150597 0.02102852 0.052171487 -0.010839952
000040 f1 46 d1 3c 07 db 1a bd 53 e3 bf bc a0 fa 6b 3d
       0.025546523 -0.037806537 -0.023423826 0.05761206
000050 7c 2e 1c 3c 76 da d9 3c 27 57 59 bd 81 77 d9 3c
       0.009532567 0.026593428 -0.05306163 0.026546242
000060 55 b2 27 bc 31 74 82 bc 3c d4 fb 3c 87 6b d3 bc
       -0.010235389 -0.015924545 0.03074085 -0.025808109
000070 0d b9 5d bc 91 b3 2b bd 74 63 08 bd 05 61 d8 3c
       -0.013532889 -0.041919295 -0.03329797 0.02641345
000080 0c 6f 2e bc a5 1e 10 3d 4c ec e9 b9 5a 3f 36 bc
       -0.010646593 0.035185475 -0.00044617278 -0.011123503
000090 5d 73 48 bc 95 86 29 3d 70 c3 fe 3c 2c 2d a6 3c
       -0.012234536 0.041388113 0.031099051 0.020285212
0000a0 e0 77 94 bc 44 03 03 bd 9c 61 63 3d f9 81 3f bd
       -0.018123567 -0.031985536 0.05551301 -0.04675481
0000b0 43 01 d3 3b 43 f3 64 bd 17 f5 57 3d 52 40 18 3c
       0.0064393594 -0.055896055 0.05272397 0.009292679
0000c0 c4 13 95 3c 7c e5 1e 3c 0f 74 5f bd 80 67 2d 3d
       0.018197902 0.009698268 -0.05455404 0.042335033
0000d0 2c 24 ea 3c 8e 65 e6 3c b1 ec 16 bd 21 e5 09 3d
       0.028581701 0.028124597 -0.03684682 0.03366578
0000e0 47 4b 2d 3d b0 fa 60 3c aa 21 61 bc 0d bd 40 3d
       0.04230812 0.013731644 -0.013740936 0.047055293
0000f0 af f0 a9 bc 4c db 5c bd 6b 5f 53 3d 93 f2 31 3c
       -0.02074465 -0.053920075 0.05160467 0.010861057

conv2.1.weight f4 [64]
000000 c1 08 80 3f cc ed 80 3f 1b 81 80 3f f8 85 7f 3f
       1.0002671 1.007257 1.00394 0.99813795
000010 8e 91 7f 3f 2d 0d 81 3f 76 be 80 3f b8 75 80 3f
       0.99831474 1.0082146 1.0058124 1.0035925
000020 c9 eb 7f 3f 64 72 80 3f 8b 24 7e 3f 46 2f 80 3f
       0.99969155 1.0034909 0.9927451 1.0014427
000030 20 35 81 3f 78 8a 7a 3f 9b 82 80 3f 8d 07 80 3f
       1.0094337 0.97867537 1.0039858 1.0002304
000040 1d 43 7f 3f fc cf 80 3f 46 e8 7b 3f fc ff 7f 3f
       0.9971178 1.0063472 0.98401296 0.99999976
000050 df 9f 81 3f ac f7 80 3f a3 e6 7f 3f cc 94 80 3f
       1.0126914 1.0075583 0.999613 1.0045409
000060 3f e3 80 3f 13 1f 81 3f ff 71 82 3f af 65 7b 3f
       1.006935 1.0087608 1.0191039 0.9820203
000070 7f d6 7a 3f 75 7c 7c 3f f9 e1 7b 3f 3c f3 7e 3f
       0.97983545 0.98627406 0.9839168 0.99589896
000080 7b 5b 83 3f 4c fe 7c 3f 60 2f 7b 3f f6 81 80 3f
       1.0262293 0.98825526 0.98119164 1.0039661
000090 80 b4 7c 3f d9 06 80 3f a5 1d 81 3f bf 0d 7f 3f
       0.9871292 1.000209 1.0087172 0.9963035
0000a0 4e dd 7f 3f ae 8a 7d 3f 6b 50 80 3f 9d 2e 7f 3f
       0.9994706 0.99039733 1.0024542 0.996805
0000b0 22 6d 80 3f db 2e 7f 3f bd 3c 7e 3f cc 18 81 3f
       1.0033305 0.9968087 0.9931143 1.0085692
0000c0 81 5f 7d 3f 97 74 80 3f d7 64 7c 3f 0a d7 7f 3f
       0.9897385 1.003558 0.9859137 0.999375
0000d0 f7 4c 7f 3f e2 76 80 3f c6 da 81 3f cf b6 80 3f
       0.99726814 1.003628 1.0144889 1.0055789
0000e0 fa 4d 80 3f 95 26 80 3f cf cc 7f 3f 0b df 7f 3f
       1.0023797 1.0011774 0.9992189 0.9994971
0000f0 a7 47 80 3f 6c b5 82 3f dd 40 7f 3f f7 ed 7e 3f
       1.0021867 1.0211616 0.9970835 0.99581856

conv2.1.bias f4 [64]
000000 c9 f7 36 bb fc 78 a0 3c d4 40 48 3b 6c 29 22 bc
       -0.0027918688 0.01958894 0.0030556219 -0.009897571
000010 1e 2a 58 3c 84 85 cc 3c 8a 71 d6 3b c7 85 c3 3b
       0.013193635 0.024966009 0.0065442966 0.0059668752
000020 2a 69 4c 3c 05 bc e0 3c 65 bc ad 3c 8e 39 ac bb
       0.012476245 0.027433405 0.021207998 -0.0052558845
000030 e7 54 48 3c 91 ac c6 3b a9 fe 54 3c a3 71 fa 3b
       0.012227274 0.006063052 0.013000169 0.007642941
000040 6f 8f 76 3a ff 4a 02 3d c6 1b 90 bb 13 53 b4 3c
       0.00094055285 0.031809803 -0.004397842 0.02201227
000050 67 06 c1 ba 3a eb e6 3b 4f 1b 7c 3b 70 01 62 bb
       -0.001472664 0.007047084 0.0038468426 -0.003448572
000060 d1 cf 0f 3d df d5 6b 3c 3f d8 15 3b 86 7d 76 bb
       0.0351103 0.014394253 0.0022864488 -0.003761144
000070 c9 9c 4d 3b 82 02 5c 3c 6d 11 2c 3c db ca 12 3c
       0.0031373969 0.013428332 0.0105022015 0.008959497
000080 b7 a7 1b 3d 6f a6 c1 b9 ae a5 cf 3c fe ff 21 3c
       0.038001742 -0.0003693583 0.025347557 0.009887693
000090 e8 14 f4 bb 58 1a c5 3b 38 ef 25 3d c1 73 2c 3b
       -0.0074487813 0.0060151033 0.04051134 0.0026314112
0000a0 28 25 51 38 c2 85 42 3c 39 72 22 3c 39 49 da bb
       4.9864087e-05 0.011872711 0.009914928 -0.006661561
0000b0 3d cf 3b 3c 97 a6 63 bc f1 b6 8c 3c 34 24 92 3c
       0.011462984 -0.013894699 0.017177077 0.017839529
0000c0 21 c9 22 bb 45 74 c0 bb 05 8f e3 bb 01 8e 90 bb
       -0.002483912 -0.0058732354 -0.0069445395 -0.0044114594
0000d0 cd 3b 15 3d ea 35 46 3c 8f cd 14 3d 1f 3d f1 3b
       0.036433984 0.012097815 0.03632885 0.0073620225
0000e0 df c2 3c 3c c2 20 ee 3c 0b ac 23 3c c9 c4 1f bc
       0.01152107 0.029068355 0.009989749 -0.009751507
0000f0 c0 21 88 3b 1b 7d 05 3d fd 70 85 3c 5d bb a6 ba
       0.004154414 0.032590013 0.016289229 -0.0012720634

conv2.1.running_mean f4 [64]
000000 79 6c 09 be 6a ea 91 bd 76 63 3a be 06 81 61 be
       -0.13420285 -0.07124789 -0.18202004 -0.22021875
000010 b2 d1 85 be a1 29 b3 3c 76 60 17 be 9a 03 e2 bd
       -0.26136547 0.021870436 -0.1478289 -0.11035843
000020 12 8a 21 be ac 2e 86 3d 25 92 47 3d 2d 20 2a be
       -0.15775326 0.06551871 0.04872336 -0.16613837
000030 c8 42 8b bd 39 55 94 3e 24 9c 0c be 5b dc f3 bd
       -0.06799847 0.2897127 -0.13731438 -0.11907264
000040 89 cc 20 3b d8 28 13 be 36 1c f2 3d 9b 4f a5 3c
       0.0024535975 -0.1437105 0.11821787 0.02017956
000050 ab be 05 be ff 0d be bd 66 3e 35 be af c6 9b bd
       -0.13061015 -0.09280013 -0.17699584 -0.07606255
000060 e7 9e 9f bd 53 98 3f be bd d6 1a be 6c ba 14 3e
       -0.0779398 -0.18710451 -0.15120979 0.1452424
000070 89 69 43 3e e2 c0 0f 3e 54 8c 27 3e 5f ab c2 3d
       0.19083227 0.14038423 0.16362125 0.09505343
000080 df 62 0d be cf d5 62 3e bb eb 9f 3c ba 64 f1 bd
       -0.13807248 0.22151874 0.019521585 -0.1178679
000090 d8 8c 52 3e 64 95 a8 bd a2 d2 7e 3d 49 5d e9 bc
       0.2056154 -0.08231619 0.062212594 -0.028486865
0000a0 1f 19 cc bd 56 e3 99 bd 8d 06 3b be da 14 ed bd
       -0.09965729 -0.07514064 -0.18264218 -0.11576243
0000b0 a8 04 22 be ad 0c 4f be 3a df 4a 3d 64 74 2e be
       -0.15822089 -0.20219679 0.04952929 -0.17036587
0000c0 27 d4 33 bc e3 b2 04 be f4 73 fb 3c 90 5f d8 bd
       -0.010975874 -0.12958865 0.03069494 -0.10565102
0000d0 91 e6 9b 3d 7d fc 97 bd 68 16 ad bd c5 5a e9 bd
       0.076123364 -0.07421205 -0.08451539 -0.11394266
0000e0 61 b6 98 bd fa 2f f7 bb e4 bb d9 bd c9 42 2d be
       -0.07456661 -0.007543561 -0.106315404 -0.16920008
0000f0 55 0b 7f be 7a f5 b5 bd b7 24 e6 3c 97 7c 86 bd
       -0.24906667 -0.088847116 0.028093679 -0.065667324

conv2.1.running_var f4 [64]
000000 23 4f 05 3e 5d 9f a4 3d d8 a8 33 3e 90 9d 1b 3e
       0.1301847 0.08038209 0.17544878 0.15196824
000010 42 14 b1 3e 31 52 72 3d 52 fd 25 3e 66 0b e1 3d
       0.34585768 0.059160415 0.16209915 0.10988502
000020 2a ae b6 3d d8 94 97 3d 5a 16 fe 3c 42 29 f9 3d
       0.08919938 0.074014366 0.031016517 0.121660724
000030 a7 62 d6 3d b9 f3 ac 3e d2 36 60 3e b7 61 b7 3d
       0.10468035 0.33779696 0.21895912 0.089541845
000040 8d 8e 01 3e 8f da ba 3d e3 e3 93 3d 6b fa de 3d
       0.12652035 0.09123718 0.072212 0.10887607
000050 29 e9 cf 3d f6 61 fd 3d 79 4b 1d 3e e3 d1 89 3d
       0.10151894 0.123722 0.15360822 0.06729486
000060 57 e3 0c 3e 74 50 f9 3d 39 67 1f 3e 1b c7 27 3e
       0.13758598 0.12173548 0.1556672 0.16384546
000070 19 5e 83 3e 4e 3c 54 3e e6 fb 49 3e 06 eb ac 3d
       0.25657728 0.2072613 0.19724998 0.08443265
000080 d6 d4 06 3e d7 e1 52 3e 98 9a 86 3d c3 0c c2 3d
       0.13167128 0.20593964 0.06572455 0.0947509
000090 eb df 89 3e d8 e6 dc 3d fe 94 ac 3d 7c d6 71 3e
       0.26928648 0.107862175 0.084268555 0.23616976
0000a0 e9 04 00 3e cf ca ef 3d 4d ca 77 3e 33 14 3f 3e
       0.12501873 0.117086045 0.24198265 0.18660049
0000b0 30 92 cc 3d 88 52 d6 3d ca d4 ac 3d 3c 00 89 3e
       0.099888206 0.1046496 0.08439024 0.2675799
0000c0 df 2c 0e 3e 4f 16 11 3e 4c 21 1b 3e 51 f7 49 3e
       0.13884304 0.14168666 0.1514942 0.1972325
0000d0 23 91 85 3d 54 e8 b4 3d d5 42 77 3e ae d3 c9 3d
       0.06521823 0.088333756 0.24146588 0.09854828
0000e0 b2 19 86 3d 65 97 01 3e d1 f8 0c 3e 88 88 80 3e
       0.0654787 0.12655409 0.13766791 0.25104165
0000f0 e4 7f 43 3e e8 1a a1 3d 64 3d 10 3e 3b 13 22 3e
       0.19091755 0.0786646 0.14085919 0.15827648

conv3.0.weight f4 [128, 64, 3]
000000 e0 16 e3 3c ba d5 45 3d 55 6c 90 3d 22 46 c5 bb
       0.027720869 0.04829953 0.07051913 -0.0060203234
000010 29 89 1d 3d c7 04 ea 3b c3 a8 b7 bc de d4 33 3d
       0.038460884 0.007141683 -0.022419339 0.043904178
000020 36 cc 70 bd e6 65 5c bb 9d d8 86 bd cf 7c 88 3d
       -0.0587885 -0.0033630072 -0.065842845 0.0666443
000030 76 f1 9f 3c a3 73 c7 3c 5e e2 6d bd f0 f3 3d 3c
       0.019524317 0.024347132 -0.05807721 0.011593804
000040 4e d2 c4 3b 51 d7 b6 bc 4c a6 05 bd 3f 3b 41 bd
       0.0060065156 -0.022319468 -0.032629296 -0.047175642
000050 4f dc 33 3b 24 b0 07 3b bb f4 7c 3c 2e a5 57 3d
       0.0027444547 0.0020704353 0.015439208 0.052647762
000060 7b 9a e4 bc 42 ef f4 3c 7b 69 07 bd e0 e0 8e 3d
       -0.027905693 0.029899243 -0.03305958 0.06976485
000070 79 f7 52 bd 09 c1 5f bd 4d 3d 2b bd d1 aa b8 3c
       -0.05150554 -0.054627452 -0.041806508 0.02254239
000080 71 ad 45 3b 8f 45 c9 bc 1a b7 95 3c 46 55 32 3c
       0.0030163194 -0.024569301 0.018275786 0.010884589
000090 04 7e 1b 3a d7 05 86 3d b1 70 ed 3b 64 92 8e bc
       0.00059315586 0.065440826 0.0072461 -0.017403789
0000a0 75 6b 60 3d 32 fb 38 bd ad 33 8f bd 11 24 53 3d
       0.05478998 -0.045161434 -0.06992278 0.051548067
0000b0 de fd 5e 3d 19 8a 79 3d 2d a4 3b bd 56 e4 0a bd
       0.054441325 0.060922716 -0.045810867 -0.033909164
0000c0 08 6d 5f bd 1e d7 6f 3d 98 ad 22 bd b7 e0 65 bd
       -0.05454734 0.05855476 -0.039716333 -0.056122508
0000d0 87 e2 15 3c 6f ac 71 bd 32 16 83 bd 0e f8 4a 3c
       0.009148247 -0.059002336 -0.06400718 0.012388242
0000e0 0c 1b 65 bd 4f 5c 07 3d 0e bd bf 3c 7c 59 38 3d
       -0.055933997 0.033047017 0.023405578 0.045007214
0000f0 49 3a 3b 3c 6c 9b 16 bc 13 c0 d6 bb 02 b5 a0 bc
       0.0114274705 -0.009192329 -0.0065536587 -0.019617561
000100 bd 12 94 3d 54 22 0d bc 9e 18 ae 3b 82 12 2a bd
       0.072301365 -0.0086141415 0.005312993 -0.041521557
000110 f5 41 8f 3d b4 04 d7 bc 7c b4 3d bd 9b fd 38 3d
       0.06995002 -0.02624736 -0.0463147 0.045163732
000120 e3 b9 9d bc 23 54 30 3d 2d bb 6d 3d 1b 87 63 3d
       -0.019253677 0.04304899 0.058039833 0.05554877
000130 7a af 5b bd cf 8c 8a ba 70 73 fc 3c a2 cf d5 bc
       -0.053634144 -0.0010570529 0.030816764 -0.026099984
000140 fa 7b 50 3d bd 97 16 3d dc 17 1e 3c e5 00 5c bc
       0.050899483 0.036765803 0.009649243 -0.013427948
000150 17 56 86 bd d5 3c 5b 3d 40 c6 8a 3d 54 78 9f 3b
       -0.06559389 0.05352481 0.067760944 0.004866639
000160 1d 12 3d bd d6 3a bf 3c ec 98 c5 3b a3 fe 4d bd
       -0.046159852 0.023343485 0.0060301926 -0.05029167
000170 24 5c 34 3d dd 11 b8 3c 2a d2 70 bd 36 2f 03 bd
       0.044033185 0.022469455 -0.058794178 -0.032027446
000180 a9 41 4c 3c 2e 02 29 bd ba 1c 88 3d 04 c7 19 3d
       0.0124668265 -0.041261844 0.06646104 0.03754331
000190 2d b8 a4 3c 91 97 39 bd 17 66 5e 3d 33 6a 6c bd
       0.020107353 -0.04531056 0.05429658 -0.057718467
0001a0 2e 9f 0d bd 23 9d 64 bd 8d 40 ed 3c b8 4b 9f bc
       -0.034575634 -0.05581392 0.028961444 -0.019445285
0001b0 b4 38 d6 bc 67 22 5a bd 92 ec d6 3c 21 0e 7f 3d
       -0.026150085 -0.053255465 0.026235852 0.062269334
0001c0 a7 11 11 bd 0d b4 83 3d 64 61 82 bc 33 04 9e 3a
       -0.035417225 0.06430826 -0.01591558 0.0012055695
0001d0 7d 6c 58 bd 01 c5 80 b8 91 8a 9a bc 56 d1 1e 3d
       -0.052837837 -6.1402105e-05 -0.018864902 0.038773857
0001e0 2c df 0c 3c 72 e2 6f 3d 02 50 8b 3d a9 e1 e9 bc
       0.00859813 0.058565564 0.0680237 -0.028549986
0001f0 c4 f1 75 bd b7 30 91 3d 64 f4 2e 3d 41 80 53 3d
       -0.06004502 0.0708937 0.042713538 0.051635984
000200 73 68 8c 3d f9 03 82 bd f9 35 04 bd 92 c1 24 3d
       0.068558596 -0.06348414 -0.032278035 0.040223666
000210 c8 df 66 3d 4c ee e8 bc 8b f8 be bc 81 04 4a 3d
       0.05636576 -0.028433941 -0.023311874 0.0493207
000220 f1 ea 88 bd 08 9f d6 bc 12 a9 a8 bc 26 f5 83 3d
       -0.066854365 -0.026198879 -0.020588432 0.06443243
000230 31 d2 0e 3d 56 0c 1f 3d 18 ba 03 bc 64 1e 03 3a
       0.034868423 0.038830124 -0.008039974 0.0005001782
000240 db d3 35 bd 2e 45 a2 bc ee 81 2d bd d8 00 8e bd
       -0.044391494 -0.019808378 -0.04236024 -0.06933755
000250 cf eb d5 bc 82 d8 44 3c 6b 66 e6 3c 17 c8 c8 3c
       -0.026113419 0.01201451 0.028125009 0.024509473
000260 a6 2b 86 bd f4 c4 6d 3d 48 2d a5 bc 30 17 f4 bc
       -0.06551294 0.058049157 -0.020163193 -0.029796213
000270 09 95 48 bd fb 5f 75 bd 32 70 81 3b 59 21 2f bd
       -0.048970256 -0.059905987 0.0039501423 -0.042756412
000280 c1 93 a7 bb ec 6a 8f 3d c1 7c 79 bd 32 ef b0 3c
       -0.005114049 0.070028156 -0.06090999 0.021598432
000290 57 c3 da bb dc 48 aa bc 22 26 55 bd 8a dc 8c bd
       -0.0066761184 -0.020786695 -0.05203832 -0.06878002
0002a0 07 10 84 3c d0 11 52 bc 59 53 3c bd b5 be ab 3c
       0.016120924 -0.01282163 -0.045977924 0.02096496
0002b0 fb 73 4c 3d 8d c4 a8 3a 75 1c 03 3d 39 4f 6e bc
       0.049915295 0.001287596 0.03200956 -0.014545255
0002c0 07 53 c0 bc d1 7d e5 3b 42 16 20 bd 42 89 94 bb
       -0.02347709 0.007003524 -0.039083727 -0.004532964
0002d0 64 85 79 3d 93 7b e3 ba e9 c3 56 3d fb a0 83 3c
       0.060918227 -0.0017355554 0.05243293 0.016067972
0002e0 54 de 67 bd 90 a3 77 bd 2f 9e 8d bd 9c cc 89 bd
       -0.056608513 -0.06045872 -0.06914937 -0.06728479
0002f0 52 8b 33 3d 98 f4 91 bd 75 4c 87 bc 67 07 7c bc
       0.043834038 -0.07126731 -0.01651595 -0.015382624
000300 74 bb 71 3d 30 b0 13 3d eb 41 0c 3d f5 fa d2 3c
       0.05901666 0.036056697 0.03424255 0.025754431
000310 58 c8 88 3c 9b 30 8f bd fc d0 c9 bc a5 8f cc 3b
       0.016697094 -0.06991693 -0.024635784 0.0062427097
000320 f5 4d 3d 3c d5 8e 1a 3c ac 5a 68 bd ba 6a 57 3d
       0.011554231 0.009433468 -0.056727096 0.052592017
000330 2c 7e 52 bd 00 af fd 3c 67 cc 14 3b 1a 80 10 bc
       -0.051389858 0.030967236 0.002270484 -0.008819604
000340 2a 81 66 bd 67 6e f3 bc 0c 49 72 3d 35 6e 5a 3d
       -0.056275524 -0.02971573 0.059151694 0.053327758
000350 49 07 4a 3d 76 10 d9 bc f3 1e 8d 3d 51 04 aa bb
       0.049323354 -0.026497107 0.06890669 -0.005188503
000360 ab a3 2d 3d a6 9e 0e 3d bd fd 82 3d 82 74 96 3d
       0.042392414 0.034819268 0.06396053 0.07346441
000370 25 67 87 3d b8 4c 00 bc d5 35 c8 3c ee 6a 39 bd
       0.0661147 -0.007830791 0.024439732 -0.04526799
000380 03 91 8f 3c 31 4e d4 3c e6 78 31 bd 4b 69 7c bd
       0.017525202 0.02591619 -0.04332819 -0.061623853
000390 05 3e 55 bc 3c 2a 23 bc 35 5a 35 3d fe 9c f7 bc
       -0.013015275 -0.0099588 0.04427548 -0.030226227
0003a0 51 b5 9c bc cc 5c 3b 3d 0b e6 6a 3c a0 c3 6b ba
       -0.019129427 0.045742795 0.014337073 -0.0008993689
0003b0 8b 34 4d bd c6 4e 28 bd 76 11 fc bc c7 70 87 bd
       -0.050098937 -0.04109075 -0.030770045 -0.066133074
0003c0 4c 9d 53 bc 60 b4 50 3d 3b cc 8f 3c ff a8 6b 3d
       -0.0129159205 0.05095327 0.01755344 0.057534214
0003d0 6b 0b 51 bd f1 39 0a bd e9 a2 c8 3c da 5f 3c 3c
       -0.05103628 -0.033746663 0.024491744 0.011497462
0003e0 d6 f5 9b bc 91 2b a3 bb 5c 33 7d 3d 29 75 38 bd
       -0.019038122 -0.0049795588 0.06181656 -0.045033608
0003f0 31 53 06 bc 2f ba b3 bc 96 10 46 3d 03 c7 36 bd
       -0.008198545 -0.021939365 0.04835566 -0.044623386

conv3.0.bias f4 [128]
000000 40 48 09 bc 3b 06 b9 3c 9c 5c e0 bc 5d ce 7a bd
       -0.008379042 0.022585979 -0.02738791 -0.06123196
000010 12 2f 47 bd c1 60 89 3d 4a b5 e3 3c 7a d8 13 bd
       -0.048628874 0.067079075 0.027796406 -0.03609512
000020 0b 5b 90 bd 32 8a a4 3c d9 5a 8d bd a9 f3 64 bd
       -0.07048615 0.020085428 -0.069020934 -0.055896435
000030 c1 1b cf 3c fd 6d 84 3c b1 fa 28 bd 6e 81 93 3c
       0.025281789 0.016165728 -0.041254703 0.018006053
000040 8f 9a 7b bd c1 71 e2 3c c3 86 2c 3d 16 c3 ac bc
       -0.061426695 0.027642133 0.042120706 -0.021089118
000050 f5 3d 3f 3d c0 f1 59 3d 92 87 41 bd 21 63 88 bc
       0.046689946 0.053209066 -0.04724843 -0.01664883
000060 17 bf 92 3d b8 f3 46 3d 2d 20 92 bd 6d 37 26 bd
       0.07165354 0.048572272 -0.07135043 -0.040580202
000070 5f ac ab b8 18 c8 2f bd 0d 29 85 bc 52 e6 52 bb
       -8.186022e-05 -0.042915434 -0.016254926 -0.0032180739
000080 1e d4 50 bd b3 fe ad bc c6 50 4a bd 37 17 28 3c
       -0.05098354 -0.021239614 -0.049393438 0.010259441
000090 33 33 78 3d cd 9d 05 3d 42 3b 7a bd f8 74 e5 3c
       0.060595702 0.032621194 -0.06109167 0.028009877
0000a0 11 8c 43 bd cd 1d 97 bb 19 ee 92 3d fe bf 46 bc
       -0.047741 -0.004611707 0.0717432 -0.012130735
0000b0 08 6e 0f 3d 57 67 27 3d 50 49 49 3d 2d 2c 6d 3d
       0.035017043 0.040870037 0.049142182 0.057903457
0000c0 2e 97 1b 3c b4 cf 4b bd f4 3e 85 bd ae 80 9a 3c
       0.009496493 -0.049758628 -0.06506148 0.018860187
0000d0 fe e6 6e bc 5c bb bd 3c 82 ea d8 bb f8 6a c8 3c
       -0.01458144 0.023160629 -0.0066197524 0.02446507
0000e0 54 cc 92 3d af 04 72 3c 49 e1 db 3c 46 00 05 b9
       0.07167879 0.0147716245 0.026840823 -0.0001268397
0000f0 ce d8 59 bd 8b 94 87 3d 5d c5 1a bd ce 59 6c bc
       -0.053185277 0.06620129 -0.037785877 -0.014425708
000100 48 e0 96 3c b4 eb b5 b9 e4 c0 40 bd 4b 63 52 bd
       0.018417493 -0.00034698623 -0.047058955 -0.051364224
000110 52 6d 4f 3c 4a cc e2 bc 8d 32 aa 3c be 6a 75 3d
       0.012660341 -0.027685303 0.020776058 0.05991625
000120 1f 0f 7f bd c5 3d 00 3d 19 75 37 bd 8e c3 93 3d
       -0.06227028 0.031308908 -0.044789407 0.072150335
000130 d0 2a 82 3b c9 5d 32 3d a1 65 8e bd 6e fc e4 3c
       0.003972389 0.04354647 -0.06952978 0.0279524
000140 75 c1 08 3d d7 c9 19 bd 69 45 81 bc f8 26 47 bd
       0.03338762 -0.037546005 -0.015780168 -0.048621148
000150 22 ae 25 bd 92 e9 72 bc 74 73 1d 3c d5 27 38 bd
       -0.04044927 -0.014826195 0.009610046 -0.04495986
000160 4f 77 f9 3c d6 1c 1e bc 73 23 b9 3b bb d8 a2 bc
       0.030452399 -0.00965043 0.005649978 -0.019878736
000170 49 19 d4 3c 46 88 dc 3b df 43 54 bd 59 0c 2d 3d
       0.025890963 0.0067301122 -0.05182254 0.042248104
000180 c2 65 00 3d 20 f1 92 3d a8 08 1f 3d 75 37 92 bd
       0.031347044 0.07174897 0.038826615 -0.07139484
000190 e3 81 b5 bc 3c aa d1 bc 8f a5 ea 3c 1f 87 9d 3c
       -0.022156661 -0.02559387 0.028643398 0.01922947
0001a0 ee b5 c4 3b bd ae e5 3c c7 5e 4c bd e0 e2 1d 3b
       0.006003133 0.028037423 -0.049895074 0.0024091527
0001b0 0f f5 65 3d 7b eb c1 bc 19 47 ee 39 f7 41 19 bd
       0.05614191 -0.023671856 0.0004544787 -0.037416425
0001c0 25 dc 68 3d f1 29 73 3c 3c e9 35 3d 93 ac 9a bc
       0.05685057 0.014841543 0.044411883 -0.018881118
0001d0 7c 54 8d bc 9e 07 1c 3d 19 f7 a8 3c 98 6b 15 3d
       -0.0172522 0.0380932 0.020625638 0.036479563
0001e0 0b 8d bb 3c 2d a5 80 3d 9f 8b 24 bc 62 a6 8f bd
       0.022894403 0.06281505 -0.010043054 -0.07014157
0001f0 d8 68 3f ba 26 7c b1 3c 6a 14 8b bd cf 6f 8b 3d
       -0.0007301695 0.021665644 -0.06791003 0.06808435
