Code/model/model_atk_10.74.pt (torch, 962136 bytes, 50 tensors)

conv1.0.weight f4 [100, 1, 3]
0	0x3da439a9	0.0801881
1	0xbed48518	-0.41507792
2	0x3ed8a597	0.42313835
3	0x3e9a7353	0.3016611
4	0xbeee4392	-0.46535927
5	0xbe517559	-0.20454921
6	0xbeb790a9	-0.35852554
7	0x3ea0a2e0	0.31374264
8	0x3e850e74	0.2598759
9	0x3ef90626	0.48637503
10	0xbe90ef48	-0.28307557
11	0xbec928e8	-0.39289021
12	0x3e873994	0.26411116
13	0x3eba99f7	0.3644559
14	0x3d3bdb30	0.04586333
15	0xbec1b3cb	-0.37832484
16	0xbf0ec675	-0.5577157
17	0x3f09b49b	0.5379121
18	0x3eec5bfb	0.46163926
19	0x3e651884	0.22372633
20	0x3df13af3	0.11778822
21	0x3e86c6b9	0.26323488
22	0x3db58db4	0.08864918
23	0xbe7f1a0e	-0.24912283
24	0xbce22478	-0.02760528
25	0x3e48143d	0.1953897
26	0xbec327bd	-0.38116255
27	0xbdf315fe	-0.11869429
28	0x3f0efdc4	0.55855966
29	0xbef7e22b	-0.4841474
30	0x3ea6abdc	0.32552993
31	0xbeea7286	-0.457905
32	0x3d9300d9	0.07177896
33	0x3ed21555	0.410319
34	0x3d0c5e48	0.0342696
35	0xbd8efd8e	-0.069819555
36	0xbf067c28	-0.525332
37	0xbf0e9065	-0.5568908
38	0x3e62e1ba	0.2215642
39	0xbdc372d6	-0.095433876
40	0x3f051641	0.5198708
41	0x3d1bc7ae	0.038032226
42	0xbf0b2b0d	-0.54362565
43	0x3f10c580	0.5655136
44	0x3df1b383	0.11801817
45	0x3ec427fe	0.38311762
46	0x3eb10d8b	0.34580645
47	0xbe37599d	-0.17905279
48	0x3d9196b9	0.07108826
49	0xbd8149fc	-0.063129395
50	0xbca1a6ed	-0.019732917
51	0x3e92485c	0.2857083
52	0x3efc920b	0.49330172
53	0xbe805493	-0.25064525
54	0x3ee819d0	0.45332193
55	0xbe74104c	-0.23834342
56	0xbe9ac5fe	-0.3022918
57	0xbf0be986	-0.54653203
58	0x3e42a0f4	0.19006711
59	0x3f086cb0	0.53290844
60	0xbe2f79be	-0.17136285
61	0x3d8022ab	0.062566124
62	0xbe8c4c25	-0.27401844
63	0x3e4881ef	0.19580816
64	0xbec0f0c7	-0.376837
65	0xbe5933b7	-0.21211134
66	0x3da89725	0.082319535
67	0x3eda6bca	0.42660362
68	0xbea5ec29	-0.32406738
69	0xbe583909	-0.21115507
70	0xbddeaab6	-0.10872404
71	0xbec8c37f	-0.39211652
72	0x3eeeb1b8	0.46619964
73	0x3c0c8971	0.00857769
74	0xbdd13dc0	-0.10216856
75	0xbf15b6da	-0.58482134
76	0x3ef09994	0.4699217
77	0x3dd7cbe6	0.105369374
78	0x3e703c25	0.23460443
79	0x3e96ae35	0.29429784
80	0xbcf7491a	-0.030186225
81	0x3e931736	0.28728646
82	0x3e943b77	0.28951618
83	0xbef991b1	-0.48743966
84	0xbca43cd8	-0.020048544
85	0x3f11a25d	0.5688837
86	0xbd99284e	-0.07478391
87	0x3ed87c23	0.4228221
88	0x3eff0efd	0.49816123
89	0x3e5cc58e	0.21559736
90	0x3e9d9d8a	0.30784255
91	0xbe38882d	-0.18020697
92	0x3eeda881	0.4641762
93	0xbe84f983	-0.25971612
94	0x3dd53c7b	0.10411926
95	0xbea75c3e	-0.32687563
96	0xbe566c4f	-0.20939754
97	0xbf127ff4	-0.5722649
98	0x3efb8b73	0.4912983
99	0xbf0d3417	-0.5515761
100	0xbeed9b0e	-0.4640736
101	0xbebd749b	-0.37003025
102	0xbe02e334	-0.12781984
103	0x3f18102f	0.59399694
104	0xbef9e0da	-0.4880436
105	0xbf0421fb	-0.5161435
106	0xbecd5ce2	-0.40109926
107	0x3ee788d9	0.45221594
108	0x3f0cd16a	0.5500704
109	0x3e607e3d	0.21923156
110	0x3eb400eb	0.3515695
111	0xbead4b74	-0.3384663
112	0x3edf0619	0.4355934
113	0x3db83283	0.08994009
114	0xbf0f7f23	-0.5605337
115	0xbf02d7bc	-0.51110435
116	0xbe7df3c9	-0.24800028
117	0x3ead3857	0.33832046
118	0xbed75021	-0.4205332
119	0x3dca8fef	0.098907344
120	0x3e4c0bb3	0.19926338
121	0xbd84b34e	-0.06479512
122	0x3ce6935b	0.028146436
123	0xbdc8df11	-0.098081715
124	0xbe2e8634	-0.17043382
125	0x3e4a7c35	0.19773944
126	0xbe8cec1d	-0.2752389
127	0x3c38a8b9	0.011270695
128	0xbee991db	-0.4561909
129	0xbf102e5a	-0.56320727
130	0x3ed627cd	0.4182724
131	0xbe661ea5	-0.22472627
132	0xbf089389	-0.5335012
133	0xbef9f43e	-0.48819155
134	0x3e97685e	0.29571813
135	0xbed1c8cf	-0.40973517
136	0xbf0e15c7	-0.5550198
137	0x3e48c0cc	0.19604796
138	0x3e9eb3c5	0.30996528
139	0x3e766b67	0.24064408
140	0xbeaaa197	-0.33326408
141	0xbd81acf0	-0.06331813
142	0x3edd654e	0.43241352
143	0xbee82b4a	-0.45345527
144	0xbe90c04d	-0.28271714
145	0xbf083edf	-0.53220934
146	0x3d8f8251	0.07007278
147	0x3ef4a467	0.4778168
148	0xbf03fdbf	-0.5155906
149	0xbee18162	-0.44044024
150	0xbecbd520	-0.3981104
151	0x3dbefe46	0.093258426
152	0x3e5ac10d	0.21362706
153	0x3ed163c3	0.40896425
154	0xbe3199ce	-0.17343828
155	0x3ecabe34	0.39598238
156	0x3db6a878	0.089188516
157	0xbf05c864	-0.52258897
158	0xbe7a5a39	-0.2444848
159	0x3e8a24f5	0.2698132
160	0x3ecbfc30	0.3984084
161	0x3efddc8e	0.49582332
162	0x3d1e18cc	0.038597867
163	0x3ef60b42	0.48055464
164	0x3e83b216	0.25721806
165	0x3e49df0e	0.19713995
166	0xbf096900	-0.5367584
167	0x3eb16d7b	0.3465384
168	0xbf0f59f1	-0.55996615
169	0x3e21249f	0.15736626
170	0x3ed275a8	0.4110539
171	0xbe8cef21	-0.2752619
172	0x3ee8ecf0	0.4549327
173	0xbec5a0b2	-0.38599163
174	0x3e5c9ce7	0.21544228
175	0xbe34e8d4	-0.17666942
176	0xbe956b45	-0.29183403
177	0x3c9f15ec	0.019419633
178	0xbef147b7	-0.47125027
179	0x3cdd7eb7	0.027037961
180	0xbdd9c1b0	-0.10632646
181	0x3e95551b	0.29166493
182	0xbdf401f9	-0.11914439
183	0xbef4ee68	-0.4783814
184	0xbeacd173	-0.33753547
185	0x3e89a17d	0.26881018
186	0xbdd454be	-0.10367726
187	0xbeb86680	-0.360157
188	0x3d0ec9ff	0.034860607
189	0xbc648fa4	-0.013950262
190	0xbe4de964	-0.20108563
191	0x3ebbc317	0.3667228
192	0x3e702d80	0.23454857
193	0x3dae7ca6	0.085198686
194	0xbf116b52	-0.5680438
195	0x3e8c9878	0.27460074
196	0xbec1e4ff	-0.37870023
197	0x3df8c5d4	0.12147108
198	0x3ccdd703	0.02512694
199	0xbc7b2cc8	-0.015330501
200	0xbee3ab96	-0.44466847
201	0xbed79193	-0.42103252
202	0xbe9e378b	-0.3090175
203	0x3dbce32f	0.09223019
204	0xbed75fe2	-0.4206534
205	0xbf05babe	-0.5223807
206	0xbdbd45cc	-0.09241828
207	0xbee2b5fe	-0.44279474
208	0x3e9a9853	0.3019434
209	0xbe34b69c	-0.17647785
210	0x3e3c7b7f	0.18406485
211	0x3ee04e13	0.43809566
212	0x3e99941c	0.2999581
213	0x3eade690	0.33964968
214	0xbf0b5b13	-0.54435843
215	0x3e67f3b6	0.22651562
216	0xbf098daa	-0.5373179
217	0x3e12cd0e	0.14336035
218	0x3ebed2b0	0.37270117
219	0x3eb4b2f5	0.35292783
220	0xbc91bf80	-0.01779151
221	0xbea821a0	-0.32838154
222	0x3eff7437	0.49893352
223	0xbe91aa15	-0.28450075
224	0x3e614415	0.21998627
225	0xbde09e38	-0.10967678
226	0x3e17456e	0.14772579
227	0x3ebc3f9d	0.36767283
228	0xbe932d97	-0.2874572
229	0x3ec905cf	0.39262244
230	0xbd5da24e	-0.054109864
231	0xbe525a69	-0.20542301
232	0xbe49fbb7	-0.19724928
233	0x3f0773bb	0.52910966
234	0x3e63c1b8	0.22241867
235	0x3edbd9e4	0.42939675
236	0xbdb8d32b	-0.09024652
237	0x3e4103e9	0.18849148
238	0x3f1085de	0.56454265
239	0x3ece56be	0.40300554
240	0xbe17e8f3	-0.14834957
241	0xbee1d914	-0.4411093
242	0x3e47b6fe	0.195034
243	0xbe9e6c05	-0.30941787
244	0x3d9b5a20	0.07585549
245	0x3c7241e7	0.01478622
246	0x3cf8d694	0.030375756
247	0x3e6e9e23	0.23302512
248	0x3e7866ec	0.24258012
249	0xbe1d4b5f	-0.15360783
250	0x3ef6bc11	0.48190358
251	0xbe6db014	-0.232117
252	0xbead72d2	-0.33876663
253	0x3e8068c7	0.2507994
254	0x3e7444e3	0.23854403
255	0xbf10b3f7	-0.56524605

conv1.0.bias f4 [100]
0	0x3eba931a	0.36440355
1	0xbeda8378	-0.42678428
2	0x3f08fd11	0.5351115
3	0xbe3795cd	-0.17928238
4	0xbef10bbb	-0.47079262
5	0xbc06069b	-0.008180286
6	0xbe36a694	-0.17836982
7	0x3ec968c7	0.3933775
8	0xbf016bc9	-0.5055509
9	0x3eae492e	0.34040207
10	0x3f022e16	0.5085157
11	0x3ec526ee	0.38506263
12	0xbe87d42f	-0.2652907
13	0xbeeb3f43	-0.45946702
14	0xbe064660	-0.13112783
15	0xbefe305f	-0.4964628
16	0x3de1f2fd	0.110326745
17	0x3e8952b6	0.26820916
18	0xbd32e451	-0.04367477
19	0xbe9907ae	-0.29888672
20	0x3b1d8c9c	0.0024040109
21	0xbbc86d2c	-0.00611653
22	0x3eebb945	0.46039787
23	0xbecfc678	-0.40581107
24	0x3e05410b	0.13013093
25	0x3dc3ed2b	0.095667206
26	0x3e5dc3db	0.21656744
27	0xbe9b6906	-0.30353564
28	0x3edd3d62	0.43210894
29	0xbea8ddbd	-0.32981673
30	0x3e66d110	0.22540689
31	0xbeb8aff0	-0.3607173
32	0x3eaed244	0.34144795
33	0xbecdef2f	-0.40221545
34	0xbe99c1b6	-0.30030602
35	0x3ea6736c	0.32509935
36	0x3f0b10ff	0.5432281
37	0xbb235240	-0.002492085
38	0xbe9e1e92	-0.30882698
39	0xbedc8ad9	-0.43074682
40	0xbe6691b3	-0.22516517
41	0x3ec9227c	0.39284122
42	0xbeb8181b	-0.3595589
43	0xbe86c7bd	-0.26324263
44	0xbed6bc02	-0.41940314
45	0x3e33e0ee	0.17566273
46	0xbef03f55	-0.46923319
47	0xbedf92a8	-0.43666577
48	0xbe131296	-0.14362559
49	0xbd678e7c	-0.056532368
50	0xbe8ef7b2	-0.27923352
51	0x3f0f6678	0.5601573
52	0xbf0f8a20	-0.5607014
53	0x3efb2dae	0.49058288
54	0xbe72118b	-0.23639505
55	0xbf016618	-0.5054641
56	0xbe1712da	-0.14753285
57	0x3ea0cf3b	0.31408104
58	0x3e6ac422	0.22926381
59	0x3ea95600	0.33073425
60	0x3dc0fa3d	0.09422729
61	0xbe39fd30	-0.1816299
62	0x3e8bf315	0.27333894
63	0x3e7c76e1	0.24654724
64	0x3e324c95	0.17412026
65	0xbefbb63e	-0.49162477
66	0x3df7be87	0.12096887
67	0xbe6e0526	-0.23244151
68	0xbeca7e86	-0.39549655
69	0xbf0b6f6f	-0.5446691
70	0x3f0e1d09	0.55513054
71	0xbe60d9f2	-0.2195814
72	0x3f096747	0.53673214
73	0xbee48391	-0.44631627
74	0xbe51dced	-0.20494433
75	0xbe993ada	-0.29927713
76	0x3ed6de82	0.41966635
77	0xbeb770f5	-0.35828367
78	0xbeb435ab	-0.35197195
79	0xbeb63eee	-0.35594887
80	0xbf11f1c4	-0.5700953
81	0x3d8d0006	0.0688477
82	0x3e7ef341	0.24897482
83	0x3e429fc3	0.19006257
84	0x3eb8cf85	0.36095825
85	0xbdf855b0	-0.121257186
86	0x3e0e856b	0.13918082
87	0xbd8969e2	-0.06709649
88	0xbd8fb09e	-0.07016109
89	0xbf11d985	-0.56972533
90	0xbe907a8d	-0.282185
91	0x3f0f87a3	0.5606634
92	0x3ef5e881	0.4802895
93	0x3deb90a7	0.115021996
94	0x3d010ca1	0.031506184
95	0x3f025e53	0.5092518
96	0xbe4bd46e	-0.19905254
97	0xbe45274c	-0.19253272
98	0xbd644ee8	-0.055739313
99	0xbe4cf30a	-0.20014587

conv1.1.weight f4 [100]
0	0x3f80d68b	1.0065473
1	0x3f7e6563	0.99373454
2	0x3f80aa2b	1.0051931
3	0x3f7f20e4	0.9965956
4	0x3f7dbc37	0.9911532
5	0x3f7fbb53	0.9989521
6	0x3f7f8e20	0.9982624
7	0x3f80ed53	1.0072426
8	0x3f7fbce3	0.99897593
9	0x3f80fa24	1.0076337
10	0x3f8008c8	1.000268
11	0x3f7fd412	0.9993297
12	0x3f7ca214	0.9868481
13	0x3f7fc952	0.99916565
14	0x3f80a4ce	1.0050294
15	0x3f80715c	1.0034595
16	0x3f7fd0bb	0.9992787
17	0x3f7f61ee	0.99758804
18	0x3f818eca	1.0121701
19	0x3f8234bf	1.0172347
20	0x3f804ea4	1.0023999
21	0x3f7ec733	0.99522704
22	0x3f809d37	1.0047978
23	0x3f7cf99c	0.98818374
24	0x3f7e54da	0.99348223
25	0x3f80b909	1.0056468
26	0x3f7fc129	0.99904114
27	0x3f817776	1.0114582
28	0x3f7f5a1a	0.9974686
29	0x3f7c55d4	0.98568463
30	0x3f7edbf1	0.99554354
31	0x3f7f914e	0.9983109
32	0x3f808251	1.003977
33	0x3f7c175b	0.9847314
34	0x3f81fd46	1.0155418
35	0x3f801a33	1.0007995
36	0x3f7ca260	0.98685265
37	0x3f7f00da	0.99610674
38	0x3f7c2c4f	0.9850511
39	0x3f8179c6	1.0115287
40	0x3f7fb5df	0.9988689
41	0x3f802674	1.0011735
42	0x3f7df7e1	0.9920636
43	0x3f802134	1.0010133
44	0x3f7d0346	0.9883312
45	0x3f7defc7	0.99193996
46	0x3f80b422	1.0054972
47	0x3f8139e1	1.0095788
48	0x3f7dbb56	0.99113977
49	0x3f803bd0	1.0018253
50	0x3f809b98	1.0047483
51	0x3f7ea9ec	0.9947803
52	0x3f7ee688	0.9957051
53	0x3f7e3b6e	0.9930943
54	0x3f7e14e3	0.9925062
55	0x3f844fe7	1.0336884
56	0x3f8082ff	1.0039977
57	0x3f807e3e	1.0038526
58	0x3f801542	1.0006487
59	0x3f7dbc95	0.9911588
60	0x3f7fd643	0.9993631
61	0x3f7fc954	0.9991658
62	0x3f7dcb2f	0.9913816
63	0x3f7f946f	0.99835867
64	0x3f805061	1.002453
65	0x3f81967a	1.0124047
66	0x3f7ef2c6	0.9958919
67	0x3f7e383a	0.99304545
68	0x3f7dc0f7	0.99122566
69	0x3f7fc658	0.99912024
70	0x3f7cfe9b	0.98826
71	0x3f82898b	1.0198225
72	0x3f8187f0	1.011961
73	0x3f80516c	1.0024848
74	0x3f7eb92b	0.99501294
75	0x3f7f75c9	0.997891
76	0x3f801cdb	1.0008806
77	0x3f8048c1	1.0022203
78	0x3f7e1659	0.9925285
79	0x3f7d60ee	0.9897603
80	0x3f8021d6	1.0010326
81	0x3f7f4f7a	0.99730647
82	0x3f7f2a37	0.9967379
83	0x3f802123	1.0010113
84	0x3f803946	1.0017478
85	0x3f817c3e	1.0116041
86	0x3f8011e1	1.0005456
87	0x3f7c15d0	0.98470783
88	0x3f7f6364	0.99761033
89	0x3f7f9dbd	0.99850065
90	0x3f7da044	0.9907267
91	0x3f807c34	1.0037904
92	0x3f7e2dff	0.99288934
93	0x3f7f0e05	0.9963077
94	0x3f80a533	1.0050415
95	0x3f7ce033	0.987796
96	0x3f7f1bd3	0.9965183
97	0x3f813e84	1.0097203
98	0x3f7d845d	0.99030095
99	0x3f823ae6	1.0174224

conv1.1.bias f4 [100]
0	0x3d272670	0.04080814
1	0x3c5dc0ab	0.013534705
2	0x3ccb4fa9	0.024818258
3	0xbd529c30	-0.051418483
4	0xb985d01d	-0.00025522793
5	0x3d05e3d6	0.032687984
6	0x3cbbb3d0	0.02291289
7	0x3d3b3941	0.0457089
8	0xb71e4a86	-9.434885e-06
9	0x3daa1507	0.08304792
10	0x3d28cfd5	0.04121383
11	0x397a589f	0.00023874872
12	0x3c7a3a9e	0.0152727645
13	0x3bd78195	0.0065767267
14	0x3d5d8399	0.05408058
15	0x3cb8318e	0.022484567
16	0xbc913dde	-0.017729696
17	0x3c9bcbe7	0.019018127
18	0x3d50f459	0.051014278
19	0x3d527ad6	0.051386677
20	0x3b1a4b89	0.0023543558
21	0x3c24fef9	0.010070556
22	0x3c916980	0.017750502
23	0x3c60c0a8	0.013717808
24	0x3b3d371d	0.0028871961
25	0x3d04a903	0.032387745
26	0x3af8f45d	0.0018993724
27	0x3d6bdb9f	0.057582494
28	0x3cf22751	0.029559763
29	0x3c23f7cf	0.010007813
30	0x3c8344c5	0.016024003
31	0x3ce75090	0.028236657
32	0x3d1f26fe	0.038855545
33	0x3cd87e98	0.026427552
34	0x3dc4d341	0.09610606
35	0x3d20dcf4	0.039273217
36	0x3c174704	0.00923324
37	0x3c512d51	0.012767152
38	0x3b8e5948	0.0043441392
39	0x3da0affa	0.07846065
40	0x3bd1d492	0.006403514
41	0x3c960db5	0.018317083
42	0xbc9c4a23	-0.01907832
43	0xbc42b435	-0.011883785
44	0xbc0e2fba	-0.008678371
45	0x3c834ab2	0.016026828
46	0x3ce7acc7	0.028280629
47	0x3d83563d	0.06412933
48	0xbc41c258	-0.01182612
49	0x3c8cf1b6	0.0172051
50	0x3d2b62fb	0.041842442
51	0x3b096311	0.002096359
52	0x3cc9c941	0.024632098
53	0x3ca751ad	0.020424688
54	0x3a842b90	0.0010083783
55	0x3d3bcb00	0.045847893
56	0x3d557d6c	0.052121565
57	0x3ca21176	0.019783717
58	0x3d0249d7	0.0318087
59	0xbc27b8df	-0.010236948
60	0xbb8cb6b3	-0.0042942404
61	0x3d056ad0	0.032572567
62	0x3b8a5d79	0.0042225686
63	0x3c83c8a4	0.016086884
64	0x3d4b9c94	0.04970987
65	0x3d5b09ef	0.05347627
66	0xbc8d0512	-0.017214332
67	0xbcf397ff	-0.029735563
68	0xbc53d85f	-0.012930005
69	0x3c55a6cf	0.013040259
70	0x3c8f003a	0.017456163
71	0x3d879abb	0.06621309
72	0x3d5e53b9	0.054279063
73	0x3d2701ed	0.04077332
74	0xbbe9c791	-0.007134386
75	0xbb21018a	-0.0024567568
76	0x3d1a05c8	0.03760317
77	0x3d1c8c06	0.038219474
78	0x3c24173d	0.010015306
79	0x3c3ca3cc	0.011513662
80	0x3ca97292	0.020684514
81	0x3c785847	0.015157766
82	0x3cc4f55d	0.02404278
83	0x3cb9e7fc	0.022693627
84	0x3d3a0363	0.045413386
85	0x3d5aeeb3	0.053450298
86	0xbd2a9d9d	-0.041654218
87	0x3c9aaef9	0.018882262
88	0xbbd1f155	-0.006406943
89	0x3b455db6	0.003011567
90	0x3d2822a5	0.041048665
91	0x3cbfe2a5	0.023423502
92	0x3d06757b	0.03282688
93	0x3d039d6f	0.032132562
94	0x3d029b9f	0.031886693
95	0x3ca00cf2	0.019537423
96	0xbd0894dc	-0.03334509
97	0x3d5bf537	0.053700652
98	0xbcf32336	-0.029679876
99	0x3d601793	0.054709982

conv1.1.running_mean f4 [100]
0	0x3eba92f5	0.36440244
1	0xbeda82f4	-0.42678034
2	0x3f08fcec	0.5351093
3	0xbe379548	-0.1792804
4	0xbef10ca1	-0.47079948
5	0xbc05f4f7	-0.00817608
6	0xbe36a8ba	-0.17837802
7	0x3ec968a3	0.39337644
8	0xbf016ba5	-0.5055488
9	0x3eae493c	0.34040248
10	0x3f022e1e	0.5085162
11	0x3ec5266f	0.38505885
12	0xbe87d303	-0.26528177
13	0xbeeb3fe1	-0.45947173
14	0xbe0646c8	-0.13112938
15	0xbefe3121	-0.49646857
16	0x3de1f30a	0.11032684
17	0x3e895200	0.26820374
18	0xbd32e36c	-0.043673918
19	0xbe9907e9	-0.29888847
20	0x3b1dcfd1	0.0024080167
21	0xbbc84af1	-0.0061124493
22	0x3eebb905	0.46039596
23	0xbecfc57e	-0.40580362
24	0x3e054007	0.13012706
25	0x3dc3ed50	0.09566748
26	0x3e5dc27f	0.21656226
27	0xbe9b6925	-0.30353656
28	0x3edd3cbb	0.43210396
29	0xbea8df44	-0.32982838
30	0x3e66cf76	0.22540078
31	0xbeb8af45	-0.3607122
32	0x3eaed2a6	0.34145087
33	0xbecded4d	-0.4022011
34	0xbe99c1a0	-0.30030537
35	0x3ea67407	0.32510397
36	0x3f0b103a	0.54321635
37	0xbb2372f2	-0.002494034
38	0xbe9e1cc0	-0.3088131
39	0xbedc8add	-0.43074694
40	0xbe66921d	-0.22516675
41	0x3ec92290	0.39284182
42	0xbeb81720	-0.35955143
43	0xbe86c73a	-0.26323873
44	0xbed6bb08	-0.4193957
45	0x3e33e301	0.17567064
46	0xbef03f9d	-0.46923533
47	0xbedf9289	-0.43666485
48	0xbe131093	-0.14361791
49	0xbd678952	-0.056527443
50	0xbe8ef78f	-0.27923247
51	0x3f0f660a	0.56015074
52	0xbf0f89a9	-0.5606943
53	0x3efb2c17	0.49057075
54	0xbe72139f	-0.23640297
55	0xbf016627	-0.505465
56	0xbe1712da	-0.14753285
57	0x3ea0cf83	0.3140832
58	0x3e6ac4cb	0.22926633
59	0x3ea95691	0.33073857
60	0x3dc0f9cc	0.09422645
61	0xbe39fbb9	-0.18162431
62	0x3e8bf3a7	0.2733433
63	0x3e7c7674	0.24654561
64	0x3e324d42	0.17412284
65	0xbefbb645	-0.49162498
66	0x3df7c0e1	0.120973356
67	0xbe6e0368	-0.23243487
68	0xbeca7d1c	-0.39548576
69	0xbf0b6f34	-0.5446656
70	0x3f0e1c6a	0.55512106
71	0xbe60d9fe	-0.21958157
72	0x3f09674c	0.53673244
73	0xbee48397	-0.44631645
74	0xbe51de1d	-0.20494886
75	0xbe993b60	-0.29928112
76	0x3ed6de6e	0.41966575
77	0xbeb77126	-0.35828513
78	0xbeb43666	-0.35197753
79	0xbeb6407c	-0.35596073
80	0xbf11f182	-0.57009137
81	0x3d8d0131	0.06884993
82	0x3e7ef1df	0.24896954
83	0x3e429f7c	0.19006151
84	0x3eb8cf56	0.36095685
85	0xbdf85634	-0.12125817
86	0x3e0e85e7	0.13918267
87	0xbd89706b	-0.06710895
88	0xbd8fae55	-0.07015673
89	0xbf11d947	-0.56972164
90	0xbe907c0c	-0.2821964
91	0x3f0f879b	0.5606629
92	0x3ef5e6f6	0.48027772
93	0x3deb93ac	0.115027755
94	0x3d010b9d	0.031505216
95	0x3f025d99	0.5092407
96	0xbe4bd3d8	-0.1990503
97	0xbe45277f	-0.19253348
98	0xbd644461	-0.055729274
99	0xbe4cf2e8	-0.20014536

conv1.1.running_var f4 [100]
0	0x3544223e	7.306552e-07
1	0x36733f5a	3.6246697e-06
2	0x36119cf2	2.1698038e-06
3	0x36510c55	3.1150605e-06
4	0x370b41be	8.300352e-06
5	0x36c89f22	5.97899e-06
6	0x37406f55	1.1470013e-05
7	0x358427a6	9.846306e-07
8	0x359a385b	1.1490296e-06
9	0x357a8b16	9.3334654e-07
10	0x352e2fbb	6.488951e-07
11	0x364d2ce9	3.0573522e-06
12	0x377f5a7a	1.522025e-05
13	0x3693b5cf	4.4021067e-06
14	0x36192022	2.281748e-06
15	0x36d89b3d	6.4553738e-06
16	0x33143576	3.4507558e-08
17	0x36d2dc8a	6.284162e-06
18	0x360334a0	1.9551153e-06
19	0x3689a70d	4.1023654e-06
20	0x36252f86	2.4614578e-06
21	0x366c2d5b	3.519314e-06
22	0x35c5e989	1.4745611e-06
23	0x37121746	8.707697e-06
24	0x365cfd8c	3.2930138e-06
25	0x35f0c0e6	1.7937534e-06
26	0x369dd4c1	4.7037324e-06
27	0x360d0d0d	2.1018234e-06
28	0x369c9efa	4.6676696e-06
29	0x37c02fb5	2.2910399e-05
30	0x36c4af94	5.861695e-06
31	0x3681f4d1	3.873e-06
32	0x3674dcaa	3.6487277e-06
33	0x380c46a2	3.3444383e-05
34	0x3583d06c	9.820919e-07
35	0x36e89fdc	6.932749e-06
36	0x37b4d4b2	2.1556716e-05
37	0x35d1b8bb	1.5625477e-06
38	0x38010af1	3.0766187e-05
39	0x34fbaca9	4.687802e-07
40	0x350c95e3	5.237218e-07
41	0x34db6ebc	4.08725e-07
42	0x37133e37	8.776368e-06
43	0x363741fe	2.7307537e-06
44	0x3744fb8b	1.1741077e-05
45	0x374a6663	1.2063977e-05
46	0x36131ba6	2.19208e-06
47	0x35636d5d	8.4723234e-07
48	0x3732bf57	1.0654177e-05
49	0x36eebce3	7.114942e-06
50	0x35a97578	1.2625669e-06
51	0x36dd44e6	6.594334e-06
52	0x371636de	8.9534715e-06
53	0x37c6e2da	2.3709075e-05
54	0x373a647d	1.1109861e-05
55	0x3514f341	5.548828e-07
56	0x363fcd3e	2.8580685e-06
57	0x3584246e	9.845369e-07
58	0x3602d2e9	1.9494275e-06
59	0x367543b4	3.6547253e-06
60	0x34832fb3	2.4435357e-07
61	0x36eec679	7.116058e-06
62	0x366ebee5	3.557588e-06
63	0x35636887	8.4716197e-07
64	0x36457562	2.9423613e-06
65	0x34a75cef	3.1173792e-07
66	0x3680b9d7	3.836332e-06
67	0x37066fd0	8.013056e-06
68	0x37a3038a	1.9432762e-05
69	0x3601e716	1.9357008e-06
70	0x377dccac	1.5127629e-05
71	0x35103999	5.3727996e-07
72	0x36287415	2.510152e-06
73	0x35ba1af3	1.3865923e-06
74	0x36629fd6	3.376966e-06
75	0x366e0d60	3.547255e-06
76	0x35055f43	4.9684985e-07
77	0x36005955	1.9125484e-06
78	0x36cfd4ca	6.1938526e-06
79	0x37c87914	2.389824e-05
80	0x366bbfe6	3.5129428e-06
81	0x359402b4	1.1027646e-06
82	0x369c8c6c	4.6655096e-06
83	0x35292d59	6.3023396e-07
84	0x35cd7ba8	1.5309679e-06
85	0x360bd290	2.0835178e-06
86	0x35eb46b6	1.7529444e-06
87	0x37d3fecd	2.5271811e-05
88	0x36492028	2.9970051e-06
89	0x3686a039	4.0121636e-06
90	0x37b81ebf	2.1948827e-05
91	0x357a8f72	9.3341e-07
92	0x37c6254e	2.362081e-05
93	0x36bd904b	5.649437e-06
94	0x35fd96dc	1.8893875e-06
95	0x37b3a908	2.1417174e-05
96	0x360449f0	1.971257e-06
97	0x35a6f94d	1.244052e-06
98	0x3789de67	1.6435237e-05
99	0x350b4701	5.188486e-07

conv2.0.weight f4 [64, 100, 3]
0	0x3c28a58d	0.010293377
1	0xbb4d887c	-0.0031361869
2	0x3d468052	0.04846222
3	0x3bd61ddb	0.006534321
4	0x3d56c2c2	0.05243183
5	0x3c71554f	0.014729812
6	0x3d13fa32	0.036127277
7	0xbc3786a1	-0.011201532
8	0xbd6e12e6	-0.05812349
9	0x3d4bfea1	0.04980338
10	0xbd172024	-0.036895886
11	0xbc4e80a8	-0.012603916
12	0x3d10c1fd	0.03534125
13	0xbce4341b	-0.027856877
14	0xbd8060da	-0.06268473
15	0xba2e4b6e	-0.0006648813
16	0x3c4af4af	0.012387439
17	0xbd34ed15	-0.04417141
18	0xbd1278b3	-0.03575964
19	0x3d31fb6b	0.04345266
20	0xbd57323c	-0.05253814
21	0xbcc9eda6	-0.024649452
22	0xbca368ad	-0.019947374
23	0xbd072a7b	-0.032999497
24	0xbd58aa33	-0.05289669
25	0x3d339491	0.043842856
26	0xbc504e06	-0.012713915
27	0x3bd72518	0.006565701
28	0x3d3470b7	0.044052806
29	0x3b7c7aca	0.0038525336
30	0x3d23234d	0.039828587
31	0x3c4678aa	0.0121137295
32	0xbd69f371	-0.05711693
33	0x3cc07861	0.023494901
34	0xbd63609c	-0.055512056
35	0xbc69e7a5	-0.01427642
36	0xbca0ac9d	-0.019613558
37	0xbc9b637e	-0.01896834
38	0x3d15726d	0.036486078
39	0x3d520803	0.05127717
40	0xba030ef8	-0.0004999484
41	0x3ba1f7c6	0.004942867
42	0x3c921b95	0.017835418
43	0xbd25826d	-0.040407587
44	0x3d151be0	0.036403537
45	0x3cf06f38	0.029349908
46	0x3c8ffc6c	0.017576419
47	0x3d394680	0.04523325
48	0xbc892e1a	-0.016745616
49	0x3c875124	0.016518183
50	0xbd4cebf8	-0.050029725
51	0x3c89eace	0.016835596
52	0xbc7fda25	-0.015615975
53	0xbd3dba14	-0.046320036
54	0x3ad324dc	0.0016109007
55	0xbd031cc3	-0.03200985
56	0xbd1c262e	-0.03812235
57	0xbd747a69	-0.059687052
58	0xbd3ce986	-0.046121143
59	0x3d00c6f0	0.03143972
60	0xbc8514a3	-0.016245192
61	0xbce02652	-0.027362023
62	0x3d288a1e	0.041147344
63	0x3c0b0192	0.008484261
64	0x3c2fcb53	0.010729629
65	0xbc2a2d62	-0.010386797
66	0xbb77b2fa	-0.0037795887
67	0xbc9095b1	-0.017649503
68	0xbd0bda85	-0.034143943
69	0x3cd3516d	0.025795663
70	0xbcc37c77	-0.02386306
71	0x3d672daa	0.056440033
72	0xbd674371	-0.0564608
73	0xbc3afc99	-0.011412763
74	0xbbdc8dfc	-0.006730793
75	0x3cb3d760	0.021953285
76	0x3c55f76d	0.013059479
77	0xbbc66f8e	-0.006055779
78	0x3cf79f10	0.030227214
79	0x3c8857e9	0.016643481
80	0xbc056ca9	-0.008143582
81	0xbd1cf8fb	-0.038323384
82	0xbd51894b	-0.051156323
83	0xbd2abb4c	-0.041682526
84	0xbd5314f4	-0.051533654
85	0xbc8b9778	-0.01704
86	0xbb5251e2	-0.0032092263
87	0x3c04f1ce	0.008114291
88	0xbd4843cc	-0.04889278
89	0x39a3b4ed	0.00031224583
90	0xbd5bd5d2	-0.05367071
91	0xbd26c32c	-0.040713474
92	0xbc483477	-0.01221954
93	0x3cd51319	0.026010083
94	0xbbbaeee3	-0.005704747
95	0xbd5210be	-0.051285498
96	0xbc6388a4	-0.013887558
97	0xbd6e0a75	-0.05811544
98	0xbcb7145f	-0.02234858
99	0x3cf69679	0.030101048
100	0x3d2534fd	0.040333737
101	0x3d7a7976	0.06115099
102	0x3d4360c9	0.047699723
103	0x3cde35fe	0.027125355
104	0x3d54c89d	0.051949132
105	0x3bc61c1d	0.006045832
106	0x3cb1210c	0.021622203
107	0x3d0e0f50	0.034682572
108	0xbd46ed90	-0.0485664
109	0xbcb0aa71	-0.021565648
110	0x3c94e724	0.018176623
111	0xbd2b54f8	-0.04182908
112	0x3ccfaf51	0.025352152
113	0xbd702e9e	-0.058638208
114	0xbce9813f	-0.028504012
115	0xbcbd9f19	-0.023147153
116	0x3adac4a6	0.0016690686
117	0xbbeef351	-0.007292189
118	0xbb24cb8a	-0.0025145733
119	0xbb8f59ad	-0.004374704
120	0x3d126b68	0.03574696
121	0xbd17b92a	-0.03704182
122	0x3d0c1909	0.034203563
123	0xbcd90250	-0.02649036
124	0xbd57a6a5	-0.05264916
125	0xbb28d205	-0.0025759947
126	0x3c6765cb	0.01412339
127	0xbd69d460	-0.057087302
128	0x3d0da624	0.034582272
129	0xbca85109	-0.020546453
130	0xbcab8449	-0.020937102
131	0x3d6bf8ad	0.057610203
132	0x3d2a2ea9	0.041548405
133	0xbd11575e	-0.03548371
134	0xbcfb41fb	-0.03067111
135	0x3cfa3c75	0.030546406
136	0x3d2e082c	0.042488262
137	0xbd0cc012	-0.03436286
138	0x3b8ecb91	0.004357763
139	0x3d388f4b	0.04505853
140	0xbce07926	-0.027401518
141	0xbc2a174f	-0.010381534
142	0x3d5fdbf1	0.05465311
143	0x3bb11028	0.0054035373
144	0xbd232166	-0.039826773
145	0xbd563878	-0.052299947
146	0x3d6d714c	0.057969376
147	0xbd080037	-0.03320333
148	0x3c6b3952	0.014356928
149	0x3d5793f5	0.052631337
150	0xbd601c39	-0.054714415
151	0x3cee1f6a	0.029067714
152	0x3b58a990	0.0033060052
153	0xbc80ec43	-0.015737658
154	0xbc4f4a84	-0.012652043
155	0xbaedba86	-0.0018137253
156	0xbbaf19f3	-0.0053436696
157	0xbd3acc49	-0.045604978
158	0xbcb49386	-0.022043
159	0x3d2c4d67	0.042066004
160	0xbc8ad8e8	-0.016949132
161	0xbc6ba737	-0.014383129
162	0xbd19e545	-0.037572164
163	0x3c6a9286	0.0143171605
164	0x3d0bcfce	0.034133725
165	0x3d3cc5e2	0.046087153
166	0x3ceeab29	0.02913435
167	0x3d4df901	0.050286297
168	0x3cda4891	0.02664593
169	0xbca6c5bd	-0.02035796
170	0xbd4e19f9	-0.05031774
171	0xbc96161e	-0.018321093
172	0xbc151397	-0.009098909
173	0xbd55de64	-0.05221404
174	0x3d30f578	0.043202847
175	0x3baece0c	0.0053346213
176	0xbce94525	-0.028475353
177	0x3d04165e	0.032247894
178	0xbd26d53e	-0.040730707
179	0xbd21d8ea	-0.039513506
180	0xbca32115	-0.019913236
181	0xbbf553cd	-0.0074867965
182	0xbcbcfbd5	-0.023069302
183	0xbd601b93	-0.054713797
184	0x3c90751c	0.017633967
185	0xbd0f795e	-0.035027854
186	0x3cf75c0b	0.030195257
187	0x3c9c1ef0	0.01905772
188	0xbd2b0e4d	-0.041761685
189	0x3b681b93	0.0035416826
190	0xbd099892	-0.033592768
191	0xbd58f151	-0.052964512
192	0x3d48cf82	0.04902602
193	0xbca0ff9d	-0.019653136
194	0xbd376a3e	-0.044779055
195	0x3cf0cba0	0.029393971
196	0xbc9b56b3	-0.01896224
197	0xbc561971	-0.013067589
198	0xbaa89742	-0.0012862461
199	0xbc63a863	-0.013895127
200	0x3cc32f7c	0.023826353
201	0x3d37579c	0.044761285
202	0xbd52da46	-0.051477693
203	0xbc9d5ba1	-0.019208731
204	0xbd79d869	-0.0609974
205	0x3d57ae52	0.05265648
206	0x3d07ae05	0.033124942
207	0x3c1c4993	0.009539026
208	0x3c8f0b6b	0.0174615
209	0x3d081a83	0.03322841
210	0xbca117a7	-0.019664599
211	0xbbefd46e	-0.0073190248
212	0x3c8cced9	0.017188476
213	0xbbc453e9	-0.005991448
214	0x3b313fa8	0.0027045999
215	0x3caa5c7a	0.02079605
216	0xbc210b61	-0.009829373
217	0xbd76e341	-0.06027532
218	0xbd23a089	-0.03994802
219	0xbc6f7465	-0.014615153
220	0x3d25f665	0.040518183
221	0x3d24a9f4	0.040201142
222	0xbd3acc4e	-0.045604996
223	0xbd1090bc	-0.03529428
224	0xbc10b159	-0.0088313455
225	0xbc86e86e	-0.016468253
226	0xbd521923	-0.051293503
227	0xbc3edf22	-0.011649879
228	0xbbf86902	-0.0075808773
229	0xbb479edd	-0.003045968
230	0x3c25f9de	0.010130374
231	0xbcf2c21b	-0.029633572
232	0x3d19ee0a	0.037580527
233	0xbd2c3fb8	-0.042052954
234	0xbd653465	-0.05595817
235	0xbcafa506	-0.021440994
236	0x3cf8912b	0.030342659
237	0xbc87e96c	-0.016590796
238	0xbc39e462	-0.011345955
239	0x3a0ea6ad	0.0005441707
240	0xbc374b66	-0.01118741
241	0xbd263fb4	-0.040588096
242	0x3d385dee	0.045011453
243	0x3a4dfd4e	0.0007857875
244	0x3d3a726b	0.045519274
245	0xbd682c22	-0.056682713
246	0xbd5e789c	-0.05431424
247	0xbd510fa1	-0.051040296
248	0x3cedd352	0.02903143
249	0x3c751abc	0.014959987
250	0xbd46c370	-0.048526227
251	0xbc57da6d	-0.013174635
252	0x3c87de76	0.01658557
253	0xbc8652ff	-0.016396997
254	0x3d0598c7	0.032616403
255	0x3c243ad2	0.0100237895

conv2.0.bias f4 [64]
0	0xbcf803cd	-0.03027525
1	0x3c740ec7	0.014896101
2	0xbd47d417	-0.04878625
3	0xbd1ade9f	-0.037809964
4	0x3c6128eb	0.013742666
5	0x3ce6437a	0.028108347
6	0x3c6aba99	0.014326715
7	0xbce6943c	-0.028146856
8	0xbd16eacf	-0.036845025
9	0x3c3cfc21	0.011534722
10	0x3d274d8d	0.040845443
11	0x3ccfef5d	0.025382692
12	0x3d52f7e4	0.05150594
13	0x3cac4401	0.02102852
14	0x3d55b1c5	0.052171487
15	0xbc3199f8	-0.010839932
16	0x3cd146f2	0.025546525
17	0xbd1adb07	-0.037806537
18	0xbcbfe356	-0.023423832
19	0x3d6bfaa0	0.05761206
20	0x3c1c2e78	0.009532563
21	0x3cd9da76	0.026593428
22	0xbd595725	-0.053061623
23	0x3cd97782	0.026546244
24	0xbc27b249	-0.010235378
25	0xbc827433	-0.015924549
26	0x3cfbd44f	0.030740885
27	0xbcd36b87	-0.025808109
28	0xbc5db94b	-0.013532947
29	0xbd2bb391	-0.041919295
30	0xbd086374	-0.03329797
31	0x3cd860fc	0.026413433
32	0xbc2e6f3e	-0.010646639
33	0x3d101ea5	0.035185475
34	0xb9e9f930	-0.00044626882
35	0xbc363f8a	-0.011123547
36	0xbc487391	-0.012234584
37	0x3d298695	0.041388113
38	0x3cfec389	0.031099098
39	0x3ca62d2c	0.020285212
40	0xbc9477e0	-0.018123567
41	0xbd030344	-0.031985536
42	0x3d63619c	0.05551301
43	0xbd3f81f9	-0.04675481
44	0x3bd30176	0.006439383
45	0xbd64f343	-0.055896055
46	0x3d57f517	0.05272397
47	0x3c184048	0.00929267
48	0x3c9513be	0.01819789
49	0x3c1ee542	0.009698214
50	0xbd5f740f	-0.05455404
51	0x3d2d6780	0.042335033
52	0x3cea243b	0.02858173
53	0x3ce6658e	0.028124597
54	0xbd16ecb1	-0.03684682
55	0x3d09e522	0.033665784
56	0x3d2d4b47	0.04230812
57	0x3c60facd	0.013731671
58	0xbc6121ce	-0.01374097
59	0x3d40bd13	0.047055315
60	0xbca9f0af	-0.02074465
61	0xbd5cdb55	-0.05392011
62	0x3d535f6b	0.05160467
63	0x3c31f272	0.010861026

conv2.1.weight f4 [64]
0	0x3f7fff21	0.9999867
1	0x3f808a79	1.0042259
2	0x3f7f26cc	0.99668574
3	0x3f7fc6cf	0.9991273
4	0x3f7f44f3	0.99714583
5	0x3f7bf3fb	0.9841916
6	0x3f8002f9	1.0000907
7	0x3f803b13	1.0018028
8	0x3f7f4cbe	0.99726474
9	0x3f80a242	1.0049517
10	0x3f7b6a1c	0.98208785
11	0x3f81028c	1.0078902
12	0x3f8407a1	1.0314828
13	0x3f7b05a8	0.98055506
14	0x3f80fa83	1.007645
15	0x3f80112b	1.0005239
16	0x3f7ede3e	0.99557865
17	0x3f8107c8	1.00805
18	0x3f7ea441	0.9946938
19	0x3f809fe6	1.0048797
20	0x3f818f65	1.0121886
21	0x3f7f63ff	0.99761957
22	0x3f809a2a	1.0047047
23	0x3f7f73a2	0.99785817
24	0x3f81fd97	1.0155514
25	0x3f7fa2ce	0.99857795
26	0x3f8246cc	1.0177855
27	0x3f7c1205	0.98464996
28	0x3f7c9a48	0.98672915
29	0x3f7bd35d	0.9836939
30	0x3f7fdb89	0.9994436
31	0x3f7f9d10	0.99849033
32	0x3f81d782	1.0143893
33	0x3f7b4408	0.9815068
34	0x3f81a949	1.0129787
35	0x3f813902	1.0095522
36	0x3f7bc37b	0.98345155
37	0x3f7fd3de	0.9993266
38	0x3f802159	1.0010177
39	0x3f7fae7a	0.99875605
40	0x3f8054f1	1.0025922
41	0x3f7c2407	0.98492473
42	0x3f80b68b	1.0055708
43	0x3f80576e	1.0026681
44	0x3f7f06aa	0.99619544
45	0x3f803010	1.0014668
46	0x3f7b3c6d	0.9813908
47	0x3f80ae4a	1.0053189
48	0x3f7d07ed	0.9884022
49	0x3f801478	1.0006247
50	0x3f7f9667	0.9983887
51	0x3f7f7683	0.9979021
52	0x3f7f84ed	0.99812204
53	0x3f805014	1.0024438
54	0x3f822c9f	1.0169867
55	0x3f80a834	1.0051332
56	0x3f820110	1.0156574
57	0x3f7dce32	0.99142754
58	0x3f802783	1.0012058
59	0x3f7aadd0	0.97921467
60	0x3f7fa28a	0.9985739
61	0x3f81ba4d	1.013498
62	0x3f805451	1.0025731
63	0x3f806d35	1.0033327

conv2.1.bias f4 [64]
0	0x3bdf5040	0.0068149865
1	0x3c89f3b6	0.016839843
2	0xba8fe4cd	-0.0010978222
3	0xbbafb795	-0.005362461
4	0x3c14b3c7	0.009076065
5	0x3bd70754	0.006562153
6	0xbb169182	-0.0022974913
7	0x3be366bd	0.0069397376
8	0xba96ff23	-0.0011520128
9	0x3ce3fb8d	0.02782991
10	0xbbdbf0e2	-0.006712065
11	0x3c2b4eb6	0.010455778
12	0x3d372535	0.044713218
13	0xb9429543	-0.00018556886
14	0x3c6eba0f	0.014570727
15	0x39ad73a0	0.0003308328
16	0x3c4e0df5	0.01257657
17	0x3c1cf21b	0.009579207
18	0x3d1311ed	0.035905767
19	0x3c9f8708	0.019473568
20	0xbbb908e9	-0.005646814
21	0xbc0d9d53	-0.008643466
22	0x3c3f0936	0.011659911
23	0xbc3f5e46	-0.011680191
24	0x3c893ea4	0.016753502
25	0xbb9e3735	-0.0048283585
26	0x3c9dbd6b	0.01925536
27	0x3c3b62e8	0.011437155
28	0x3c036d6c	0.008021694
29	0x3c096145	0.008385007
30	0x3b98475a	0.0046471776
31	0x3d566f2c	0.052352116
32	0x3ca80b55	0.020513216
33	0xba858583	-0.0010186884
34	0x3d0bca22	0.034128316
35	0x3bdf989e	0.0068236133
36	0xbba8761d	-0.0051410333
37	0x39a85ba0	0.00032111723
38	0x3cbd6c74	0.023123004
39	0x38a29dec	7.754177e-05
40	0x3c0db049	0.008647987
41	0x3b7fe077	0.0039043704
42	0x3c3751e5	0.011188959
43	0x3c2759d3	0.010214287
44	0xbbef698c	-0.0073062833
45	0x3c374d3e	0.01118785
46	0xbc73b84a	-0.014875481
47	0xbbc0b2d9	-0.0058806953
48	0x3be37c82	0.0069423327
49	0x3bb5aa9e	0.005544021
50	0x3cd5ddcb	0.026106736
51	0x3b44f7b7	0.0030054876
52	0x3c9b3e52	0.018950615
53	0x3b7c06fd	0.0038456314
54	0x3ced6817	0.028980298
55	0x3c9f0cc1	0.019415261
56	0x3cbf924d	0.023385191
57	0xbbe73740	-0.007056147
58	0x3c8a1575	0.016855935
59	0xbc018d45	-0.007907216
60	0xbbf8caf7	-0.0075925547
61	0x3cbd8371	0.023133965
62	0x3c2a963d	0.010411796
63	0x3bfb9d1f	0.0076786424

conv2.1.running_mean f4 [64]
0	0xbe40296e	-0.18765804
1	0xbdc754e1	-0.09732986
2	0xbe73c7a4	-0.23806626
3	0xbe813d5f	-0.25242135
4	0xbe8af8f0	-0.2714305
5	0x3e136987	0.14395724
6	0xbdee3cea	-0.11632712
7	0xbdeb991e	-0.11503814
8	0xbe17a62f	-0.14809488
9	0xbd5e59ba	-0.05428479
10	0x3e3e9b48	0.18613923
11	0xbe1e5b24	-0.15464455
12	0xbc6a0f30	-0.014285848
13	0x3e6acd00	0.22929764
14	0xbd24f925	-0.040276665
15	0xbe340f25	-0.17583902
16	0xbd478a71	-0.048716012
17	0xbe6502d1	-0.22364356
18	0x3a8abefd	0.0010585483
19	0x3d020025	0.03173842
20	0xbe0ee413	-0.13954191
21	0xbe11f126	-0.14252147
22	0xbe049f2e	-0.12951347
23	0xbd8a633d	-0.067572095
24	0xbe306712	-0.17226818
25	0xbe05ca2f	-0.13065408
26	0xbe0c059c	-0.13674015
27	0x3e024f6e	0.12725613
28	0x3e4ee561	0.20204689
29	0x3decd6f9	0.1156444
30	0xbd895f22	-0.06707598
31	0x3d980d2c	0.07424387
32	0xbda35b2b	-0.07976373
33	0x3e8e581e	0.27801603
34	0xbd8f7c7c	-0.070061654
35	0xbe373de1	-0.17894699
36	0x3ddad639	0.10685391
37	0xbdc61299	-0.09671516
38	0x3cfa6acf	0.030568508
39	0xbcda3c41	-0.02664006
40	0xbe2d6bf9	-0.1693572
41	0x3d8d279c	0.068923205
42	0xbe2a4f1b	-0.16631739
43	0xbe0f207e	-0.13977239
44	0xbde657fa	-0.11247249
45	0xbe2d1bca	-0.16905132
46	0x3e6191a9	0.22028221
47	0xbe291aa2	-0.16514066
48	0x3d9d0c07	0.0766831
49	0xbe3fab43	-0.18717675
50	0xbdb145fc	-0.086559266
51	0xbe07f19f	-0.13275765
52	0x3dac0dfa	0.08401103
53	0xbe603cca	-0.21898189
54	0xbd0e30bd	-0.03471445
55	0xbe0c7530	-0.13716578
56	0xbd3d2c74	-0.046184972
57	0xbd9b8149	-0.075930186
58	0xbdbbd036	-0.091705725
59	0x3e57aed2	0.21062782
60	0xbe8890d8	-0.26673007
61	0xbe1e8cdd	-0.15483423
62	0xbcf80a9f	-0.030278502
63	0xbdc127d1	-0.094314225

conv2.1.running_var f4 [64]
0	0x3e83aefa	0.25719434
1	0x3df5b310	0.11997044
2	0x3ea1b8d5	0.31586328
3	0x3e62a756	0.22134146
4	0x3ec965ca	0.3933547
5	0x3e02773a	0.12740794
6	0x3e04b4ae	0.12959549
7	0x3d9b32e3	0.07578065
8	0x3dd7c0b0	0.10534799
9	0x3dcbf1ed	0.09958253
10	0x3e2c4bfc	0.1682586
11	0x3e05d5e6	0.13069877
12	0x3dd8c1b6	0.105838224
13	0x3e732122	0.23743108
14	0x3e24cece	0.16094515
15	0x3e1b9afd	0.15195842
16	0x3e6460e1	0.22302581
17	0x3e1bb80f	0.15206932
18	0x3d68a11d	0.056794275
19	0x3e16886b	0.14700477
20	0x3dffd215	0.12491242
21	0x3e22f988	0.15915501
22	0x3d43437c	0.04767178
23	0x3dcdf15f	0.100558035
24	0x3e1865ae	0.14882538
25	0x3de4b127	0.11166602
26	0x3e45c30f	0.1931269
27	0x3e741df1	0.23839547
28	0x3ea370fa	0.31922132
29	0x3e481679	0.19539823
30	0x3df3580d	0.11882029
31	0x3df9cf86	0.12197785
32	0x3def39ee	0.11680971
33	0x3ead2e27	0.33824274
34	0x3dfb7b63	0.122793935
35	0x3e04420b	0.12915818
36	0x3e401db1	0.18761326
37	0x3df29d54	0.11846414
38	0x3e1f0375	0.15528663
39	0x3e5c433e	0.21510026
40	0x3e5db495	0.21650918
41	0x3e1297be	0.14315698
42	0x3e9029c2	0.2815686
43	0x3dfa8bfd	0.12233732
44	0x3db271d1	0.08713115
45	0x3e7a2aff	0.24430464
46	0x3e3ebf44	0.1862765
47	0x3e3ecdbc	0.18633169
48	0x3ddd1b38	0.10796207
49	0x3e9f1fc4	0.31078923
50	0x3da53502	0.08066751
51	0x3e6182d1	0.22022559
52	0x3e2d4c98	0.1692375
53	0x3ea19773	0.3156086
54	0x3e83279e	0.25616163
55	0x3e3f7680	0.18697548
56	0x3dbd1c45	0.092339076
57	0x3e46c29d	0.19410177
58	0x3e75905c	0.2398085
59	0x3e34e59c	0.17665714
60	0x3e9cb6f2	0.30608326
61	0x3e017950	0.12643933
62	0x3e04485e	0.12918231
63	0x3e0600ac	0.13086194

conv3.0.weight f4 [128, 64, 3]
0	0x3cc8c220	0.024506629
1	0x3d38c894	0.04511316
2	0x3d8a7b1e	0.06761764
3	0xbbb10222	-0.0054018656
4	0x3d1d749d	0.03844129
5	0x3b33a17f	0.0027409492
6	0xbca3e59e	-0.020006951
7	0x3d331394	0.043719843
8	0xbd7bdd93	-0.061490607
9	0xbc028983	-0.007967356
10	0xbd8dcc0b	-0.06923684
11	0x3d8d7c40	0.069084644
12	0x3ca6a820	0.02034384
13	0x3cc93df6	0.024565678
14	0xbd69da12	-0.057092734
15	0x3c2dddbd	0.010611949
16	0x3bebcc3b	0.007195977
17	0xbcc58c7a	-0.024114836
18	0xbd0699df	-0.032861587
19	0xbd3c9f46	-0.046050332
20	0x3bb8ad51	0.0056358953
21	0xbb35b4ad	-0.00277261
22	0x3c649e75	0.013953795
23	0x3d5e9287	0.054338958
24	0xbce1ff4f	-0.027587561
25	0x3cff7d90	0.031187803
26	0xbcf72d71	-0.030173035
27	0x3d8d98a4	0.069138795
28	0xbd5d470a	-0.054022826
29	0xbd6347f8	-0.055488557
30	0xbd229c39	-0.039699767
31	0x3ccd0934	0.025028802
32	0x3b4b4cef	0.0031021198
33	0xbcc12cff	-0.023581026
34	0x3c856da7	0.016287638
35	0x3c3ff55b	0.011716212
36	0xbb107f30	-0.0022048466
37	0x3d80ca1c	0.06288549
38	0x3a116396	0.00055461505
39	0xbc893064	-0.016746707
40	0x3d62ce44	0.05537249
41	0xbd38e4b0	-0.04513997
42	0xbd95385a	-0.07286139
43	0x3d578363	0.052615535
44	0x3d6f75fa	0.05846212
45	0x3d78c811	0.060737673
46	0xbd36519a	-0.044511415
47	0xbd057c2d	-0.032589126
48	0xbd818981	-0.06325055
49	0x3d5e1895	0.054222662
50	0xbd2a3887	-0.041557815
51	0xbd71babf	-0.059015986
52	0x3bfd11d5	0.007723073
53	0xbd6e88c3	-0.058235895
54	0xbd83f83c	-0.06443831
55	0x3c825f8e	0.015914705
56	0xbd4dcc17	-0.050243463
57	0x3cea9a35	0.028637985
58	0x3cb7e8ea	0.02244993
59	0x3d408603	0.047002804
60	0x3c52cb5f	0.01286587
61	0xbc76b7fa	-0.015058512
62	0xbbfd4659	-0.0077293334
63	0xbcb99d49	-0.022658007
64	0x3d886893	0.06660571
65	0xbc10ca01	-0.008837224
66	0x3bfc1ceb	0.007693877
67	0xbd1d29bc	-0.03836988
68	0x3d9378d9	0.07200784
69	0xbccba45e	-0.02485865
70	0xbd33c473	-0.04388852
71	0x3d44c7c0	0.04804206
72	0xbca52136	-0.020157438
73	0x3d1ef16b	0.038804453
74	0x3d516e35	0.051130492
75	0x3d4d2a17	0.050088968
76	0xbd773d09	-0.060360942
77	0xbb9f38a9	-0.0048590493
78	0x3d0e4dc5	0.034742136
79	0xbd03a881	-0.03214312
80	0x3d4df2eb	0.050280493
81	0x3d17eba2	0.03708995
82	0x3c0c6006	0.008567816
83	0xbc6b4b57	-0.014361224
84	0xbd834b94	-0.064109
85	0x3d66904e	0.056289963
86	0x3d91ebc1	0.071250446
87	0x3ba1a45c	0.0049329232
88	0xbd3075c4	-0.04308106
89	0x3ce58a8c	0.028020166
90	0x3c007e5c	0.007842626
91	0xbd3c38fc	-0.045952782
92	0x3d3f97fa	0.046775796
93	0x3cbed22f	0.023293583
94	0xbd674368	-0.056460768
95	0xbd0ca81b	-0.034340005
96	0x3c48595a	0.012228334
97	0xbd3b99c1	-0.045800928
98	0x3d7a887a	0.06116531
99	0x3d0d20fd	0.03445529
100	0x3c8d8467	0.017275048
101	0xbd3fc019	-0.046814058
102	0x3d682838	0.05667898
103	0xbd6258cf	-0.055260476
104	0xbcf9aaa2	-0.030476872
105	0xbd7782c2	-0.060427435
106	0x3cc577ec	0.024105035
107	0xbcaf7173	-0.021416401
108	0xbcc718ed	-0.024303878
109	0xbd5f24fd	-0.054478634
110	0x3cd03a76	0.025418501
111	0x3d790cb1	0.06080312
112	0xbd13e804	-0.03610994
113	0x3d86406b	0.065552555
114	0xbc3bd7ee	-0.011465056
115	0x3bc283fa	0.005936143
116	0xbd405dcc	-0.04696445
117	0x3b12ede4	0.0022419626
118	0xbc813f5f	-0.015777288
119	0x3d1b2065	0.03787269
120	0x3c269418	0.010167144
121	0x3d76f899	0.060295675
122	0x3d8dc646	0.06922583
123	0xbce11325	-0.02747495
124	0xbd6d9be0	-0.058009982
125	0x3d94d62f	0.07267415
126	0x3d2d5422	0.042316563
127	0x3d54b9e7	0.051935103
128	0x3d8d4a23	0.06898906
129	0xbd7e2be6	-0.062053584
130	0xbcf925b8	-0.030413494
131	0x3d2fa2fb	0.04288004
132	0x3d70be6f	0.05877536
133	0xbcd941a6	-0.026520561
134	0xbca9d459	-0.020731138
135	0x3d5bcd04	0.053662315
136	0xbd7dd436	-0.06196996
137	0xbcb190db	-0.021675518
138	0xbcb19aa3	-0.021680182
139	0x3d801ac6	0.06255107
140	0x3d106243	0.03524996
141	0x3d2016db	0.039084297
142	0xbbca873a	-0.006180671
143	0x3b00d4dd	0.0019658126
144	0xbd39273d	-0.045203436
145	0xbc9e77fd	-0.019344324
146	0xbd2ff962	-0.04296244
147	0xbd8eac81	-0.06966496
148	0xbcc3b1db	-0.023888519
149	0x3c803eec	0.015655003
150	0x3ce32186	0.027725946
151	0x3ca4b0de	0.020103868
152	0xbd913bbc	-0.070914716
153	0x3d65a1d0	0.05606252
154	0xbcb71b68	-0.022351936
155	0xbcf40d4a	-0.029791493
156	0xbd34a8e8	-0.044106394
157	0xbd60934c	-0.054827973
158	0x3c0db5ef	0.008649333
159	0xbd2d49a6	-0.042306565
160	0xbb7af1f8	-0.0038291197
161	0x3d90314a	0.07040651
162	0xbd844298	-0.06458014
163	0x3ca69575	0.020334939
164	0xbb9fe447	-0.0048795077
165	0xbca0dc9b	-0.019636443
166	0xbd53ecf1	-0.051739637
167	0xbd93b059	-0.0721137
168	0x3c958b66	0.018254947
169	0xbc456329	-0.012047567
170	0xbd3cda22	-0.046106465
171	0x3c9d697c	0.019215338
172	0x3d432020	0.04763806
173	0xbb37939b	-0.0028011564
174	0x3d0d5886	0.03450825
175	0xbc3c91ec	-0.0115094
176	0xbcb60e23	-0.022223538
177	0x3c1129dc	0.008860078
178	0xbd1504ff	-0.036381718
179	0x396b9df0	0.00022470183
180	0x3d7d535a	0.06184707
181	0xba0f19d0	-0.00054588635
182	0x3d5eb801	0.0543747
183	0x3c5073ee	0.012722952
184	0xbd70e5d1	-0.05881292
185	0xbd852a07	-0.06502157
186	0xbd88ffa0	-0.066893816
187	0xbd8d8628	-0.06910354
188	0x3d43a041	0.047760252
189	0xbd92ec19	-0.07173938
190	0xbc9bef37	-0.019034965
191	0xbc901642	-0.017588738
192	0x3d614c66	0.0550045
193	0x3cf186ac	0.029483162
194	0x3cc12aba	0.023579944
195	0x3cee9bc9	0.029127019
196	0x3c9a1b58	0.018811867
197	0xbd884e9e	-0.0665562
198	0xbcfa5e31	-0.030562492
199	0x3bd184bd	0.0063939975
200	0x3c5f6ae2	0.013636323
201	0x3c0ae798	0.008478068
202	0xbd7a156e	-0.061055593
203	0x3d3c5653	0.045980763
204	0xbd5f9bc2	-0.0545919
205	0x3ccbf49a	0.024896909
206	0xbb840c38	-0.004029777
207	0xbc850715	-0.016238729
208	0xbd715d06	-0.058926605
209	0xbcc33e36	-0.023833375
210	0x3d6a369a	0.05718098
211	0x3d58f9d6	0.052972637
212	0x3d54ccca	0.051953115
213	0xbce80925	-0.028324673
214	0x3d9a971d	0.07548354
215	0xbb055fae	-0.002035122
216	0x3d223b19	0.03960714
217	0x3d131e42	0.035917528
218	0x3d841acf	0.06450426
219	0x3da5a377	0.08087819
220	0x3d9aec87	0.07564645
221	0xbc69a10e	-0.01425959
222	0x3cacf60a	0.021113414
223	0xbd40d55b	-0.04707847
224	0x3c861f55	0.016372362
225	0x3ccb4f73	0.024818158
226	0xbd42534f	-0.04744273
227	0xbd7f8b36	-0.06238862
228	0xbc993e1c	-0.018706374
229	0xbb957d3f	-0.0045620496
230	0x3d7064bc	0.058689818
231	0xbd2058b8	-0.03914711
232	0xbcccb8c5	-0.024990449
233	0x3d29d53e	0.04146313
234	0x3cbd642f	0.02311906
235	0xbbb12bfb	-0.005406854
236	0xbd29edfb	-0.04148672
237	0xbd41ba25	-0.047296662
238	0xbd23eb74	-0.040019467
239	0xbd9817a5	-0.07426385
240	0xbc2e7810	-0.010648742
241	0x3d406195	0.04696806
242	0x3c51ad18	0.012797616
243	0x3d6c6ef2	0.057722993
244	0xbd7724c9	-0.060337815
245	0xbd1a956c	-0.037740156
246	0x3d26bc61	0.040706996
247	0x3b82a2ab	0.0039866767
248	0xbb5fdff7	-0.0034160593
249	0xbb3d5034	-0.0028886916
250	0x3d5c32e4	0.05375947
251	0xbd2cccd4	-0.042187527
252	0xbbb60330	-0.005554579
253	0xbcdae60b	-0.026721021
254	0x3d543c98	0.0518156
255	0xbd1d6a8a	-0.03843168

conv3.0.bias f4 [128]
0	0xbc094840	-0.008379042
1	0x3cb9063b	0.022585979
2	0xbce05c9c	-0.02738791
3	0xbd7ace5d	-0.06123196
4	0xbd472f12	-0.048628874
5	0x3d8960c1	0.067079075
6	0x3ce3b54a	0.027796406
7	0xbd13d87a	-0.03609512
8	0xbd905b0b	-0.07048615
9	0x3ca48a32	0.020085428
10	0xbd8d5ad9	-0.069020934
11	0xbd64f3a9	-0.055896435
12	0x3ccf1bc1	0.025281789
13	0x3c846dfd	0.016165728
14	0xbd28fab1	-0.041254703
15	0x3c93816e	0.018006053
16	0xbd7b9a8f	-0.061426695
17	0x3ce271c1	0.027642133
18	0x3d2c86c3	0.042120706
19	0xbcacc318	-0.021089122
20	0x3d3f3df5	0.046689946
21	0x3d59f1c0	0.053209066
22	0xbd418792	-0.04724843
23	0xbc886321	-0.01664883
24	0x3d92bf17	0.07165354
25	0x3d46f3b8	0.048572272
26	0xbd92202d	-0.07135043
27	0xbd26376d	-0.040580202
28	0xb8aba250	-8.1841485e-05
29	0xbd2fc818	-0.042915434
30	0xbc85290d	-0.016254926
31	0xbb52e619	-0.0032180606
32	0xbd50d41e	-0.05098354
33	0xbcadfeb3	-0.021239614
34	0xbd4a50c6	-0.049393438
35	0x3c281737	0.010259441
36	0x3d783333	0.060595702
37	0x3d059dcd	0.032621194
38	0xbd7a3b42	-0.06109167
39	0x3ce574f8	0.028009877
40	0xbd438c11	-0.047741
41	0xbb971de8	-0.0046117194
42	0x3d92ee19	0.0717432
43	0xbc46c000	-0.012130737
44	0x3d0f6e08	0.035017043
45	0x3d276757	0.040870037
46	0x3d494950	0.049142182
47	0x3d6d2c2d	0.057903457
48	0x3c1b972e	0.009496493
49	0xbd4bcfb4	-0.049758628
50	0xbd853ef4	-0.06506148
51	0x3c9a80ae	0.018860187
52	0xbc6ee6fa	-0.014581436
53	0x3cbdbb5c	0.023160629
54	0xbbd8ea78	-0.0066197477
55	0x3cc86af8	0.02446507
56	0x3d92cc54	0.07167879
57	0x3c7204ae	0.014771624
58	0x3cdbe149	0.026840823
59	0xb904feac	-0.00012683374
60	0xbd59d8ce	-0.053185277
61	0x3d87948b	0.06620129
62	0xbd1ac55d	-0.037785877
63	0xbc6c59ce	-0.014425708
64	0x3c96e048	0.018417493
65	0xb9b5e954	-0.00034696853
66	0xbd40c0e4	-0.047058955
67	0xbd52634b	-0.051364224
68	0x3c4f6d5b	0.01266035
69	0xbce2cc4a	-0.027685303
70	0x3caa328d	0.020776058
71	0x3d756abe	0.05991625
72	0xbd7f0f1f	-0.06227028
73	0x3d003dc5	0.031308908
74	0xbd377519	-0.044789407
75	0x3d93c38e	0.072150335
76	0x3b822ad8	0.0039723925
77	0x3d325dc9	0.04354647
78	0xbd8e65a1	-0.06952978
79	0x3ce4fc6e	0.0279524
80	0x3d08c175	0.03338762
81	0xbd19c9d7	-0.037546005
82	0xbc814569	-0.015780168
83	0xbd4726f8	-0.048621148
84	0xbd25ae22	-0.04044927
85	0xbc72e991	-0.014826194
86	0x3c1d7375	0.009610047
87	0xbd3827d5	-0.04495986
88	0x3cf9774f	0.030452399
89	0xbc1e1cd7	-0.009650431
90	0x3bb92379	0.0056499806
91	0xbca2d8bb	-0.019878736
92	0x3cd41949	0.025890963
93	0x3bdc888e	0.006730146
94	0xbd5443df	-0.05182254
95	0x3d2d0c59	0.042248104
96	0x3d0065c2	0.031347044
97	0x3d92f120	0.07174897
98	0x3d1f08a8	0.038826615
99	0xbd923775	-0.07139484
100	0xbcb581e3	-0.022156661
101	0xbcd1aa3c	-0.02559387
102	0x3ceaa58f	0.028643398
103	0x3c9d871f	0.01922947
104	0x3bc4b5bb	0.0060031093
105	0x3ce5aebd	0.028037423
106	0xbd4c5ec7	-0.049895074
107	0x3b1de2e8	0.0024091545
108	0x3d65f50f	0.05614191
109	0xbcc1eb7b	-0.023671856
110	0x39ee43dd	0.0004544546
111	0xbd1941f7	-0.037416425
112	0x3d68dc25	0.05685057
113	0x3c7329f1	0.014841543
114	0x3d35e93c	0.044411883
115	0xbc9aac93	-0.018881118
116	0xbc8d547c	-0.0172522
117	0x3d1c079e	0.0380932
118	0x3ca8f719	0.020625638
119	0x3d156b98	0.036479563
120	0x3cbb8d0b	0.022894403
121	0x3d80a52d	0.06281505
122	0xbc248b9f	-0.010043054
123	0xbd8fa662	-0.07014157
124	0xba3f66d5	-0.0007301395
125	0x3cb17c26	0.021665644
126	0xbd8b146a	-0.06791003
127	0x3d8b6fcf	0.06808435

conv3.1.weight f4 [128]
0	0x3f8009ea	1.0003026
1	0x3f7d8014	0.99023557
2	0x3f8077d3	1.0036567
3	0x3f809db9	1.0048133
4	0x3f80e233	1.006903
5	0x3f7fa105	0.9985507
6	0x3f802575	1.0011431
7	0x3f80c264	1.0059323
8	0x3f7fe284	0.9995501
9	0x3f8012ad	1.0005699
10	0x3f7f0e70	0.99631405
11	0x3f802559	1.0011398
12	0x3f7d16af	0.9886274
13	0x3f7fbbdb	0.9989602
14	0x3f7f6f12	0.99778855
15	0x3f7f8c1a	0.99823153
16	0x3f8055a1	1.0026132
17	0x3f7f9e8c	0.998513
18	0x3f7e9227	0.9944176
19	0x3f7dbd22	0.9911672
20	0x3f7f36b4	0.99692845
21	0x3f80051a	1.0001557
22	0x3f7ffd31	0.99995714
23	0x3f80798f	1.0037097
24	0x3f7e86ae	0.99424255
25	0x3f7f7375	0.9978555
26	0x3f7d38bc	0.98914695
27	0x3f8050f5	1.0024706
28	0x3f7f6672	0.99765694
29	0x3f804522	1.0021098
30	0x3f806d8b	1.003343
31	0x3f8261f4	1.0186143
32	0x3f80207f	1.0009917
33	0x3f80bb0d	1.0057083
34	0x3f7e12f9	0.992477
35	0x3f7fc783	0.99913806
36	0x3f80396a	1.0017521
37	0x3f8070e8	1.0034456
38	0x3f7fffbf	0.9999961
39	0x3f809311	1.0044881
40	0x3f7dd322	0.9915029
41	0x3f7f2a55	0.9967397
42	0x3f7fddb3	0.9994766
43	0x3f80bc9f	1.0057563
44	0x3f805cad	1.0028282
45	0x3f807423	1.0035442
46	0x3f7fa609	0.99862725
47	0x3f81d3c4	1.0142751
48	0x3f8069e2	1.0032313
49	0x3f8058a2	1.0027049
50	0x3f80315f	1.0015067
51	0x3f80070d	1.0002152
52	0x3f7ff5fb	0.9998471
53	0x3f81c6ce	1.0138795
54	0x3f7efffe	0.99609363
55	0x3f7e2061	0.99268156
56	0x3f7e80ee	0.9941548
57	0x3f801513	1.0006431
58	0x3f7d92a0	0.99051857
59	0x3f7f3bc3	0.99700564
60	0x3f808512	1.004061
61	0x3f7fffbb	0.9999959
62	0x3f7d364e	0.9891099
63	0x3f8098b5	1.0046602
64	0x3f80272b	1.0011953
65	0x3f807aea	1.003751
66	0x3f8027bb	1.0012125
67	0x3f804962	1.0022395
68	0x3f805dac	1.0028586
69	0x3f7d94b0	0.99055004
70	0x3f7ed738	0.9954715
71	0x3f807e22	1.0038493
72	0x3f7f1e23	0.9965536
73	0x3f803e88	1.0019083
74	0x3f7fb554	0.9988606
75	0x3f7ffb8c	0.99993205
76	0x3f802798	1.0012083
77	0x3f7e1d8f	0.9926385
78	0x3f80b655	1.0055643
79	0x3f803a04	1.0017705
80	0x3f806d12	1.0033286
81	0x3f7e9d77	0.9945902
82	0x3f7ef05a	0.995855
83	0x3f7f4582	0.99715436
84	0x3f7fd993	0.99941367
85	0x3f7d1b3a	0.9886967
86	0x3f8086b9	1.0041114
87	0x3f7d7365	0.99004203
88	0x3f7e35bd	0.9930075
89	0x3f8052f9	1.0025321
90	0x3f7fed52	0.999715
91	0x3f809b3a	1.0047371
92	0x3f809962	1.0046809
93	0x3f805c75	1.0028216
94	0x3f7ea67d	0.9947279
95	0x3f80ae6e	1.0053232
96	0x3f809c23	1.0047649
97	0x3f7e3b5a	0.99309313
98	0x3f806bb0	1.0032864
99	0x3f805199	1.0024902
100	0x3f8075df	1.0035971
101	0x3f80c055	1.0058695
102	0x3f7d2ed9	0.9889961
103	0x3f80abf0	1.0052471
104	0x3f814b01	1.0101014
105	0x3f7cf6a3	0.9881384
106	0x3f805f5e	1.0029104
107	0x3f7ea722	0.99473774
108	0x3f80265d	1.0011708
109	0x3f81a08e	1.0127122
110	0x3f8024b1	1.0011197
111	0x3f80fd57	1.0077313
112	0x3f80573c	1.0026622
113	0x3f7e3d9f	0.99312776
114	0x3f7fe1e2	0.99954045
115	0x3f806238	1.0029974
116	0x3f7fa282	0.9985734
117	0x3f7fe082	0.99951947
118	0x3f7dd10b	0.991471
119	0x3f805bac	1.0027976
120	0x3f80c12c	1.0058951
121	0x3f801578	1.0006552
122	0x3f7f8ee5	0.99827415
123	0x3f803742	1.0016863
124	0x3f7f2644	0.99667764
125	0x3f7fd89c	0.99939895
126	0x3f7fc9c6	0.99917257
127	0x3f803eed	1.0019203
