Code/model/model_raw_audio_state_dict_202002260446.pt (torch_old, 951172 bytes, 50 tensors)

conv1.0.weight f4 [100, 1, 3]
0.47205427 -0.18263623 0.15250391 -0.14094134 -0.3786414 0.059682287 0.25339413 0.38245195
-0.3786992 -0.31609058 0.082790256 0.29813632 -0.09809237 -0.018932145 -0.3820206 -0.33460674
0.2115228 -0.2572393 -0.4799112 0.14099714 -0.26551822 0.17058782 -0.43885058 -0.24734141
0.5453009 0.06483216 -0.33820197 0.13866292 0.15238172 0.43580443 -0.35776892 -0.3579916
-0.058095463 -0.34382376 -0.25389418 0.11535167 0.18263891 -0.4621134 0.5526065 -0.15087935
-0.57701916 0.33273095 -0.5590341 0.395866 -0.3697488 0.19500443 0.15356284 -0.3905726
0.4396959 0.033413995 -0.12766707 -0.19600138 0.51420295 -0.33823767 0.20172049 0.48647967
0.20581912 -0.45386824 0.0976503 0.51652914 0.3001197 -0.12898725 0.1154045 -0.15922096
-0.3603952 -0.3759364 -0.3324668 0.5411111 -0.20520487 -0.43823296 -0.38127008 0.45754868
-0.52546805 0.20671175 0.29530877 0.23133044 -0.2500615 -0.29998735 -0.0076793083 -0.3044985
0.23736787 0.23029809 -0.5203865 0.51417065 -0.38770926 -0.19432966 -0.06421537 0.17915414
-0.45809674 0.28098395 0.2139606 -0.45515376 -0.14005686 -0.33364367 -0.5495168 -0.22720581
-0.20537762 -0.14077282 -0.07237086 0.50567764 0.25725487 -0.43689746 -0.49079734 -0.17365834
-0.48671818 0.50817454 0.13571002 0.018580992 0.49107775 0.07021095 0.5486061 0.162707
0.5090691 0.24346617 -0.39102465 0.10284588 -0.37682834 0.13980372 0.10056127 0.55491686
0.3641839 0.5693394 0.16597779 -0.022845121 -0.46195626 -0.5372286 0.31463513 -0.3174977
0.35607716 0.5155641 -0.14088917 0.08368472 -0.44466695 0.19382575 0.15002805 -0.54113805
0.26628965 0.31368792 0.21521947 -0.044541746 -0.19045141 0.03730487 0.4278813 0.22216088
0.27690002 -0.54935867 0.27843267 -0.13750611 -0.5084094 0.33915612 0.058974523 0.24742867
-0.34127244 -0.26580197 0.5309274 0.08009543 -0.010643938 -0.21525766 -0.38873643 0.07608994
-0.2912518 0.3486712 0.41808385 0.3232151 -0.48585993 0.27500573 -0.51097715 -0.07330347
0.3981528 0.28120127 0.32454693 -0.40717524 -0.3195649 0.19860522 -0.40746072 -0.028938632
0.46485022 0.06052253 0.28549618 -0.35450894 -0.23011398 0.12640657 -0.38571614 -0.013917377
0.21843344 -0.37757593 0.53861105 -0.06571759 -0.27809852 0.3373019 -0.08860648 -0.49688202
-0.4105482 0.2950055 -0.24502861 -0.37678042 -0.28889465 -0.1304862 -0.12239224 0.16119207
0.45842457 -0.330501 -0.18760137 -0.14087673 0.2646831 -0.11301388 -0.19879544 0.19504687
-0.47055176 -0.40228352 0.3109258 -0.25062305 -0.07048393 0.55379 0.4589001 -0.56727105
0.07421126 0.26707155 0.23470926 0.5678863 -0.008816715 0.41073182 -0.16929822 -0.34620854
0.49695206 0.23081173 -0.44904992 0.22035259 0.5188562 -0.19394574 -0.16739269 -0.32265788
-0.24826276 0.5397486 -0.15199426 -0.2993921 -0.42219555 0.14456496 0.17960703 -0.30729374
-0.18918484 -0.46212584 -0.08179785 0.30417436 0.22017384 0.045389023 -0.31334037 -0.0011747008
-0.5466105 0.20601527 -0.32843986 -0.41797101 -0.5376346 0.1583347 0.16543949 0.21117751
00000000: 19b1 f13e fe04 3bbe fc29 1c3e ed52 10be
00000010: 49dd c1be 6a75 743d e0bc 813e bed0 c33e
00000020: dde4 c1be a0d6 a1be f08d a93d 53a5 983e
00000030: a7e4 c8bd 9617 9bbc 3498 c3be 9351 abbe
00000040: 6f99 583e dfb4 83be ecb6 f5be 8e61 103e
00000050: 01f2 87be 93ae 2e3e 06b1 e0be 1147 7dbe
00000060: d798 0b3f b9c6 843d cf28 adbe a7fd 0d3e
00000070: f409 1c3e c221 df3e 7d2d b7be ad4a b7be
00000080: 82f5 6dbd ab09 b0be 6bfe 81be 7f3d ec3d
00000090: b205 3b3e 219a ecbe 9f77 0d3f 1e80 1abe
000000a0: 87b7 13bf b65b aa3e dc1c 0fbf f3ae ca3e
000000b0: b74f bdbe 3eaf 473e 943f 1d3e 22f9 c7be
000000c0: d21f e13e 1ddd 083d 28bb 02be 96b4 48be
000000d0: cea2 033f 7d2d adbe d18f 4e3e dd13 f93e
000000e0: 3fc2 523e 6b61 e8be e1fc c73d 413b 043f
000000f0: 4aa9 993e 3c15 04be 3259 ec3d d20a 23be
00000100: b885 b8be bc7a c0be 1739 aabe 4286 0a3f
00000110: 3a21 52be 1260 e0be d535 c3be d243 ea3e
00000120: 1385 06bf 3fac 533e b632 973e e3e1 6c3e
00000130: 1008 80be f197 99be b5a2 fbbb 3ae7 9bbe
00000140: 9010 733e 43d3 6b3e 0d38 05bf b0a0 033f
00000150: d481 c6be 5bfe 46be 5983 83bd 2f74 373e
00000160: a88b eabe 21dd 8f3e 7d18 5b3e ea09 e9be
00000170: 116b 0fbe 58d3 aabe 22ad 0cbf a4a8 68be
00000180: 834e 52be c026 10be 2c37 94bd 1774 013f
00000190: e9b6 833e 06b1 dfbe ca49 fbbe 7ed3 31be
000001a0: 2033 f9be ba17 023f 91f7 0a3e 2a37 983c
000001b0: 8b6e fb3e c2ca 8f3d 7371 0c3f aa9c 263e
000001c0: 5a52 023f 324f 793e 6234 c8be dca0 d23d
000001d0: a5ef c0be b528 0f3e 11f3 cd3d 080f 0e3f
000001e0: 5076 ba3e 3ac0 113f 15f6 293e b125 bbbc
000001f0: 8885 ecbe d087 09bf db17 a13e 0f8f a2be
00000200: bf4f b63e 02fc 033f 4045 10be e562 ab3d
00000210: 63ab e3be 427a 463e f4a0 193e 0688 0abf
00000220: 1e57 883e b49b a03e 7e62 5c3e 6871 36bd
00000230: b205 43be fecc 183d 4213 db3e 247e 633e
00000240: d7c5 8d3e c5a2 0cbf ba8e 8e3e 67ce 0cbe
00000250: 1e27 02bf dfa5 ad3e 458f 713d f15d 7d3e
00000260: 43bb aebe 3217 88be dcea 073f 1309 a43d
00000270: e963 2ebc 816c 5cbe 7608 c7be 0bd5 9b3d
00000280: f51e 95be 0885 b23e 160f d63e 737c a53e
00000290: a2c2 f8be 8dcd 8c3e 66cf 02bf 2120 96bd
000002a0: afda cb3e 9df9 8f3e 042b a63e 4679 d0be
000002b0: 039e a3be 2b5f 4b3e b19e d0be b610 edbc
000002c0: d900 ee3e 79e6 773d 8e2c 923e 3282 b5be
000002d0: 00a3 6bbe b970 013e 967c c5be b605 64bc
000002e0: 04ad 5f3e a251 c1be 6ae2 093f f296 86bd
000002f0: ee62 8ebe d6b2 ac3e 5077 b5bd 5267 febe
00000300: 6033 d2be f60a 973e c8e8 7abe 5de9 c0be
00000310: 00ea 93be 2d9e 05be c8a8 fabd 890f 253e
00000320: a0b6 ea3e 6d37 a9be 931a 40be fd41 10be
00000330: 8b84 873e d273 e7bd 0891 4bbe 5eba 473e
00000340: 29ec f0be 1bf8 cdbe ab31 9f3e aa51 80be
00000350: e159 90bd 2ec5 0d3f f4f4 ea3e ad38 11bf
00000360: 13fc 973d 9abd 883e a057 703e ff60 113f
00000370: fc73 10bc 714b d23e 835c 2dbe 3f42 b1be
00000380: 8070 fe3e e959 6c3e dfe9 e5be 1ca4 613e
00000390: c3d3 043f b699 46be fd68 2bbe 6a33 a5be
000003a0: 9838 7ebe f72c 0a3f 62a4 1bbe ec49 99be
000003b0: 042a d8be d608 143e e8ea 373e 9b55 9dbe
000003c0: acb9 41be c29b ecbe a285 a7bd bebc 9b3e
000003d0: 4075 613e d7e9 393d 266e a0be 6bf8 99ba
000003e0: aaee 0bbf abf5 523e 4529 a8be 4c00 d6be
000003f0: 6ca2 09bf 7e22 223e f868 293e eb3e 583e

conv1.0.bias f4 [100]
-0.21911222 0.1080361 0.17196524 -0.31898656 0.13349521 0.4855317 0.49142826 0.4560541
0.49379325 0.08028984 0.22241497 -0.2700197 0.123494744 0.26182216 0.37520158 0.29645902
0.5304264 0.18583536 0.14103639 0.43862498 0.124893665 0.26547122 -0.40853202 0.27888256
0.32083118 0.035406232 0.07985449 0.45617366 0.2408722 0.0944342 0.49292052 -0.4374474
-0.43953162 0.531425 -0.43941325 -0.55521166 0.4267825 -0.15395296 -0.20241791 0.39254177
-0.5507963 0.42864966 0.49886286 0.38730717 -0.53941864 0.44806516 0.34399945 0.104135334
0.32659817 0.2866568 -0.11542246 0.1792509 -0.22354871 0.479836 0.036401868 0.2545886
0.2822919 -0.26022857 0.28194046 0.07940662 -0.43327332 -0.15592799 0.37607563 0.43259704
0.4118523 -0.426593 0.22265488 -0.3376837 0.33176935 0.1329605 -0.25203407 -0.06667316
0.04786229 -0.10655677 0.22855371 -0.46483803 0.04746765 0.0161407 0.5085546 0.3203445
-0.16407472 -0.5285386 0.0919078 0.3861714 -0.066292405 -0.39324814 -0.5529581 0.37752587
-0.34282574 -0.0005211061 0.112184644 0.4769386 0.22461039 -0.47112462 -0.37265092 -0.05162269
-0.18924972 0.30386472 0.08448303 0.17806858
00000000: f45e 60be 0842 dd3d a817 303e 3552 a3be
00000010: f8b2 083e 9c97 f83e 7c9c fb3e ec7f e93e
00000020: 78d2 fc3e 006f a43d c0c0 633e 0640 8abe
00000030: d0ea fc3d 8e0d 863e 6c1a c03e 7ac9 973e
00000040: 06ca 073f a04b 3e3e d86b 103e 7493 e03e
00000050: 40c8 ff3d d8eb 873e 1c2b d1be b2c9 8e3e
00000060: fc43 a43e 2006 113d c08a a33d 988f e93e
00000070: 34a7 763e b866 c13d 1460 fc3e 1bf9 dfbe
00000080: 4a0a e1be 780b 083f c6fa e0be 5a22 0ebf
00000090: 3c83 da3e d8a5 1dbe a446 4fbe 3cfb c83e
000000a0: fc00 0dbf f877 db3e f46a ff3e 204d c63e
000000b0: 5717 0abf cc68 e53e b220 b03e e844 d53d
000000c0: e037 a73e aec4 923e 9c62 ecbd 8c8d 373e
000000d0: f4e9 64be 10ad f53e 201a 153d 7059 823e
000000e0: 9088 903e ae3c 85be 805a 903e f09f a23d
000000f0: 00d6 ddbe 96ab 1fbe fc8c c03e 5c7d dd3e
00000100: 4ede d23e 666a dabe a4ff 633e e1e4 acbe
00000110: acdd a93e cc26 083e 9c0a 81be f08b 88bd
00000120: 400b 443d 703a dabd fc09 6a3e 40ff edbe
00000130: 706d 423d 8039 843c a230 023f 3204 a43e
00000140: 3403 28be 4e4e 07bf 283a bc3d 42b8 c53e
00000150: 50c4 87bd d257 c9be a98e 0dbf 124b c13e
00000160: db86 afbe d79a 08ba 10c1 e53d 4c31 f43e
00000170: 4400 663e 3f37 f1be 1acc bebe 5072 53bd
00000180: aeca 41be 2894 9b3e 7005 ad3d 9c57 363e

conv1.1.weight f4 [100]
0.9929084 0.99820113 1.003379 1.008748 0.996003 0.993572 0.99371946 0.9963771
0.99763125 0.998616 0.9964987 0.9965969 0.994138 0.99538124 0.997829 1.0053886
0.99951434 1.014565 0.995555 1.0206879 0.99662286 0.9975654 1.0313491 1.0010638
1.0078458 0.9986503 0.99891233 0.9993511 0.99141353 1.0091121 0.9945419 0.9972588
0.9907796 1.002729 0.9906735 0.99326503 0.99656916 0.99471915 0.99345964 0.9940749
0.99434835 0.9901103 0.9967596 0.99626523 1.0025033 1.0139489 1.0201015 0.99815
1.0098137 0.99842834 1.0025473 0.99607307 0.9900862 1.004658 1.0008814 0.9956714
0.99213976 0.9951252 1.0126386 1.0074348 0.9972083 1.0024499 1.0036373 1.0050455
0.99942374 0.991774 0.9954123 0.9906913 1.0113313 0.99124205 1.0093719 1.0041348
0.99572474 0.9903243 1.0063779 1.0033833 1.0083975 1.005811 0.993384 1.0096799
0.99469006 0.9923052 0.99196184 0.9961618 1.0004119 0.99242455 0.9933689 0.99894506
0.9909413 1.0127795 1.006895 0.9960988 0.99044704 0.99330163 1.0001855 1.0121502
0.9955787 0.99601954 1.0010155 0.99546844
00000000: 3f2f 7e3f 1c8a 7f3f b96e 803f a81e 813f
00000010: 0dfa 7e3f bc5a 7e3f 6664 7e3f 9212 7f3f
00000020: c364 7f3f 4ca5 7f3f 8a1a 7f3f f920 7f3f
00000030: d47f 7e3f 4ed1 7e3f b971 7f3f 93b0 803f
00000040: 2ce0 7f3f 44dd 813f b1dc 7e3f e7a5 823f
00000050: ad22 7f3f 7260 7f3f 3f03 843f dc22 803f
00000060: 1701 813f 8ca7 7f3f b8b8 7f3f 79d5 7f3f
00000070: 47cd 7d3f 962a 813f 4c9a 7e3f 5a4c 7f3f
00000080: bba3 7d3f 6d59 803f c79c 7d3f 9e46 7e3f
00000090: 281f 7f3f eaa5 7e3f 5f53 7e3f b17b 7e3f
000000a0: 9d8d 7e3f de77 7d3f a32b 7f3f 3d0b 7f3f
000000b0: 0752 803f 14c9 813f b092 823f c286 7f3f
000000c0: 9341 813f 0099 7f3f 7853 803f a5fe 7e3f
000000d0: 4a76 7d3f a298 803f e21c 803f 52e4 7e3f
000000e0: dffc 7d3f 86c0 7e3f 249e 813f a0f3 803f
000000f0: 0b49 7f3f 4750 803f 3077 803f 55a5 803f
00000100: 3cda 7f3f e7e4 7d3f 57d3 7e3f f29d 7d3f
00000110: 4e73 813f 0ac2 7d3f 1933 813f 7d87 803f
00000120: d1e7 7e3f e585 7d3f fed0 803f dd6e 803f
00000130: 2b13 813f 6abe 803f 6a4e 7e3f 313d 813f
00000140: 02a4 7e3f b707 7e3f 36f1 7d3f 7604 7f3f
00000150: 7f0d 803f 890f 7e3f 6d4d 7e3f ddba 7f3f
00000160: 54ae 7d3f c2a2 813f efe1 803f 5500 7f3f
00000170: f08d 7d3f 0449 7e3f 1406 803f 238e 813f
00000180: 3fde 7e3f 23fb 7e3f 4721 803f 05d7 7e3f

conv1.1.bias f4 [100]
0.014417849 0.0023852976 0.025581954 0.038955048 -0.007477525 -0.020970728 0.0056651114 0.0008580727
0.024191419 0.02395396 0.02792698 0.0012981697 0.02511042 0.00047254394 0.023461366 0.02842994
0.020576049 0.0771796 0.013023559 0.05387097 0.027466731 0.019809905 0.07208737 0.01906834
0.053093452 0.021932555 0.032098804 0.033538368 0.0023034208 0.047380503 -0.0032717874 -0.022121051
0.014075782 0.04451781 -0.0021992002 0.010255644 0.017595036 -0.0008594353 0.024727244 0.016114386
0.011188859 0.011926442 0.013902651 0.022645779 0.0363523 0.047393154 0.057978906 0.0077120047
0.035205755 0.021912294 0.05623599 0.026663281 0.019915445 0.02432751 0.03567954 0.02285355
0.009975585 0.01927399 0.05080532 0.06816791 0.037357334 0.030968674 0.030513253 0.03052469
0.026921902 0.011263757 0.006444852 0.0042211055 0.048397172 -0.011028086 0.03949292 0.0010699886
0.0014192675 0.010570018 0.05053464 0.044735212 0.020226218 0.054097984 0.0043824012 0.04536347
0.012114791 -0.0020003936 -0.007952825 0.018935598 0.008432936 -0.012384151 0.014265822 0.015632506
0.0063797403 -0.008604248 0.03149669 0.027353384 0.009288963 0.0071261865 0.001108814 0.042582702
-0.0021345983 0.0051820124 0.041363906 0.025275245
00000000: d738 6c3c a752 1c3b 3f91 d13c 548f 1f3d
00000010: 0706 f5bb ceca abbc 66a2 b93b 49f0 603a
00000020: 152d c63c 183b c43c 1fc7 e43c 5927 aa3a
00000030: 5eb4 cd3c c6bf f739 0d32 c03c e8e5 e83c
00000040: 1a8f a83c 5710 9e3d c460 553c cea7 5c3d
00000050: e901 e13c 6248 a23c 8ba2 933d 3535 9c3c
00000060: 8578 593d e7ab b33c 097a 033d 875f 093d
00000070: fdf4 163b 0f12 423d 7c6b 56bb 3537 b5bc
00000080: 1c9e 663c 4f58 363d 7520 10bb 4a07 283c
00000090: 7723 903c ba4b 61ba ca90 ca3c 5102 843c
000000a0: 7a51 373c 2067 433c f2c7 633c a483 b93c
000000b0: 26e6 143d 531f 423d 4a7b 6d3d fcb4 fc3b
000000c0: e933 103d 6981 b33c b657 663d f46c da3c
000000d0: b725 a33c 7c4a c73c b624 123d 5e37 bb3c
000000e0: a370 233c 7de4 9d3c 3d19 503d 9e9b 8b3d
000000f0: 0104 193d 04b2 fd3c eef6 f93c ea0e fa3c
00000100: 528b dc3c 9f8b 383c 562f d33b 3351 8a3b
00000110: 1d3c 463d 25af 34bc 54c3 213d dc3e 8c3a
00000120: b706 ba3a de2d 2d3c 69fd 4e3d 453c 373d
00000130: 74b1 a53c d995 5d3d 3f9a 8f3b 0ccf 393d
00000140: 1e7d 463c 0919 03bb 914c 02bc d41e 9b3c
00000150: 4c2a 0a3c e5e6 4abc 32bb 693c be0f 803c
00000160: 240d d13b d5f8 0cbc ac02 013d 3414 e03c
00000170: bc30 183c c982 e93b a055 913a 336b 2e3d
00000180: 9ee4 0bbb dfcd a93b 336d 293d 080e cf3c

conv1.1.running_mean f4 [100]
-0.37125114 0.26637 0.08343816 -0.3412538 0.30530852 0.61647093 0.69952345 0.6335711
0.40018892 -0.16994816 0.48883933 -0.10395629 0.029397063 0.39786258 0.558674 0.31095105
0.41153213 0.19255462 -0.16675639 0.3834948 0.026233692 0.5737909 -0.40964517 0.40347955
0.32896534 0.14511818 0.1055824 0.37899795 0.4633643 0.09376409 0.6241867 -0.05517032
-0.29544178 0.41918126 -0.043087084 -0.7832786 0.04466813 -0.4690524 0.026533827 0.118743815
-0.92933154 0.7805156 0.37725732 0.22948286 -0.5047227 0.43476433 0.35093585 -0.13250813
0.32434556 0.39226374 -0.10331762 0.060401104 -0.011932716 0.4337357 -0.051533952 0.36105007
-0.063331395 -0.07840975 0.2722276 0.08227118 -0.26476648 -0.096356444 0.309084 0.5180063
0.53601485 -0.15249038 0.051466923 -0.11080784 0.34793353 0.36631054 -0.2483946 -0.22000293
-0.15043938 -0.44043913 0.235022 -0.46572202 -0.0066931904 0.026923766 0.80930924 0.31451565
0.08831946 -0.7246884 0.38837588 0.5722283 0.0073318197 -0.62994653 -0.91432446 0.21387982
-0.5459523 0.008748062 0.04744886 0.66804886 0.36980516 -0.1406148 -0.4654488 -0.052144807
-0.11119913 0.49461123 0.0754806 0.2865068
00000000: a114 bebe a661 883e a0e1 aa3d d1b8 aebe
00000010: 6651 9c3e 0ad1 1d3f f813 333f b731 223f
00000020: 90e5 cc3e e406 2ebe 2649 fa3e 09e7 d4bd
00000030: 1cd2 f03c a5b4 cb3e 4205 0f3f fa34 9f3e
00000040: 57b4 d23e 0a2d 453e 30c2 2abe 6e59 c43e
00000050: 0ae8 d63c f6e3 123f 03bd d1be df94 ce3e
00000060: 256e a83e dc99 143e 963b d83d 050c c23e
00000070: 163e ed3e 6307 c03d b3ca 1f3f 46fa 61bd
00000080: 2544 97be ed9e d63e 157c 30bd f284 48bf
00000090: eef5 363d a327 f0be 785d d93c f52f f33d
000000a0: ace8 6dbf dfcf 473f df27 c13e 8efd 6a3e
000000b0: 8235 01bf 6e99 de3e ddad b33e 36b0 07be
000000c0: 9f10 a63e cbd6 c83e 3098 d3bd 2667 773d
000000d0: 7081 43bc 9b12 de3e 4415 53bd 8edb b83e
000000e0: e4b3 81bd 4a95 a0bd 6a61 8b3e cb7d a83d
000000f0: 798f 87be 8756 c5bd 4240 9e3e 109c 043f
00000100: 4538 093f 7026 1cbe fbce 523d 39ef e2bd
00000110: 5824 b23e 0e8d bb3e 275b 7ebe 7348 61be
00000120: c80c 1abe 3d81 e1be 9ba9 703e 1e73 eebe
00000130: 8d52 dbbb 3b8f dc3c e42e 4f3f 3208 a13e
00000140: d5e0 b43d 2e85 39bf 34d9 c63e 8e7d 123f
00000150: c33f f03b 2d44 21bf 2b11 6abf 5003 5b3e
00000160: 88c3 0bbf 0854 0f3c bc59 423d 4005 2b3f
00000170: 1a57 bd3e 53fd 0fbe 4e4f eebe cb95 55bd
00000180: 5fbc e3bd af3d fd3e 9395 9a3d 05b1 923e

conv1.1.running_var f4 [100]
3802.8184 4446.6997 2785.1548 1234.6732 4789.361 2609.9062 6699.612 5994.7295
3735.2344 10073.11 11764.694 5146.797 1941.4854 4406.812 5234.1167 1097.4291
3160.8918 482.41946 15537.231 3349.4163 1572.6804 15398.753 525.5664 5236.874
2108.016 2913.9177 465.09015 1432.8158 8153.1924 370.1301 3602.7654 23813.832
3355.5535 4843.6274 24443.535 8865.571 22543.145 16335.543 7969.2993 12157.991
23519.469 20814.6 2281.3943 4329.0386 1286.8961 2364.3127 509.15637 9409.382
484.01956 3036.0771 593.3981 3243.507 7567.4883 633.35846 3941.0002 2751.0393
18879.256 6585.995 2313.9302 650.4205 4371.514 968.7672 2693.7017 3266.0679
2441.2603 12175.402 5672.7544 8241.163 717.2758 10243.444 547.11743 8034.6055
6446.0757 17176.906 1550.9525 325.14752 1891.5397 2375.8977 14619.066 678.76556
10635.501 6363.4575 13659.323 6914.4717 2318.9705 9482.318 20778.584 4686.9854
6868.817 1557.299 1719.39 6720.64 3503.7773 18123.297 3518.5623 581.43823
1161.9012 6034.8027 964.9226 2512.8196
00000000: 18ad 6d45 99f5 8a45 7a12 2e45 8b55 9a44
00000010: e3aa 9545 801e 2345 e55c d145 d655 bb45
00000020: c073 6945 7164 1d46 c7d2 3746 60d6 a045
00000030: 88af f244 7fb6 8945 ef90 a345 bb2d 8944
00000040: 458e 4545 b135 f143 edc4 7246 a956 5145
00000050: c695 c444 039b 7046 4064 0344 fea6 a345
00000060: 42c0 0345 af1e 3645 8a8b e843 1b1a b344
00000070: 8ac9 fe45 a710 b943 3f2c 6145 aa0b ba46
00000080: dbb8 5145 055d 9745 12f7 be46 4986 0a46
00000090: 4a1e b046 2c3e 7f46 650a f945 f7f7 3d46
000000a0: f0be b746 339d a246 4f96 0e45 4f48 8745
000000b0: addc a044 01c5 1345 0494 fe43 8705 1346
000000c0: 8102 f243 3cc1 3d45 7a59 1444 1db8 4a45
000000d0: e87b ec45 f156 1e44 0150 7645 a1f0 2b45
000000e0: 837e 9346 f6cf cd45 e29e 1045 e99a 2244
000000f0: 1d9c 8845 1a31 7244 3a5b 2845 1621 4c45
00000100: 2a94 1845 9c3d 3e46 0946 b145 a7c4 0046
00000110: a751 3344 c70d 2046 84c7 0844 d814 fb45
00000120: 9b70 c945 d031 8646 7bde c144 e292 a243
00000130: 4571 ec44 5d7e 1445 446c 6446 ffb0 2944
00000140: 012e 2646 a9db c645 4b6d 5546 c613 d845
00000150: 87ef 1045 4629 1446 2b55 a246 e277 9245
00000160: 89a6 d645 91a9 c244 7bec d644 1f05 d245
00000170: 70fc 5a45 9896 8d46 ffe8 5b45 0c5c 1144
00000180: d73c 9144 6c96 bc45 0c3b 7144 1d0d 1d45

conv2.0.weight f4 [64, 100, 3]
0.002809641 -0.0019457741 0.025164172 -0.031839892 -0.026881624 -0.05545085 -0.044193268 0.052226637
-0.00020634994 -0.03843747 0.02470426 -0.003353829 0.037933923 0.039495964 -0.05800243 -0.024496598
-0.0387257 0.033893738 -0.045416463 0.050157916 0.020298922 0.013373099 -0.029078875 0.036003623
-0.025847584 -0.049642198 0.044776767 -0.016531458 -0.036878638 -0.032982532 -0.011366002 -0.042495582
-0.055567384 -0.047763284 0.03529084 0.025633916 0.030187534 -0.039315607 0.027505698 -0.01898437
-0.059622712 0.014128446 -0.026975159 -0.030707195 -0.002438605 -0.013382611 -0.04862385 0.044352163
-0.05246662 -0.01590396 0.046193738 -0.03130972 -0.03231728 0.011655117 0.012782911 -0.0117561035
-0.043944236 -0.032401294 0.022439312 0.00084075355 -0.047536593 -0.024315463 -0.051195994 0.024514541
-0.00721798 -0.021879448 -0.02654784 0.031084819 -0.044072896 0.013739357 -0.021619815 -0.04561596
-0.049179014 0.043859765 0.046649642 -0.061254382 0.023569006 -0.03128288 -0.04177848 0.02952172
-0.011583012 -0.06239701 0.037904125 0.02696774 -0.0051321294 -0.024370685 -0.0065279817 -0.04525889
-0.06695318 0.031119622 -0.0030733894 -0.057562005 0.029301094 -0.0063476944 -0.04881934 -0.058116388
-0.05298273 0.03163012 0.019773116 -0.043061502 -0.020382788 -0.00088240684 0.037475586 0.047541674
0.031019505 -0.042733133 -0.013424098 -0.0017430875 0.015398064 0.013621428 -0.060211007 0.008299534
0.036685247 0.003441302 0.041264415 -0.03736484 -0.03015672 0.0151759945 -0.0091182105 0.030121634
0.04414262 0.02650778 0.03545413 0.029796267 -0.00834901 0.010525875 0.035626672 -0.06360469
0.04105097 -0.0612961 -0.031084936 -0.038372252 -0.037375428 -0.05946245 0.0019137209 0.034228306
0.048044793 -0.002757004 0.018355265 -0.037252925 -0.0009123707 0.045472957 0.018895295 -0.04373534
0.009577568 0.034623515 -0.008368852 -0.010234183 -0.03684306 -0.040725112 0.0003661323 0.013178364
-0.034378514 -0.055022374 -0.0053833947 -0.022871884 0.013232841 0.03397442 0.016148968 0.0025456317
-0.01612526 -0.04112123 0.017392663 0.020677328 0.0034851232 0.032512445 0.023566298 0.0039704866
-0.016713815 0.00081035437 -0.054042593 -0.022201022 -0.052794926 0.04488842 0.0415424 -0.0023644469
0.01584699 0.011193751 0.02389532 0.04181656 0.012456309 0.009753201 -0.034982234 -0.02265766
0.049376648 -0.023041075 0.04470946 -0.041126948 -0.06187558 -0.002960599 0.0015056955 -0.013793622
0.0123216035 0.051540833 -0.0108449645 0.04776047 -0.027342046 -0.04687998 0.041125607 -0.024139462
-0.054174732 0.0073853284 0.0016319477 -0.05452254 -0.03401955 -0.039603036 0.03249535 0.005560232
-0.014092573 0.02075286 -0.010503064 -0.061095867 -0.055377968 -0.031644247 0.012196925 -0.02081233
0.0048137824 -0.0025094866 0.013981663 0.0026073183 -0.0052578514 0.051281378 -0.0041686776 -0.035369016
0.0043188017 -0.04794404 -0.026411114 -0.033708528 -0.049816296 0.041631967 0.030205023 -0.03056926
-0.007831934 -0.05480261 -0.01929016 0.026442088 -0.0024115155 -0.024370499 0.0045086183 1.1290952e-05
-0.032307208 -0.013696838 -0.007899642 0.010421842 0.0057697026 0.03903501 -0.057611268 -0.0034566342
-0.05973374 -0.013465799 0.05071925 -0.010248279 0.056596927 0.03526645 0.031832714 -0.037255675
00000000: f421 383b 5809 ffba 1825 ce3c 8c6a 02bd
00000010: da36 dcbc 6e20 63bd 0004 35bd 99eb 553d
00000020: a45f 58b9 9c70 1dbd 9760 ca3c eacb 5bbb
00000030: 9a60 1b3d 85c6 213d f593 6dbd 17ad c8bc
00000040: d79e 1ebd 29d4 0a3d 9d06 3abd 6372 4d3d
00000050: ed49 a63c d81a 5b3c d236 eebc 8978 133d
00000060: 50be d3bc 9e55 4bbd d867 373d fb6c 87bc
00000070: 0e0e 17bd b118 07bd 7838 3abc d90f 2ebd
00000080: a09a 63bd 6fa3 43bd 218d 103d 38fe d13c
00000090: d94b f73c 6709 21bd a153 e13c 1c85 9bbc
000000a0: f236 74bd ff7a 673c 02fb dcbc a88d fbbc
000000b0: 01d1 1fbb bd42 5bbc cd29 47bd 9daa 353d
000000c0: 3de7 56bd 0649 82bc a535 3d3d 9f3e 00bd
000000d0: 205f 04bd 1bf5 3e3c 6a6f 513c ac9c 40bc
000000e0: dffe 33bd 38b7 04bd a6d2 b73c 0466 5c3a
000000f0: bbb5 42bd 3931 c7bc e4b2 51bd b8d2 c83c
00000100: ce84 ecbb 873c b3bc db7a d9bc 97a5 fe3c
00000110: c885 34bd 0a1b 613c 0a1c b1bc cdd7 3abd
00000120: ef6f 49bd 4ca6 333d b213 3f3d e0e5 7abd
00000130: ca13 c13c 7a22 00bd e91f 2bbd 89d7 f13c
00000140: acc6 3dbc 0294 7fbd 5b41 1b3d 73eb dc3c
00000150: 6c2b a8bb 08a5 c7bc aee8 d5bb 6361 39bd
00000160: c01e 89bd 94ee fe3c eb6a 49bb 23c6 6bbd
00000170: d908 f03c 5200 d0bb caf6 47bd 730b 6ebd
00000180: 6b04 59bd 968e 013d 3bfb a13c 4261 30bd
00000190: cef9 a6bc 5251 67ba 0080 193d 0fbb 423d
000001a0: 9e1c fe3c f008 2fbd bff0 5bbc 5078 e4ba
000001b0: 2948 7c3c 692c 5f3c d19f 76bd c5fa 073c
000001c0: 4543 163d 7887 613b e004 293d e00b 19bd
000001d0: 3a0b f7bc bca4 783c 8c64 15bc a5c1 f63c
000001e0: e4ce 343d d826 d93c 5a38 113d 4d17 f43c
000001f0: 49ca 08bc b874 2c3c 46ed 113d 2d43 82bd
00000200: 1025 283d 9f11 7bbd d6a5 febc 392c 1dbd
00000210: fa16 19bd e68e 73bd d1d5 fa3a fb32 0c3d
00000220: 9eca 443d daae 34bb c85d 963c 8696 18bd
00000230: 292c 6fba da41 3a3d 4eca 9a3c d423 33bd
00000240: 3beb 1c3c 63d1 0d3d 821d 09bc 46ad 27bc
00000250: c0e8 16bd 60cf 26bd 72f5 bf39 11ea 573c
00000260: 7cd0 0cbd 245f 61bd 3067 b0bb d15d bbbc
00000270: 8fce 583c c328 0b3d d74a 843c 9dd4 263b
00000280: 1f19 84bc bc6e 28bd 0f7b 8e3c 8063 a93c
00000290: aa66 643b c52b 053d 1c0e c13c db1a 823b
000002a0: 69eb 88bc f66d 543a c45b 5dbd ebde b5bc
000002b0: 7e3f 58bd ebdc 373d 5d28 2a3d d6f4 1abb
000002c0: 8cd1 813c ff65 373c 1ec0 c33c d747 2b3d
000002d0: 8c15 4c3c e4cb 1f3c 8849 0fbd 8f9c b9bc
000002e0: 2b3f 4a3d a3c0 bcbc 4421 373d bb74 28bd
000002f0: 4071 7dbd 9c06 42bb c25a c53a a5fe 61bc
00000300: 8de0 493c 7b1c 533d 14af 31bc 7ca0 433d
00000310: 6dfc dfbc 3905 40bd 5373 283d 1fc0 c5bc
00000320: 53e6 5dbd a000 f23b 14e7 d53a 0753 5fbd
00000330: 1558 0bbd cb36 22bd d819 053d 9b32 b63b
00000340: 89e4 66bc e701 aa3c 0b15 2cbc a93f 7abd
00000350: 02d4 62bd 669d 01bd 9cd5 473c 9f7e aabc
00000360: efbc 9d3b 3376 24bb 5813 653c 8bdf 2a3b
00000370: 0e4a acbb 6c0c 523d 6799 88bb 1adf 10bd
00000380: bc84 8d3b f860 44bd 1f5c d8bc f411 0abd
00000390: 2c0c 4cbd 4886 2a3d 8670 f73c 626c fabc
000003a0: 8351 00bc b478 60bd 6606 9ebc 149d d83c
000003b0: 840a 1ebb a4a4 c7bc 08bd 933b 456e 3d37
000003c0: 9054 04bd b468 60bc 806d 01bc 60c0 2a3c
000003d0: c60f bd3b 2de3 1f3d cbf9 6bbd b388 62bb
000003e0: 5eab 74bd a89f 5cbc fdbe 4f3d 66e8 27bc
000003f0: 2ed2 673d 8e73 103d 0563 023d 6899 18bd

conv2.0.bias f4 [64]
0.033543758 0.023770034 -0.00053060026 -0.012344358 -0.03537407 -0.015104132 -0.03867005 0.0021410729
0.048713513 -0.029195983 -0.05601366 0.053597067 0.0013786255 0.048624333 -0.046037458 0.03464998
0.018997392 0.03411703 -0.009114577 -0.042230725 0.0050865067 0.048492927 -0.019715214 0.011420882
-0.05541502 -0.041479822 -0.0032382533 0.038580354 -0.011043863 0.0029808215 -0.017640496 0.005584999
-0.043249622 -0.033983532 -0.003689535 0.053165928 0.033847023 0.010247948 -0.036038194 0.0046178987
-0.044531517 0.04046555 0.021886459 0.015206962 0.057081025 0.013472449 0.034069616 -0.024108715
0.016714592 -0.021825453 -0.029401088 0.017332757 -0.057145722 -0.0043013534 -0.013073429 0.018158102
0.027421486 -0.054244447 -0.013006079 -0.0007585966 0.04258554 -0.03531731 0.02426328 -0.05211672
00000000: 2e65 093d 60b9 c23c fb17 0bba fd3f 4abc
00000010: 67e4 10bd 5277 77bc 7d64 1ebd 3e51 0c3b
00000020: d287 473d 6a2c efbc 946e 65bd 9988 5b3d
00000030: ffb2 b43a 4f2a 473d c691 3cbd 23ed 0d3d
00000040: 6ba0 9b3c 4dbe 0b3d 4f55 15bc 20fa 2cbd
00000050: b6ac a63b 85a0 463d cd81 a1bc a71e 3b3c
00000060: dcfa 62bd bfe6 29bd e038 54bb 6f06 1e3d
00000070: 52f1 34bc e359 433b cd82 90bc 5e02 b73b
00000080: 8426 31bd 5132 0bbd 20cc 71bb 84c4 593d
00000090: 2da3 0a3d 02e7 273c c99c 13bd be51 973b
000000a0: ae66 36bd 34bf 253d 3b4b b33c 9f26 793c
000000b0: cbcd 693d 8cbb 5c3c 958c 0b3d a47f c5bc
000000c0: 0aed 883c 4bcb b2bc 8dda f0bc 6dfd 8d3c
000000d0: a211 6abd 5ef2 8cbb f031 56bc 4dc0 943c
000000e0: 06a3 e03c 6d2f 5ebd 7317 55bc 8edc 46ba
000000f0: 2d6e 2e3d e2a8 10bd c9c3 c63c 5778 55bd

conv2.1.weight f4 [64]
1.0007449 1.0105631 1.0006441 0.98145694 1.0101144 1.0250282 0.99604875 1.0052437
1.0054828 0.9990643 1.0040096 1.0068991 1.0158795 1.0071127 0.9944016 1.0143799
1.0023324 1.004741 1.0042431 1.0137986 1.0045847 1.004464 1.0099659 1.0015557
0.98805994 0.97132915 0.9909197 1.002653 1.0029765 0.9845931 1.0052687 1.00052
1.0108745 1.0028251 0.9652844 0.9788761 0.9663901 0.9944426 1.0075921 0.9783112
1.0087522 0.99317944 0.972236 1.0007377 1.0004559 0.998645 1.0061395 0.9971161
1.0068709 0.9813691 1.0007339 1.0038186 1.0033982 1.0045171 1.0018178 1.0026038
1.00518 0.9977923 1.0044495 1.0021443 1.0367054 1.0027455 0.9838 0.99893665
00000000: 6918 803f 225a 813f 1b15 803f c340 7b3f
00000010: 6e4b 813f 2034 833f 0dfd 7e3f d3ab 803f
00000020: a9b3 803f aec2 7f3f 6383 803f 12e2 803f
00000030: 5708 823f 12e9 803f 1a91 7e3f 33d7 813f
00000040: 6e4c 803f 5a9b 803f 0a8b 803f 27c4 813f
00000050: 3b96 803f 4792 803f 9046 813f fa32 803f
00000060: 7ff1 7c3f 07a9 783f eaac 7d3f ef56 803f
00000070: 8961 803f 4b0e 7c3f a5ac 803f 0a11 803f
00000080: 5664 813f 935c 803f e11c 773f a097 7a3f
00000090: 5765 773f ca93 7e3f c7f8 803f 9a72 7a3f
000000a0: cb1e 813f 0241 7e3f 75e4 783f 2c18 803f
000000b0: f00e 803f 33a7 7f3f 2ec9 803f 0043 7f3f
000000c0: 25e1 803f 013b 7b3f 0c18 803f 217d 803f
000000d0: 5a6f 803f 0494 803f 913b 803f 5255 803f
000000e0: bda9 803f 516f 7f3f cd91 803f 4446 803f
000000f0: c3b2 843f f759 803f 51da 7b3f 50ba 7f3f

conv2.1.bias f4 [64]
-0.0039082025 -0.011210232 0.00800306 0.0101856245 0.014572157 0.0006098317 0.0028837929 0.010192873
-0.0021731728 -0.0017187261 -0.002596691 0.0120231565 0.027119761 0.017818939 -0.005271844 0.015654266
0.007530793 0.014120878 0.014613084 0.017972328 0.007985716 0.020757295 0.012290478 -0.0061231996
0.00386215 -0.013779423 0.00922628 0.007608374 0.007128303 0.01832024 0.008578117 0.009638639
0.0020254576 0.021616964 -0.0025032912 0.018901931 0.028153269 0.0022538553 0.00072851434 0.01828519
0.033318054 0.0014463984 -0.0034884098 0.003637819 0.034237344 -0.010735699 0.027887285 -0.01228298
0.012013875 -0.030019434 -0.02051068 0.0020971252 0.04165108 0.025187183 0.027078731 0.014909924
-0.0032863037 0.005139207 0.024670836 0.01121968 0.065987915 0.030214721 -0.023717668 0.0044604857
00000000: 6110 80bb 1fab 37bc 441f 033c 9be1 263c
00000010: 0ec0 6e3c 1ddd 1f3a 04fe 3c3b 0200 273c
00000020: ca6b 0ebb e146 e1ba 3f2d 2abb c6fc 443c
00000030: 432a de3c 06f9 913c 6fbf acbb 603d 803c
00000040: dfc4 f63b 415b 673c b76b 6f3c b43a 933c
00000050: 85d6 023c 340b aa3c 005e 493c 1fa5 c8bb
00000060: 201c 7d3b 17c3 61bc d329 173c ab4f f93b
00000070: 8a94 e93b 5414 963c 3b8b 0c3c 62eb 1d3c
00000080: 8abd 043b 0f16 b13c 420e 24bb 39d8 9a3c
00000090: afa1 e63c 6bb5 133b c5f9 3e3a d3ca 953c
000000a0: 8378 083d 1495 bd3a ce9d 64bb 7a68 6e3b
000000b0: 753c 0c3d c9e4 2fbc e073 e43c 8d3e 49bc
000000c0: d8d5 443c 51eb f5bc 0306 a8bc ec6f 093b
000000d0: 539a 2a3d 5a55 ce3c 37d4 dd3c c148 743c
000000e0: 075f 57bb cb66 a83b 7e1a ca3c c0d2 373c
000000f0: ac24 873d dd84 f73c 8e4b c2bc 4429 923b

conv2.1.running_mean f4 [64]
-0.40095308 -0.25852764 -0.1588246 -0.10822172 -0.28038085 -0.43983576 -0.17637676 -0.24789354
-0.13696823 -0.26370826 -0.29588035 -0.19993946 -0.20327896 -0.12202323 -0.31874475 -0.1693057
-0.42227206 -0.17057823 -0.030095255 -0.22067899 -0.23684669 -0.29857495 -0.24295177 -0.20173784
-0.16675447 0.3634759 -0.11567031 -0.18237159 -0.24947248 0.46310133 -0.23267311 -0.12785
-0.39866686 -0.28682622 0.12547655 0.2091712 0.4080227 -0.238475 -0.3261363 0.36602718
-0.24934584 -0.33427104 0.3313314 -0.28486755 -0.027042784 -0.23175108 -0.11056943 -0.29398382
-0.13371526 0.48798212 -0.3567152 -0.26047838 -0.10111762 -0.1388579 -0.32335788 -0.25091207
-0.20898928 -0.14526497 -0.3709703 -0.39637068 -0.15722984 -0.1866354 0.4994872 -0.44127628
00000000: b949 cdbe bc5d 84be eaa2 22be 59a3 ddbd
00000010: 148e 8fbe 2732 e1be 1c9c 34be ced7 7dbe
00000020: 6641 0cbe c504 87be a17d 97be eebc 4cbe
00000030: 5c28 50be 51e7 f9bd 8332 a3be 795e 2dbe
00000040: 0b34 d8be 0fac 2ebe 538a f6bc acf9 61be
00000050: f087 72be d1de 98be 59c8 78be 5d94 4ebe
00000060: afc1 2abe 8319 ba3e 8ee4 ecbd 9ebf 3abe
00000070: b775 7fbe 9e1b ed3e dc41 6ebe 1ceb 02be
00000080: 101e ccbe e3da 92be ed7c 003e fa30 563e
00000090: 5ae8 d03e ca32 74be 56fb a6be ea67 bb3e
000000a0: 8454 7fbe 9325 abbe 45a4 a93e 29da 91be
000000b0: d488 ddbc 2850 6dbe 3a72 e2bd 0c85 96be
000000c0: a7ec 08be cbd8 f93e 60a3 b6be 6c5d 85be
000000d0: c116 cfbd c430 0ebe 2a8f a5be 8c77 80be
000000e0: 4901 56be 57c0 14be d2ef bdbe 19f1 cabe
000000f0: dc00 21be 5a1d 3fbe c9bc ff3e f7ee e1be

conv2.1.running_var f4 [64]
0.9442482 0.8138486 0.4904375 0.4402644 0.39131683 1.3910362 1.048292 0.70407087
0.4456822 0.44919834 0.58863306 0.53136474 0.5269269 0.5285334 0.4449562 0.44577
1.1287779 0.90204865 0.7277274 0.37194714 0.7027201 0.7806319 0.666941 0.7185066
0.5060447 0.97141606 0.68196017 0.50116056 0.9492564 1.2582718 0.5148282 0.8583047
0.80745703 0.8513994 0.6234084 0.7463557 0.94165486 0.7707556 0.6635587 1.2307881
0.6544157 1.0249419 0.72055054 0.9229592 0.47837344 0.5545481 0.72050655 0.41819847
0.44120693 1.5323131 0.6804479 0.56564003 0.5092669 0.7032792 1.179742 0.77000654
0.32150263 0.35909355 1.2455002 0.970804 1.0541233 0.45612115 1.2015826 0.8429422
00000000: 40ba 713f 6258 503f a01a fb3e 566a e13e
00000010: ae5a c83e 790d b23f 6f2e 863f fd3d 343f
00000020: 7530 e43e 53fd e53e a8b0 163f 8507 083f
00000030: aee4 063f f74d 073f 4dd1 e33e f73b e43e
00000040: cb7b 903f a9ec 663f 584c 3a3f db6f be3e
00000050: 77e5 333f 7ed7 473f a5bc 2a3f 0cf0 373f
00000060: 258c 013f b9ae 783f f194 2e3f 0f4c 003f
00000070: 7802 733f 0d0f a13f c8cb 033f dbb9 5b3f
00000080: 81b5 4e3f 50f5 593f b197 1f3f 2b11 3f3f
00000090: 4b10 713f 3d50 453f fcde 293f 778a 9d3f
000000a0: ca87 273f 4c31 833f 0076 383f 0e47 6c3f
000000b0: 5ded f43e ddf6 0d3f 1e73 383f 1c1e d63e
000000c0: e0e5 e13e d622 c43f d531 2e3f c9cd 103f
000000d0: 515f 023f 1b0a 343f c901 973f 261f 453f
000000e0: fe9b a43e 1cdb b73e 8d6c 9f3f 9c86 783f
000000f0: 83ed 863f b688 e93e 75cd 993f 0fcb 573f

conv3.0.weight f4 [128, 64, 3]
0.064825095 0.06482596 -0.07066931 -0.0068413564 0.022973105 -0.017702838 0.07256568 0.080883175
0.031530485 0.026187867 0.015352906 0.056794897 0.017742934 -0.035102308 -0.006793654 0.06289198
0.042769477 -0.07204953 0.012528698 -0.025708482 -0.052521694 0.036707185 0.036391474 -0.057879105
0.0010371754 0.026108684 0.021247368 0.03085239 -0.04236219 0.029368905 -0.06005355 0.04597978
0.066818185 0.07613478 0.04682856 0.06322964 0.045090947 -0.05247382 0.055553038 -0.038460888
0.030631725 0.0254784 -0.00349185 -0.024985064 -0.04482548 -0.056016102 -0.004689629 -0.022687418
0.056602877 0.017937189 0.032857146 0.008271857 -0.0120068025 -0.0020973724 -0.0077170487 -0.017286386
0.015310256 -0.020635009 -0.029368458 -0.05391465 0.035263684 0.040649716 -0.01564092 0.023244938
-0.035106122 -0.06617927 -0.041193377 0.058635198 -0.05053863 -0.021917483 0.04229083 -0.008993441
-0.038151897 -0.025945414 -0.071616516 -0.042365808 -0.07621857 -0.05274172 0.07071208 -0.027970277
-0.08124181 -0.030277038 -0.057513755 0.01977995 0.064599805 -0.06433228 -0.04453322 0.0144576235
-0.053489942 0.012780104 -0.031572364 0.06990395 0.025978796 0.013263375 0.06489147 0.05361826
0.0052807755 -0.026445316 -0.050742306 0.016787102 0.011044397 0.05604002 0.037573263 -0.03887506
0.016264474 0.00083893246 0.006262517 -0.03479534 0.0591502 -0.06073233 0.028118268 -0.024352316
-0.061564866 0.016254487 0.030081693 -0.0039563295 0.062043343 0.057344284 0.030836415 0.025704486
0.03541057 -0.0064801276 0.025911199 0.040076587 -0.00061078405 0.039150238 -0.05848012 -0.030316228
-0.0070040626 0.051160038 -0.024667265 0.01909389 -0.029624566 0.01894448 0.020028269 0.04877805
0.03330976 -0.038880546 -0.03487571 -0.06459349 -0.010632772 0.048996765 0.047104977 -0.010607144
0.03157889 -0.014567151 0.0628589 0.027188422 -0.01931145 0.06271715 0.017239492 0.009463979
0.03937654 0.048020262 -0.027216867 -0.02936879 -0.023132637 -0.0018142683 -0.016197309 -0.025040695
0.0616484 -0.053308636 0.0468877 -0.04698131 -0.030950911 -0.056265492 -0.04157793 -0.03472682
0.0085750995 -0.06826871 -0.049146473 0.040562987 0.011873359 -0.06823179 0.053659018 0.026962543
0.02777719 -0.03544253 -0.064331055 -0.0458136 -0.076165415 0.011138327 0.01589781 -0.0021042181
-0.016010087 -0.047591813 -0.025032314 0.015333319 -0.012432465 -0.015294178 0.0007466067 0.009830768
0.033342984 0.03576126 -0.050226927 0.026047966 0.002809367 0.005456082 0.030831093 -0.015729863
-0.052443933 -0.04719545 -0.023538243 -0.027977338 0.06930581 0.06939522 0.010083938 0.045231074
-0.020158982 0.0060342033 0.008627465 0.059714265 -0.0032765463 0.03760393 0.06524094 0.049404174
0.015847279 0.066436194 0.041371748 0.0664441 0.0041136215 0.06941609 0.03264653 0.054753274
0.027970916 -0.036027666 -0.048447404 -0.06509527 0.05652752 -0.032418866 0.012171709 0.011136708
0.054022532 0.019114038 0.046929255 0.006946829 0.017312648 -0.008268773 -0.016358482 0.037013505
0.04797412 -0.0317048 0.038164776 0.03185788 0.038129315 -0.014984593 -0.021401204 -0.0044968408
-0.03136749 -0.041452277 -0.03036599 -0.018524462 -0.014332594 -0.03759035 -0.027685624 0.036615666
00000000: 05c3 843d 79c3 843d 12bb 90bd 752d e0bb
00000010: 1832 bc3c 8b05 91bc 519d 943d 14a6 a53d
00000020: 1c26 013d f087 d63c c18a 7b3c c4a1 683d
00000030: a159 913c 70c7 0fbd 4d9d debb 83cd 803d
00000040: 0c2f 2f3d b48e 93bd 2b45 4d3c 989a d2bc
00000050: fd20 57bd 465a 163d 3a0f 153d a412 6dbd
00000060: d5f1 873a e1e1 d53c f60e ae3c 27be fc3c
00000070: fa83 2dbd 0f97 f03c b6fa 75bd 4b55 3c3d
00000080: f9d7 883d 8dec 9b3d 4ecf 3f3d 8b7e 813d
00000090: 49b1 383d caee 56bd 958b 633d 2a89 1dbd
000000a0: 62ef fa3c 14b8 d03c 86d7 64bb 7aad ccbc
000000b0: ec9a 37bd 2471 65bd 76ab 99bb f7da b9bc
000000c0: 6bd8 673d 03f1 923c 3795 063d af86 073c
000000d0: 2eb8 44bc 1274 09bb 4cdf fcbb 2e9c 8dbc
000000e0: ded7 7a3c c00a a9bc 1f96 f0bc 9cd5 5cbd
000000f0: a770 103d 5180 263d 6321 80bc 2b6c be3c
00000100: 70cb 0fbd ff88 87bd 63ba 28bd 762b 703d
00000110: 9801 4fbd 4b8c b3bc 2639 2d3d 3a59 13bc
00000120: 2a45 1cbd 7a8b d4bc aeab 92bd c587 2dbd
00000130: 7b18 9cbd b407 58bd 7fd1 903d ec21 e5bc
00000140: 1b62 a6bd 8d07 f8bc 8b93 6bbd 9009 a23c
00000150: e74c 843d a4c0 83bd 7768 36bd abdf 6c3c
00000160: 4518 5bbd a463 513c 0652 01bd cd29 8f3d
00000170: 7cd1 d43c a04e 593c d2e5 843d d29e 5b3d
00000180: 5b0a ad3b d9a3 d8bc 2ad7 4fbd 1b85 893c
00000190: 8ff3 343c 388a 653d 6ce6 193d 743b 1fbd
000001a0: 133d 853c ceeb 5b3a cd35 cd3b 8f85 0ebd
000001b0: 7b47 723d 77c2 78bd 4858 e63c 827e c7bc
000001c0: 712b 7cbd 2128 853c e26d f63c 19a4 81bb
000001d0: 2921 7e3d d7e1 6a3d a69c fc3c 3792 d23c
000001e0: ad0a 113d 4057 d4bb b943 d43c 5927 243d
000001f0: 061d 20ba 005c 203d da88 6fbd bd59 f8bc
00000200: 5682 e5bb 308d 513d 0113 cabc ca6a 9c3c
00000210: 38af f2bc 7431 9b3c 5312 a43c 7ecb 473d
00000220: d16f 083d 3541 1fbd d5d9 0ebd 9749 84bd
00000230: 1435 2ebc d5b0 483d 26f1 403d 96c9 2dbc
00000240: de58 013d 0fab 6ebc 2bbc 803d 41ba de3c
00000250: 0c33 9ebc d971 803d d639 8d3c ce0e 1b3c
00000260: 4b49 213d e5b0 443d e8f5 debc d196 f0bc
00000270: a880 bdbc becc edba 38b0 84bc 2522 cdbc
00000280: 0883 7c3d 285a 5abd 510d 403d 796f 40bd
00000290: c48c fdbc a576 66bd 9f4d 2abd b63d 0ebd
000002a0: 937e 0c3c 77d0 8bbd d04d 49bd 6025 263d
000002b0: 7a88 423c 1cbd 8bbd 8fc9 5b3d 8de0 dc3c
000002c0: fd8c e33c 302c 11bd 00c0 83bd 0ba7 3bbd
000002d0: 9dfc 9bbd 887d 363c 203c 823c ece6 09bb
000002e0: 9627 83bc a2ef 42bd 9110 cdbc 9a38 7b3c
000002f0: 8ab1 4bbc 6f94 7abc edb7 433a 3b11 213c
00000300: a792 083d 667a 123d c0ba 4dbd 8b62 d53c
00000310: 5b1d 383b efc8 b23b 7d91 fc3c eadb 80bc
00000320: 73cf 56bd 0450 41bd 46d3 c0bc bb30 e5bc
00000330: 34f0 8d3d 151f 8e3d 1a37 253c 3844 393d
00000340: 7324 a5bc 91ba c53b 365a 0d3c f296 743d
00000350: 53bb 56bb 9406 1a3d 0b9d 853d 085c 4a3d
00000360: 27d2 813c b30f 883d 6c75 293d d813 883d
00000370: 8fcb 863b 062a 8e3d 5eb8 053d f844 603d
00000380: 4323 e53c bf91 13bd c970 46bd ab50 85bd
00000390: 6789 673d a5c9 04bd d96b 473c bd76 363c
000003a0: bb46 5d3d 0b95 9c3c e438 403d 3aa2 e33b
000003b0: 41d3 8d3c bf79 07bc 3902 86bc 799b 173d
000003c0: 8380 443d e4dc 01bd ab52 1c3d 697d 023d
000003d0: 7c2d 1c3d f081 75bc 9451 afbc 3c5a 93bb
000003e0: 327b 00bd ddc9 29bd 19c2 f8bc 9dc0 97bc
000003f0: 42d3 6abc 57f8 19bd f6cc e2bc 4ffa 153d

conv3.0.bias f4 [128]
-0.038041513 0.029398883 -0.026400661 0.07039294 0.0014415996 -0.04367184 0.07146187 0.012767769
-0.024429075 0.040665578 0.016390115 0.035356164 -0.032625064 -0.030633422 0.06349145 -0.05593842
0.038728446 0.050921302 0.028770741 -0.004656987 -0.047588352 0.05072871 0.002606849 -0.049277425
0.009400189 -0.02146655 0.024958182 -0.014159913 -0.0707398 -0.0099290395 -0.03816575 -0.056147598
0.007952151 -0.04142157 -0.019709488 -0.03579886 0.021342283 0.039813366 -0.06315739 -0.028644696
-0.010410625 -0.061534785 0.02968551 -0.065670565 0.0638829 -0.010219459 0.02415123 -0.047674283
0.014516517 -0.029042896 0.0014350927 -0.06866886 -0.016000386 -0.042736866 -0.06788721 0.06413938
-0.04498672 -0.07204905 0.022030814 -0.05537425 0.04985995 0.0014864827 -0.016350182 0.019269403
-0.01020146 0.070912525 0.019093905 -0.030283084 0.00705291 -0.048988298 0.004462685 0.052026026
-0.045825284 -0.02786367 0.017097812 0.02288889 -0.05483021 -0.006860413 -0.043934226 -0.056726865
-0.007929844 0.02651348 -0.030025518 0.0042078737 0.04910434 0.01711321 0.0065062363 -0.045654755
0.017409772 0.01679689 0.0025597443 -0.061745588 0.037609085 -0.06268257 -0.0051061264 -0.022519242
-0.052929185 -0.020266961 -0.070792 -0.059729796 -0.03464187 -0.026149003 -0.04909215 -0.018484939
-0.06787664 0.02362536 0.045144532 0.032973856 -0.0481552 -0.00028246822 -0.0639345 -0.048790846
-0.05973424 0.044157065 -0.0026164188 -0.07095454 0.030062431 0.0020567498 -0.0044464404 -0.0404143
-0.06793539 -0.07216815 -0.023359854 0.032735676 -0.0027924355 -0.043583084 0.007851797 0.018000573
00000000: 6bd1 1bbd edd5 f03c 3346 d8bc 2c2a 903d
00000010: 0ef4 bc3a 3ee1 32bd 9a5a 923d e82f 513c
00000020: 7c1f c8bc f390 263d 9044 863c a0d1 103d
00000030: dca1 05bd f1f2 fabc ce07 823d af1f 65bd
00000040: b8a1 1e3d db92 503d 9eb0 eb3c a399 98bb
00000050: 01ec 42bd e8c8 4f3d abd7 2a3b 20d7 49bd
00000060: 4003 1a3c 9eda afbc 1a75 cc3c fbfe 67bc
00000070: 07e0 90bd 69ad 22bc b153 1cbd 06fb 65bd
00000080: bd49 023c aaa9 29bd cb75 a1bc d3a1 12bd
00000090: 03d6 ae3c 5713 233d a958 81bd 48a8 eabc
000000a0: 5391 2abc e60b 7cbd 072f f33c 4a7e 86bd
000000b0: 0ad5 823d 856f 27bc cdd8 c53c 1c46 43bd
000000c0: afd6 6d3c 5eeb edbc b819 bc3a 42a2 8cbd
000000d0: 3e13 83bc da0c 2fbd 7308 8bbd 825b 833d
000000e0: ff43 38bd 748e 93bd f779 b43c 1cd0 62bd
000000f0: f239 4c3d 15d6 c23a d1f0 85bc deda 9d3c
00000100: 0624 27bc 963a 913d d26a 9c3c 3b14 f8bc
00000110: 191c e73b f4a7 48bd b73b 923b 3e19 553d
00000120: 4bb3 3bbd 5a42 e4bc b610 8c3c 7b81 bb3c
00000130: a495 60bd 51cd e0bb 60f4 33bd 6e5a 68bd
00000140: 2dec 01bc cc32 d93c 13f8 f5bc 34e2 893b
00000150: a221 493d 0131 8c3c 4432 d53b 7b00 3bbd
00000160: f09e 8e3c a299 893c 62c1 273b f1e8 7cbd
00000170: fc0b 1a3d b85f 80bd 4b51 a7bb 467a b8bc
00000180: 46cc 58bd e606 a6bc 65fb 90bd 3ba7 74bd
00000190: a2e4 0dbd 6f36 d6bc da14 49bd ba6d 97bc
000001a0: e802 8bbd f989 c13c 79e9 383d 980f 073d
000001b0: 633e 45bd 3e18 94b9 17f0 82bd e9d8 47bd
000001c0: e4ab 74bd 0ade 343d 3978 2bbb 9d50 91bd
000001d0: 7d45 f63c 89ca 063b 72b3 91bb 7789 25bd
000001e0: b621 8bbd e5cc 93bd 2a5d bfbc d815 063d
000001f0: 4b01 37bb 2d84 32bd d3a4 003c f075 933c

conv3.1.weight f4 [128]
1.0054991 1.0015243 1.0042714 0.99492675 1.0060687 1.0041202 1.0055561 1.0026257
1.0008886 1.0030302 0.99936485 1.0035836 1.0096304 0.98958117 0.9970538 0.98820776
0.99290085 1.0015867 0.9999964 0.9916867 1.0002115 0.9909477 0.994453 1.0032998
0.9970412 1.0034436 0.9930147 1.000123 1.0094082 1.0049096 0.99082255 1.0003222
0.998242 0.99968755 1.0042317 1.0010977 1.0024455 1.0019963 0.99926937 0.99337
1.0027323 0.9867137 1.0048401 1.0073309 1.0014633 1.0002263 0.99581796 1.0097418
1.0057753 1.0048634 1.0024567 1.0019602 1.0028074 0.98614603 1.000197 1.0008106
0.9942181 0.99106264 1.0033468 0.99203753 1.0020055 0.9973336 0.998513 1.0057408
0.9937981 0.9851351 0.9957362 0.9955632 1.0042051 1.0037878 0.9992667 0.9965265
1.0019314 0.9983115 1.0064607 1.0092669 0.9931366 0.9875767 1.0025615 0.9919099
1.0053974 1.0057347 1.0093606 0.99752045 1.0038371 1.0029382 0.99405944 0.99843717
1.0067362 0.9873721 1.0023844 0.9998749 0.9999122 1.0041089 1.0041913 1.0025408
0.99231666 1.0291058 1.0007751 1.0081981 0.9997175 0.999018 0.9981273 1.0015365
1.00431 1.0035241 0.99952924 1.004047 0.99263525 0.998676 1.0041096 1.0015013
0.98619014 1.0089409 1.005539 0.9874689 1.0014547 0.98626494 1.0069681 0.9901508
1.0041641 0.99956995 0.99359095 1.001783 0.9880317 1.0231737 1.0028971 0.9939599
00000000: 32b4 803f f331 803f f78b 803f 85b3 7e3f
00000010: dcc6 803f 0387 803f 10b6 803f 0a56 803f
00000020: 1e1d 803f 4b63 803f 60d6 7f3f 6d75 803f
00000030: 923b 813f 3155 7d3f eb3e 7f3f 2ffb 7c3f
00000040: c02e 7e3f fe33 803f c4ff 7f3f 2edf 7d3f
00000050: ee06 803f c0ae 7d3f 7994 7e3f 216c 803f
00000060: 183e 7f3f d770 803f 3636 7e3f 0804 803f
00000070: 4a34 813f e1a0 803f 8ca6 7d3f 8f0a 803f
00000080: ca8c 7f3f 86eb 7f3f aa8a 803f f823 803f
00000090: 2250 803f 6a41 803f 1ed0 7f3f 7f4d 7e3f
000000a0: 8859 803f 4599 7c3f 9a9e 803f 38f0 803f
000000b0: f32f 803f 6a07 803f eded 7e3f 383f 813f
000000c0: 3fbd 803f 5d9f 803f 8050 803f 3b40 803f
000000d0: fe5b 803f 1174 7c3f 7506 803f 901a 803f
000000e0: 1485 7e3f 48b6 7d3f ab6d 803f 2cf6 7d3f
000000f0: b741 803f 4151 7f3f 8c9e 7f3f 1dbc 803f
00000100: 8d69 7e3f d031 7c3f 91e8 7e3f 3bdd 7e3f
00000110: cb89 803f 1e7c 803f f1cf 7f3f 5c1c 7f3f
00000120: 4a3f 803f 5891 7f3f b4d3 803f a82f 813f
00000130: 333e 7e3f d4d1 7c3f ef53 803f cfed 7d3f
00000140: ddb0 803f eabb 803f ba32 813f 805d 7f3f
00000150: bc7d 803f 4760 803f ae7a 7e3f 9499 7f3f
00000160: bbdc 803f 6bc4 7c3f 224e 803f cdf7 7f3f
00000170: 3ffa 7f3f a486 803f 5789 803f 4253 803f
00000180: 7708 7e3f bdb9 833f 6619 803f a30c 813f
00000190: 7ced 7f3f a5bf 7f3f 4585 7f3f 5932 803f
000001a0: 3b8d 803f 7a73 803f 26e1 7f3f 9d84 803f
000001b0: 581d 7e3f 3ba9 7f3f aa86 803f 3231 803f
000001c0: f576 7c3f fa24 813f 80b5 803f c3ca 7c3f
000001d0: ab2f 803f dc7b 7c3f 55e4 803f 867a 7d3f
000001e0: 7388 803f d1e3 7f3f fa5b 7e3f 6d3a 803f
000001f0: a5ef 7c3f 5bf7 823f ef5e 803f 2874 7e3f

conv3.1.bias f4 [128]
0.0163201 -0.0003495381 0.0021272649 0.008901741 0.004430303 0.011590635 0.009993523 0.010089142
-0.0027695505 0.0064948965 -0.0044213226 0.0035949673 0.0025341797 0.0040403404 -0.002042236 -0.005066235
-0.0006756074 0.012484399 4.3928398e-05 0.00017603091 -0.0038484 0.0039917966 0.0005865937 -0.00073969463
0.00052471855 -0.00070560566 0.00047551966 -0.002624233 -0.0010061088 0.0035945135 0.0077668885 -0.004660703
0.0050249184 -0.002385766 0.00023521588 -0.00016845799 0.00029376947 0.012613986 -0.0006497181 -0.0025290078
0.017076904 0.006992874 0.021532534 -0.001463578 0.0073554576 -0.00045683596 0.0024734773 0.017328449
-0.0007798467 -0.0035340409 -0.0010128374 0.0050419504 0.006991328 -0.005382276 0.008005147 -0.0056552803
0.010566749 0.001925012 -0.0010037158 0.011038264 -0.004372764 -0.0053598443 -0.007534312 -0.0012819348
-0.0024599764 0.0005139492 -0.0037005 -0.012020156 0.007732245 0.0051631164 0.0040205386 0.00065653137
0.013564949 0.005659624 0.007330913 0.0041643577 -0.00248718 4.3654163e-05 0.0033650848 -0.0040059257
0.0076188454 0.007597046 0.0063392487 0.0017104974 0.004715249 0.0028031887 -0.0027494181 0.0078092534
0.01773257 0.0036991048 -0.0014188231 0.001836096 0.00097566826 -0.0028516285 9.888417e-05 0.0038483783
0.005735085 0.025929391 -0.004992418 0.016298112 -0.0011807472 -0.0034075342 0.0022367896 0.01316869
0.010752118 0.0035252366 0.0046955617 0.01323835 0.0007884456 -0.011779632 0.0023738167 -0.0009873855
0.003334923 0.019254342 0.0039128787 0.008202138 0.0059060003 0.010618777 0.010957648 -0.008520457
0.0024450535 -2.952019e-05 0.0069268234 0.0027094195 0.0045859963 0.0077353898 0.0077902027 0.0048193913
00000000: bbb1 853c 3642 b7b9 9569 0b3b 9cd8 113c
00000010: 132c 913b a6e6 3d3c e0bb 233c ee4c 253c
00000020: 5981 35bb 24d3 d43b bee0 90bb 8b99 6b3b
00000030: 7b14 263b d564 843b 09d7 05bb a902 a6bb
00000040: 3f1b 31ba 5d8b 4c3c c23f 3838 f094 3839
00000050: 7035 7cbb 9ecd 823b a3c5 193a 11e8 41ba
00000060: 448d 093a 65f8 38ba 2b4f f939 53fb 2bbb
00000070: 69df 83ba ee91 6b3b 6281 fe3b cfb8 98bb
00000080: 12a8 a43b 835a 1cbb 48a4 7639 19a4 30b9
00000090: 1205 9a39 e4aa 4e3c d851 2aba b6bd 25bb
000000a0: dde4 8b3c 7b24 e53b ff64 b03c 87d5 bfba
000000b0: 0d06 f13b 7c83 efb9 101a 223b 64f4 8d3c
000000c0: a06e 4cba 5e9b 67bb 2fc1 84ba f236 a53b
000000d0: 8317 e53b ce5d b0bb 0528 033c ee4f b9bb
000000e0: 2820 2d3c af50 fc3a 1d8f 83ba d6d9 343c
000000f0: 6749 8fbb a2a1 afbb 64e2 f6bb 9806 a8ba
00000100: 8e37 21bb 8cba 063a 1684 72bb 30f0 44bc
00000110: c65e fd3b 5c2f a93b b9be 833b 131b 2c3a
00000120: 853f 5e3c 5e74 b93b 2838 f03b 2a75 883b
00000130: f5ff 22bb 4d19 3738 c188 5c3b 2444 83bb
00000140: 82a7 f93b a4f0 f83b 79b9 cf3b c532 e03a
00000150: 6082 9a3b b4b5 373b 952f 34bb c4e4 ff3b
00000160: e543 913c ae6c 723b cef7 b9ba 29a9 f03a
00000170: fdc3 7f3a 63e2 3abb 0960 cf38 1335 7c3b
00000180: 61ed bb3b e069 d43c 7097 a3bb 9e83 853c
00000190: 4dc3 9aba f050 5fbb 1a97 123b 7dc1 573c
000001a0: a729 303c a807 673b 3add 993b aae5 583c
000001b0: b0af 4e3a 5cff 40bc 0992 1b3b 296b 81ba
000001c0: b98e 5a3b 48bb 9d3c 9b37 803b 4362 063c
000001d0: 1f87 c13b 61fa 2d3c b587 333c 6399 0bbc
000001e0: 313d 203b 20a2 f7b7 68fa e23b 8490 313b
000001f0: 2046 963b 2779 fd3b f544 ff3b fceb 9d3b
